Models/GCN/acute_oral_toxicity.pt (torch, 191082 bytes, 30 tensors)

gnn.gnn_layers.0.graph_conv.weight f4 [78, 64]
000000 92 be 1f bf 0b c0 91 3d 7e d4 ef bc 1d f9 b6 bb
       -0.6240016 0.071167074 -0.029276129 -0.005583896
000010 b7 2e 1e be b2 16 16 be c8 d3 a3 bc cc cb e8 3c
       -0.15447508 -0.14657095 -0.019998446 0.02841749
000020 47 d3 da bc e4 1f 31 3f 93 da 78 bf e5 0d e9 ba
       -0.026712073 0.69189286 -0.9720852 -0.001778063
000030 c7 de a4 be 1b dd 30 be d8 af b2 be 00 6b 4b be
       -0.32201216 -0.17271845 -0.34899783 -0.19865036
000040 6b f3 45 bf 96 66 57 be 6d 9c eb 3e c1 ef 4d bc
       -0.7732455 -0.21035227 0.4601778 -0.012569369
000050 47 c7 28 be 0c 9f 70 3e ba 91 a0 be eb 17 04 bf
       -0.16482268 0.23498172 -0.3136118 -0.51598996
000060 90 ce 3f 3e 61 a6 a9 be 47 1d bc bc f3 16 c0 3d
       0.18731141 -0.3313475 -0.02296318 0.09379377
000070 69 a7 ff 3e a2 d4 1e bf eb da 47 bd 01 a4 32 bf
       0.4993241 -0.620432 -0.04879276 -0.697815
000080 0f d3 dc be 6a 2c d1 3e a8 57 1b 3e 50 91 3c 3e
       -0.43129775 0.40854198 0.15170157 0.18414807
000090 fc af ad be e9 ca 12 bf b7 b5 97 3e 69 92 b8 be
       -0.33923328 -0.57340866 0.29630825 -0.36049202
0000a0 bb ca b6 3e c3 39 47 be 88 3e 88 3e 08 26 d6 be
       0.35701546 -0.19455628 0.26610208 -0.4182589
0000b0 50 af 28 bc 23 da 41 be b4 80 af 3e 36 44 36 bf
       -0.010295704 -0.18930869 0.3427788 -0.7119783
0000c0 81 bd 9c 3e 29 61 dd bd f5 0a c2 bc 65 dc 45 3e
       0.3061333 -0.108095475 -0.023686865 0.19322355
0000d0 a4 df 00 be 9f c2 1e be 46 ac 2e be 3f d9 be be
       -0.12585312 -0.1550393 -0.17057905 -0.3727512
0000e0 6b ad 2c bd 01 cc 35 bd 89 ae 49 bd 3f f7 88 3e
       -0.04215757 -0.044384006 -0.049238715 0.26751134
0000f0 4b 5b 5d 3e 55 ff a1 be 37 c4 fd bd c0 c4 c8 be
       0.21616857 -0.31640115 -0.12390941 -0.39212608
000100 c7 f8 42 3f be f8 d1 3e fd 75 b3 bd e0 7d 09 bb
       0.76160854 0.41010088 -0.08762739 -0.0020979568
000110 c8 6a f3 bd b9 c6 1a 3d d4 e4 ac bb c2 80 3a be
       -0.11885601 0.037787173 -0.005276302 -0.1821318
000120 33 dc 78 9b 71 a8 98 bf ef e5 7f 3f aa 43 bf ba
       -2.058523e-22 -1.1926404 0.99960226 -0.0014592309
000130 39 62 e0 be 2f 9e f8 bc 35 16 92 3f 0b 66 34 3f
       -0.43824938 -0.030348865 1.1413027 0.70468205
000140 be 57 5a be eb b3 a3 3f 03 05 10 bf 1b 75 c1 3e
       -0.21322533 1.2789282 -0.5625765 0.37784657
000150 8d 3a 34 be 75 60 a8 be c8 ba 96 3e 9a ee c8 3f
       -0.1760046 -0.3288609 0.29439378 1.5697815
000160 d4 17 37 bf a4 9b 13 be 98 6c 47 29 74 6f 8f 3e
       -0.71520734 -0.14414841 4.4281066e-14 0.2801472
000170 49 53 be 3e 68 0a 8b be ee 7c 47 b6 fc 74 d8 3f
       0.37172917 -0.27156377 -2.972603e-06 1.6910701
000180 3e b7 df be f0 a7 10 bf 8f bb 32 3f af 48 84 3e
       -0.4369449 -0.5650625 0.6981744 0.25836703
000190 dd ca 03 3e 9c 5a c4 3f ac fe aa 3e 43 27 90 3f
       0.12870355 1.5340152 0.33397424 1.1261982
0001a0 b4 05 b8 bd 30 cf b2 3e 08 86 d6 be 50 0f 1e be
       -0.08985463 0.34923697 -0.41899133 -0.15435529
0001b0 8c 42 6d bf e6 75 cd bd d4 51 71 bf 61 99 1f 3f
       -0.9267967 -0.10032253 -0.94265485 0.6234341
0001c0 64 a2 2b bf 37 b0 ac bc 36 2b c6 3a 06 90 7c bd
       -0.67044663 -0.02108012 0.0015119079 -0.06166079
0001d0 3d 2a ae 3e 2e 79 18 3c bc 1a 0d 3f 89 b0 fb 3e
       0.340166 0.009306235 0.5511892 0.49158123
0001e0 cf d7 1b 2a 0b 93 83 be 68 ad e9 b8 6a 8b 3c be
       1.3841639e-13 -0.25698122 -0.00011142605 -0.18412557
0001f0 2d 72 9e 3e 09 b8 cf 3e 08 c2 48 bb ef be d2 3d
       0.30946484 0.40570095 -0.003063323 0.10290324
000200 d6 ad 20 3e dc 5b 97 bf a5 08 89 3e 9c bf 3f 3b
       0.15691313 -1.1824908 0.26764408 0.0029258495
000210 b4 07 a9 be ac 41 5f bf fe fb 4d b5 dc 92 3f 3f
       -0.3301369 -0.8720958 -7.673515e-07 0.74833465
000220 de c7 0a 2b 51 3d 0e 3f ea 97 03 3e 15 d1 03 3a
       4.930482e-13 0.5556231 0.1285092 0.0005028409
000230 fd 56 2b 3f 91 da 27 be 86 fd 81 be ff a9 10 3d
       0.6692961 -0.1639197 -0.25388736 0.03531837
000240 0a 72 0d 3e 36 85 7c bf 2d f2 95 3e c0 58 89 be
       0.13813034 -0.98640764 0.29286328 -0.26825523
000250 1e d8 22 be b1 da 4f bf fe 36 fa 3e 72 0b d3 bf
       -0.15902755 -0.8119307 0.4887008 -1.6487868
000260 dc eb 3f 3f 91 d0 bc bd 8a 66 fb 9d 19 53 16 bf
       0.7496927 -0.092194684 -6.654517e-21 -0.58720547
000270 5c ea 2c bf 3e 71 4f 3f 43 0e bd b8 9e 33 cc be
       -0.67545104 0.8103217 -9.014879e-05 -0.3988313
000280 2d 98 b8 3f bc 0d 7b 3e 5c 98 60 bf b3 0f 2c bf
       1.442144 0.24516958 -0.8773248 -0.67211455
000290 9c 9f 5a be 9f 6b 16 bf 51 8d 2e bf 91 46 43 bf
       -0.21349949 -0.58757967 -0.6818438 -0.7627955
0002a0 09 d9 5d 3e 1a 33 a1 bf af cc 84 bd 51 65 20 3f
       0.21664824 -1.259372 -0.06484353 0.62654597
0002b0 e2 3a 85 3f 83 1a e7 3d f6 29 f0 3e a1 83 60 be
       1.0408595 0.112843536 0.46907014 -0.21925212
0002c0 7b dc 9d 3e d4 20 e9 3d 71 c8 85 1b e6 94 4d 3e
       0.30832276 0.113832146 2.2132537e-22 0.20076331
0002d0 b3 8a ce be f5 13 29 bc 6b d2 11 bf 2d 90 e3 be
       -0.40340194 -0.0103196995 -0.569617 -0.44445935
0002e0 95 55 82 b0 72 75 01 be 0a 2a 20 3c 90 58 22 bf
       -9.483069e-10 -0.12642458 0.009775648 -0.63416386
0002f0 b2 c5 2f be ee 04 9d 3d 16 7b 53 bd 88 fd 66 3f
       -0.17165259 0.07666956 -0.051631056 0.9023061
000300 f5 68 30 bf d5 0f 8e be 1b 29 2e bf 55 b0 4c 1f
       -0.6891015 -0.27746454 -0.6803147 4.334454e-20
000310 f4 8e 11 3f f1 0c aa 3e 0d 1a 99 38 f5 84 ba 3b
       0.56858754 0.33212999 7.300461e-05 0.0056921192
000320 3d b8 2c 34 ca 3a 65 bf a8 46 f8 3e dd 73 d5 9c
       1.6085774e-07 -0.8954283 0.48491406 -1.4125108e-21
000330 4a 5a 2d bd b3 59 e9 bd 92 00 27 bf 35 e2 a3 3e
       -0.042322434 -0.11394062 -0.65235245 0.3200852
000340 e8 d8 25 3f 3f 88 08 3e 7c c7 3e 3e 89 ea 98 be
       0.647841 0.13333224 0.18630785 -0.29866436
000350 92 f0 bf 3d 60 13 76 3f 03 8c f4 bc 42 82 40 be
       0.09372057 0.96123314 -0.029851919 -0.1879969
000360 be b8 ad bf 50 ac 81 3f 8e a6 0b b0 c8 07 00 be
       -1.3572004 1.0130711 -5.0804594e-10 -0.12502968
000370 32 b7 a6 be 76 ec 4c 3e 20 d0 0a 2a d3 85 5b bf
       -0.32561642 0.20012078 1.232907e-13 -0.85751075
000380 ef 06 ef be 65 11 80 bc 94 e0 3e be 37 4b 39 3d
       -0.46684977 -0.015633294 -0.18640357 0.045237746
000390 67 3c 35 3c 8d 7c 86 be 1f fa 84 3c f3 8a 25 3d
       0.011061764 -0.262669 0.016232548 0.040415715
0003a0 0d e6 1b bd 66 8c b0 3e 6c 69 77 be 4f 4b d6 3d
       -0.03806119 0.34482116 -0.24161309 0.10463583
0003b0 f4 7f 95 bf 4d 01 f1 bc ab 36 27 bf b5 bc 52 3e
       -1.1679673 -0.029419566 -0.6531779 0.20579799
0003c0 9e 45 5d be 4e 47 59 b4 8e 2c 4a b7 84 15 7f 3e
       -0.21608588 -2.023564e-07 -1.2050512e-05 0.24910551
0003d0 ed a1 63 3f cc cc 2e ba 18 5e a1 be 18 89 1f 3e
       0.88918954 -0.00066680904 -0.315171 0.15579641
0003e0 7e 0f 4b b9 8e d6 af be 00 30 37 39 94 b6 36 3f
       -0.0001936536 -0.3434338 0.00017470121 0.7137234
0003f0 06 22 0f be ac 04 2a 3f e8 7f d3 ba 82 31 62 bf
       -0.13977823 0.6641338 -0.0016136141 -0.8835679

gnn.gnn_layers.0.graph_conv.bias f4 [64]
000000 f4 4f 0c 3e 02 03 17 bf 24 0c e8 be 80 c4 d3 b9
       0.13702375 -0.58988965 -0.45321763 -0.0004039146
000010 9b 26 e2 be 7b 03 cd bd 69 85 4f bc ae b0 63 be
       -0.4417008 -0.100104295 -0.012666085 -0.22235367
000020 81 62 7f bb 3f d5 4a bf 85 40 88 be 34 a0 24 bc
       -0.0038968625 -0.7923164 -0.26611724 -0.010047961
000030 3d b5 f1 bd d5 f9 d9 be 74 60 ce 3d 15 14 5a bf
       -0.118021466 -0.4257342 0.10076991 -0.8518689
000040 80 46 d1 3e fa 04 04 bf 0b 69 e8 bc 2e b5 ad be
       0.408741 -0.51570094 -0.0283704 -0.33927292
000050 ca 98 14 bf 37 21 60 bf 68 b7 0f bf 34 03 a9 3c
       -0.5804564 -0.8755068 -0.5613923 0.02063141
000060 12 f4 36 bf 57 38 9e be 6b 61 22 bc 40 56 17 bf
       -0.7146617 -0.3090236 -0.009910922 -0.5911598
000070 fc fe d6 bd 81 c7 f9 3d 3e c1 3a bc 9b f1 aa bd
       -0.10497853 0.121962555 -0.011398612 -0.08346864
000080 54 b6 ed 3d ba c6 12 bf 4f 9c 3b bf a8 b7 61 bf
       0.11607042 -0.5733448 -0.73285383 -0.8817086
000090 d0 45 09 be 7a cf 26 3e e1 c5 8d be 1b 3f db be
       -0.13405538 0.16290084 -0.27690032 -0.42821583
0000a0 0f d2 81 3e b6 6a 96 bf 5b 27 18 3e 0c ae 36 bd
       0.25355574 -1.1751316 0.14858763 -0.044599578
0000b0 48 1f 0c bf 89 6f 70 be 38 59 bb be ef 5a 0a be
       -0.5473523 -0.23480047 -0.36591506 -0.13511251
0000c0 94 e5 ec bd 0b cf 86 bd 75 9d 95 bc 88 2d 06 bf
       -0.11567226 -0.06582459 -0.018263558 -0.52413225
0000d0 bd 36 4c bf 23 e3 1f ba c9 21 8d be 33 9c c4 be
       -0.79771024 -0.00060992147 -0.2756484 -0.3840042
0000e0 f1 2e ef bb 95 9e 65 bf 2e b4 9e bc 27 01 a5 be
       -0.007299297 -0.896951 -0.019373026 -0.32227442
0000f0 bb b2 f9 be 9d a5 2f bf 08 d9 2a be 1b d6 88 bd
       -0.48769173 -0.6861208 -0.16684353 -0.066814624

gnn.gnn_layers.0.res_connection.weight f4 [64, 78]
000000 12 e8 21 bf a8 95 23 3f 88 54 f5 be 42 2b 24 be
       -0.63244736 0.6390023 -0.47916055 -0.16032127
000010 38 5f 56 bf c9 84 15 16 2d e8 f1 3c 12 8f ca 3f
       -0.8373904 1.2078024e-25 0.029529655 1.5824912
000020 33 ab 5b bd 33 ad eb 96 d2 31 99 96 b4 80 b7 15
       -0.053630065 -3.8075602e-25 -2.4749924e-25 7.411617e-26
000030 2a 96 60 95 dd 83 26 15 a3 70 06 96 82 bd 36 3f
       -4.5354898e-26 3.3627455e-26 -1.0859976e-25 0.71382916
000040 77 84 92 96 4c 6d 6e 93 ae 5d 04 15 83 33 23 95
       -2.367117e-25 -3.009371e-27 2.6731088e-26 -3.2958223e-26
000050 97 b4 8e 96 0d d7 bf 16 b9 81 d2 16 22 f8 00 96
       -2.3055306e-25 3.099343e-25 3.4009196e-25 -1.0418055e-25
000060 05 c5 73 15 90 28 b1 96 41 37 7e 16 fe cf a0 15
       4.922888e-26 -2.862149e-25 2.0535392e-25 6.495164e-26
000070 b4 b6 06 15 63 1c 8c 96 47 09 41 15 e3 d9 a4 15
       2.7205212e-26 -2.2636134e-25 3.8983358e-26 6.658284e-26
000080 55 fb c4 95 80 83 04 17 a7 a8 4b 94 92 b8 73 16
       -7.95603e-26 4.2817477e-25 -1.0282142e-26 1.9687624e-25
000090 91 b5 03 97 53 14 c1 16 c3 79 c3 16 e7 ca 69 16
       -4.255755e-25 3.1193658e-25 3.1580792e-25 1.8885615e-25
0000a0 c3 4a 31 96 18 63 a5 16 19 db 5a 15 db e0 af 15
       -1.4321537e-25 2.6719725e-25 4.4197587e-26 7.1036696e-26
0000b0 d7 73 87 3c df 92 d4 3d 19 33 0a 3c 20 0d 93 be
       0.016534729 0.10379576 0.008435034 -0.2872095
0000c0 4c a9 80 16 81 43 ee 16 b8 b8 02 94 4c a3 08 16
       2.0786357e-25 3.8493575e-25 -6.599752e-27 1.103752e-25
0000d0 1a a5 25 96 86 20 40 15 f0 9e 9c 3e 9d 5e be be
       -1.3380691e-25 3.8799748e-26 0.3059001 -0.3718156
0000e0 c9 f5 c3 be f6 81 1e bd c6 f0 ae 95 54 37 0e 96
       -0.38273457 -0.03869816 -7.0657914e-26 -1.1488127e-25
0000f0 7c fe 1e 16 f8 b5 5f be 66 da 86 be de 59 02 bc
       1.284344e-25 -0.2184676 -0.263385 -0.007955996
000100 d3 70 08 bd 25 7c 0a bf 4e 66 a4 3e 6b 6e 66 16
       -0.033310723 -0.5409568 0.32109302 1.8614094e-25
000110 b7 c1 28 96 d4 ec 84 be 3f 93 e8 3e bb c7 d7 be
       -1.3632058e-25 -0.25961936 0.4542484 -0.4214457
000120 2f d3 c8 be 39 8e e8 bc 87 87 7c 96 64 39 c1 be
       -0.3922362 -0.02838813 -2.0399163e-25 -0.37739098
000130 7a cc 55 3d 57 ee 87 3e 48 ee e2 bc aa e3 ae bb
       0.052196957 0.26549026 -0.027701512 -0.0053371983
000140 06 b2 2f 3d 78 b4 ac b6 d5 2c 02 b1 64 67 6e 16
       0.042894386 -5.147009e-06 -1.8942974e-09 1.9258111e-25
000150 b0 1c a6 ad ea 60 e9 b6 61 28 84 9d ec c1 21 95
       -1.8884755e-11 -6.9552234e-06 -3.498186e-21 -3.2666668e-26
000160 bf 22 33 96 40 41 2b 14 cf e8 af 96 38 b7 53 15
       -1.4470469e-25 8.646162e-27 -2.8419698e-25 4.2755645e-26
000170 26 13 ee 14 2e b7 78 23 fc 85 8d 15 7a 48 bf 95
       2.4039411e-26 1.3482897e-17 5.7160837e-26 -7.7258633e-26
000180 6f b5 f2 16 d2 ef 05 97 e6 2b ba 95 c8 7c a5 16
       3.921171e-25 -4.3277314e-25 -7.519406e-26 2.6735936e-25
000190 a4 a1 b8 95 09 28 87 14 7c 74 57 96 e3 02 15 15
       -7.457203e-26 1.3647308e-26 -1.7404318e-25 3.0092588e-26
0001a0 cd b7 76 16 06 7e ab 95 e8 7e 0b 97 04 b0 3a 16
       1.9929719e-25 -6.926518e-26 -4.50735e-25 1.5080501e-25
0001b0 67 e5 e8 96 07 6c be 96 dd 12 aa 13 fe 46 18 96
       -3.7626395e-25 -3.076433e-25 4.2932634e-27 -1.2300863e-25
0001c0 98 72 2e 96 5e f3 d2 93 c1 e5 05 97 ae 22 38 16
       -1.4091767e-25 -5.325143e-27 -4.326461e-25 1.4874345e-25
0001d0 4e ce f5 96 ce fa 90 96 23 a5 03 95 81 b5 64 96
       -3.9712081e-25 -2.3422735e-25 -2.658551e-26 -1.8474966e-25
0001e0 04 e6 78 14 fd 3d 90 16 b6 fb a6 bc 74 82 32 bd
       1.2566163e-26 2.3303575e-25 -0.020383697 -0.04358144
0001f0 ce c1 51 bc 5b ab fa 39 64 d8 38 16 c5 b8 26 96
       -0.012802554 0.00047811386 1.4931682e-25 -1.3467676e-25
000200 dc a9 0f 15 4e 82 d5 95 83 09 d1 96 67 61 6e 96
       2.9012615e-26 -8.62356e-26 -3.3771774e-25 -1.9256222e-25
000210 68 09 97 bd a2 57 a6 bc d9 db 1b bc a0 97 4d ba
       -0.07374841 -0.020305458 -0.009512865 -0.0007842723
000220 60 89 f3 96 cc 2b 14 14 84 ce b4 15 c8 32 c8 37
       -3.9345463e-25 7.480728e-27 7.3027245e-26 2.3865505e-05
000230 c7 0f 5f bc a5 3a 6e 9a 4f 91 62 b5 e3 6f c8 bc
       -0.013614601 -4.926462e-23 -8.440301e-07 -0.024467414
000240 f4 c4 cc bd 9a 58 db 95 1c 08 7d 15 48 d8 db bb
       -0.09998503 -8.8593184e-26 5.109934e-26 -0.0067091323
000250 1b 90 99 bd 5f 24 8e bc 71 f2 3a bb ff 0b 9c ba
       -0.07498189 -0.017351327 -0.0028525854 -0.0011905431
000260 15 cd c7 96 3a 67 49 3b 39 2c 4e 36 e2 a3 9a b4
       -3.227961e-25 0.0030731694 3.0722133e-06 -2.8803976e-07
000270 e7 c0 d3 be ba ab 07 3c c9 36 2a 3c 12 51 a3 3e
       -0.4135811 0.008280689 0.010389038 0.3189779
000280 9b e9 02 be e4 45 bc 96 0b b8 6e 3e 67 51 ce 3d
       -0.12784426 -3.0417145e-25 0.23312394 0.1007412
000290 90 98 93 bd 7d af 17 14 29 f2 30 96 af b6 59 96
       -0.07206833 7.658161e-27 -1.4293579e-25 -1.7586765e-25
0002a0 b8 e7 07 15 a9 b8 fb 95 d1 10 bf 95 5d 35 ea bd
       2.7445827e-26 -1.01669435e-25 -7.717082e-26 -0.114359595
0002b0 a9 d1 0a 96 d9 ad ad 16 03 f7 e2 16 f8 f1 78 96
       -1.1213708e-25 2.805937e-25 3.6668156e-25 -2.0109632e-25
0002c0 80 8b 46 16 54 29 69 96 77 dc e0 96 c9 be ff 96
       1.6038331e-25 -1.8834631e-25 -3.6328285e-25 -4.1317874e-25
0002d0 90 80 16 96 6e 54 d9 95 ff 13 d4 16 5a 4f ae 96
       -1.2157471e-25 -8.777881e-26 3.4263067e-25 -2.8161294e-25
0002e0 f9 0a 58 96 c5 7d 61 95 d8 7d c5 15 1a 1b f4 14
       -1.7451803e-25 -4.5537603e-26 7.976621e-26 2.4648393e-26
0002f0 94 72 89 16 41 4a 4c 96 91 e0 0f 96 a7 6c e4 13
       2.2205853e-25 -1.6502419e-25 -1.1622309e-25 5.766243e-27
000300 16 50 41 95 c7 bf af 96 8b 30 58 96 57 c1 d6 16
       -3.9039216e-26 -2.8393803e-25 -1.7463659e-25 3.469558e-25
000310 29 b3 26 16 f9 2b 61 96 ee 80 b1 94 29 69 62 96
       1.3465906e-25 -1.818923e-25 -1.7923286e-26 -1.8289317e-25
000320 e1 38 5d bf c9 f8 5a 3f a9 a4 06 bf cd d7 91 bc
       -0.86414915 0.85535866 -0.52595 -0.017803097
000330 75 e0 08 16 99 31 13 16 b6 63 ae 15 c8 6c 8c 95
       1.1056819e-25 1.1890216e-25 7.0435356e-26 -5.6717176e-26
000340 1e f1 33 94 92 f4 17 16 1e 01 b9 3e 79 1e d6 be
       -9.0847425e-27 1.2274856e-25 0.36133665 -0.41820124
000350 a1 ea 19 be a2 63 4a b9 3f 95 23 16 ac fe 7a 96
       -0.1503091 -0.00019301337 1.3214129e-25 -2.02752e-25
000360 85 d7 07 96 78 54 0e bb c2 79 c7 bd 2b 9b 4e 31
       -1.0973219e-25 -0.0021717828 -0.0974002 3.0065148e-09
000370 50 41 d2 bd e0 1c 47 bd b5 2b 34 be 7b aa 93 15
       -0.102663636 -0.04861152 -0.17594798 5.96418e-26
000380 fc af b1 15 06 e4 6b bd 42 3a 1d 3e a6 2b 6e be
       7.1767385e-26 -0.057590507 0.15354255 -0.23258838
000390 27 07 04 be 78 a7 8f b9 51 5f 1d 16 2e a6 73 3f
       -0.12893353 -0.0002739986 1.2712436e-25 0.95175445
0003a0 f7 08 d4 3e 4f f6 02 be b1 49 ca bc 21 58 63 3d
       0.4141309 -0.12789272 -0.024693342 0.05550397
0003b0 fd 36 2a bf 96 98 a0 bd 2c a5 58 3f d2 68 27 16
       -0.66490155 -0.078416035 0.8462703 1.3523228e-25
0003c0 c5 ec 9d 3e da aa 0f bf 46 f7 79 be da 17 eb 96
       0.30844703 -0.56120074 -0.24410734 -3.798135e-25
0003d0 60 13 08 96 f5 bb 0a 15 f3 0d 85 95 5e 48 aa 15
       -1.0992106e-25 2.801715e-26 -5.374028e-26 6.877663e-26
0003e0 ba 7e f8 94 fe 83 80 3d 30 ca cc 94 78 e4 7f 16
       -2.5091585e-26 0.062751755 -2.0678485e-26 2.0670828e-25
0003f0 3a ba cc 95 e0 3d 4b 16 8d 44 e5 93 f4 19 84 96
       -8.268876e-26 1.6417734e-25 -5.7875323e-27 -2.134213e-25

gnn.gnn_layers.0.res_connection.bias f4 [64]
000000 1c 0f 44 be 99 18 cb bd 36 cb 82 be f7 bd 33 be
       -0.19146389 -0.09916801 -0.25545663 -0.17552935
000010 52 e1 e5 bd 57 fa 7b 3d 01 49 fd 3d a6 cb 9d bb
       -0.11224617 0.06151804 0.1236744 -0.0048155366
000020 e7 02 81 be 9e c0 d5 bd 5e d4 24 be 0f 27 fc bd
       -0.25197527 -0.104371294 -0.16096637 -0.12312137
000030 69 e3 91 be ea 09 51 be 09 be 91 bb d7 7c 43 b9
       -0.28493813 -0.20413938 -0.004447703 -0.00018643156
000040 20 4c 46 b6 5c cf fe bd 81 6d 45 bc 80 57 95 bc
       -2.954861e-06 -0.124418944 -0.012050034 -0.0182302
000050 38 46 b2 ba 23 f6 12 be 50 0f ef bb bb 36 42 be
       -0.0013601249 -0.14351706 -0.0072955266 -0.1896619
000060 ed a1 23 be 67 87 17 be ad 8f 22 bf 88 5a 06 3e
       -0.15979739 -0.14797746 -0.6350048 0.13120472
000070 e0 7f 22 af 4e 36 33 be 80 9a eb 3d 1f c1 1b be
       -1.4779244e-10 -0.17501184 0.11504078 -0.15210389
000080 3c 35 55 be e4 72 8d b7 16 2d 4c ba 0a 42 8b be
       -0.20821089 -1.686201e-05 -0.0007788701 -0.2719882
000090 06 8d cf bd ae 7d d7 bd dd 61 9f ba 58 03 b2 bd
       -0.1013432 -0.105220184 -0.0012159903 -0.08692044
0000a0 9c 7a 83 3d 87 24 02 ad 93 f1 f9 b3 80 27 7b b9
       0.0641987 -7.397755e-12 -1.1638908e-07 -0.0002395194
0000b0 93 df 19 be 65 02 e1 b9 f8 f8 57 ba b5 91 3d 3e
       -0.15026693 -0.00042917128 -0.00082386984 0.18512614
0000c0 3d 11 6c be c5 8b c0 bd de 42 6c be 1b b7 44 be
       -0.23053451 -0.09401659 -0.23072383 -0.19210474
0000d0 6e 24 e7 bd fb d4 80 be ff db 26 bd 88 27 53 3d
       -0.11286245 -0.2516249 -0.04073715 0.05155137
0000e0 81 fd 22 be 86 c1 95 be 30 44 48 be f2 fe d0 bb
       -0.15917017 -0.2924921 -0.19557261 -0.006378048
0000f0 fe 03 cf bb 38 ad 8b bd e4 87 ef bc 0f ac 1b be
       -0.0063176146 -0.06820148 -0.029239602 -0.15202354

gnn.gnn_layers.0.bn_layer.weight f4 [64]
000000 9e 48 98 3f ce 35 44 3f 77 7b 7f 3f c6 3a 3e 3f
       1.1897161 0.766446 0.9979777 0.7430843
000010 25 9e 83 3f 16 56 29 3f d9 9b e7 3e 36 36 35 3f
       1.0282637 0.6614698 0.4523609 0.70785844
000020 1c d1 95 3e b1 54 82 3f 70 e4 6d 3f 82 cb 3a 3f
       0.292611 1.0182096 0.9292669 0.7296678
000030 60 b6 61 3f 50 0c 22 3f 81 47 73 3f 40 e7 60 3f
       0.8816891 0.6330004 0.9503098 0.8785286
000040 8b a4 5d 3f 68 a0 83 3f 06 57 7b 3f cc 87 2f 3f
       0.865792 1.0283327 0.9817966 0.68566585
000050 81 78 3e 3f 31 b3 5c 3f 7a a4 62 3f 71 db bc 3f
       0.74402624 0.86210924 0.8853222 1.4754468
000060 db bb 7d 3f 14 5d 7b 3f ae aa 0b 3f ae 19 19 3f
       0.9911477 0.981889 0.5455731 0.5980481
000070 59 02 4e 3f d0 c1 0d 3f 7d 5c 37 3f ef 9c 86 3f
       0.8047233 0.5537386 0.716255 1.0516642
000080 8e 1b 87 3f 6b b9 44 3f 4d a9 f6 3e 4a 45 63 3f
       1.0555284 0.76845425 0.4817604 0.887776
000090 e1 23 49 3f 13 3f 6b 3f 6f cf f8 3e 9f 48 81 3f
       0.7857037 0.9189312 0.4859576 1.0100287
0000a0 02 e6 53 3e e3 92 79 3f 07 86 b0 3f e0 78 bb 3e
       0.2069321 0.97489756 1.3790902 0.36615658
0000b0 77 fa 7e 3f 81 2e b0 3e 65 29 26 3f e8 bd 57 3f
       0.9960093 0.3441048 0.64906913 0.8427415
0000c0 02 6c 4d 3f aa 11 a1 3f ca 90 a0 3f 99 c5 04 3f
       0.8024293 1.2583516 1.2544186 0.5186401
0000d0 42 6f 73 3f f8 ad 7f 3f e1 03 8b 3f f1 e0 18 3f
       0.9509164 0.9987483 1.0860559 0.59718233
0000e0 c4 e5 62 3f 0c d4 18 3f ef c6 76 3f 82 9c 64 3f
       0.88631845 0.5969856 0.963973 0.8930131
0000f0 54 fd 86 3e e9 5a 84 3f 53 98 ac 3e 44 95 93 3f
       0.2636515 1.0340244 0.33709964 1.1529927

gnn.gnn_layers.0.bn_layer.bias f4 [64]
000000 6c ea f4 3d cd b7 cd bd 40 fe ee 3e ab 33 83 3e
       0.11958775 -0.10044823 0.46678352 0.25625357
000010 ce 09 54 3e c2 d7 fb bc 66 2a a6 bc aa 31 01 3e
       0.20706865 -0.03074253 -0.020283889 0.12616602
000020 ac 9e aa 3d 6e e0 cd 3e 60 5a 5f 3e 25 b1 94 3a
       0.083310455 0.4021029 0.21811819 0.0011344297
000030 8b e9 f1 bd d9 23 08 3e 12 1f b9 3e df 33 c6 3e
       -0.11812123 0.13294925 0.36156517 0.3871145
000040 46 57 8d 3e 8a 7f 82 3d 45 ae ea 3e e5 b4 6f 3e
       0.27605647 0.063719824 0.45836082 0.2340885
000050 6c 57 82 bd 40 a2 b4 3e 4f 40 c5 3e 39 6f b9 3e
       -0.06364331 0.35280037 0.38525626 0.3621767
000060 ca d8 5b 3d ce d4 7d 3e 29 61 51 3e a3 bd 53 3e
       0.053673543 0.2478821 0.2044722 0.2067781
000070 6b ff 83 3e 2f 5c a3 3e 13 77 bb 3d 5c 03 89 3d
       0.25780806 0.31906268 0.09153571 0.06690094
000080 58 30 80 3e 57 bf 7f 3e 8c da f6 bd 47 13 e6 3d
       0.25036883 0.24975334 -0.12053403 0.112341456
000090 f0 52 d0 3d f3 ad ec 3d 32 28 b9 3d 3b 02 af 3e
       0.10172069 0.11556616 0.0904087 0.3418139
0000a0 a5 04 b9 3d 86 b3 84 bd 2b e0 29 3f 27 15 2e 3d
       0.09034089 -0.06479554 0.6635768 0.04250064
0000b0 8d ad aa 3d c6 3a 15 3d 60 9d 26 3d 52 a6 cb 3b
       0.083338834 0.036433004 0.04067743 0.0062148953
0000c0 d0 21 a9 3e 4b 04 e1 3d 99 b3 51 3e 87 da 28 3d
       0.3303361 0.10987147 0.20478667 0.04122403
0000d0 72 2c dd 3e 77 57 23 3e d9 a2 a9 3e 97 01 2e 3e
       0.43197972 0.15951334 0.33132055 0.16992794
0000e0 9b 12 e5 3d db 07 ab 3d d0 e1 33 3d 68 d2 0f 3e
       0.11185189 0.08351108 0.043916523 0.14045107
0000f0 f2 ed da bd c7 95 9e 3e 32 ba f1 3b a9 e5 ab 3e
       -0.10689916 0.30973646 0.0073769325 0.33573654

gnn.gnn_layers.0.bn_layer.running_mean f4 [64]
000000 69 c2 7d 3e d2 b8 39 3e 3a 1a b4 3e a2 21 28 3e
       0.24781193 0.1813691 0.3517626 0.1641908
000010 b4 ba 8a 3e 93 47 9a 3f d0 00 fd 3e fe d6 f8 3e
       0.27095568 1.2053093 0.49414682 0.48601526
000020 4f a0 b4 14 3f a6 0d 3f 54 ca d7 3d 1c b4 7e 3c
       1.8238586e-26 0.55331796 0.10536638 0.015545871
000030 23 76 7f 3e 81 3a ce 3d ab 49 21 3f 2b c3 11 3f
       0.2494741 0.100697525 0.63003033 0.5693843
000040 3b b7 b2 3d f4 d0 b5 3e 5c 88 97 3e 4b 8b 10 3f
       0.08726355 0.3551098 0.2959622 0.56462544
000050 39 6c e5 2e fc 53 08 3e 53 bf 47 3e f4 c2 c5 3d
       1.04329385e-10 0.13313287 0.19506578 0.09656325
000060 90 7b 88 3e 28 0f 7a 3e f4 51 84 3b 2e a2 d5 3f
       0.2665677 0.24419844 0.00403809 1.6690118
000070 be 84 70 3f cd e9 b5 3e 0d 77 5b 3e 08 64 83 3e
       0.9395255 0.35529938 0.21432133 0.25662255
000080 bc 8b 86 3e 17 1c 8a 3e c7 28 43 3f cc 84 18 3f
       0.26278484 0.26974556 0.76234096 0.5957763
000090 c9 28 d5 3e fc 9c 2a 3e 07 7f cb 3f 55 a7 e4 3e
       0.4163268 0.16661447 1.5898141 0.44658914
0000a0 58 0f 0d 40 72 eb 38 3e 74 11 93 3e d8 09 1b 3e
       2.2040615 0.18058565 0.28724253 0.15140474
0000b0 87 5a 33 3e f9 d7 01 09 46 33 d1 3d 4b 50 11 3f
       0.17515002 1.562936e-33 0.10214858 0.5676314
0000c0 c3 fc 12 3f 98 48 c0 3d 30 bb 03 3d 96 47 ff 3e
       0.57416934 0.09388846 0.032160938 0.49859303
0000d0 b4 36 12 3f b5 19 8d 3e 38 3d 71 3e 7a 5e 37 3f
       0.5711472 0.27558675 0.2355851 0.71628535
0000e0 6d 81 9b 3e b3 f8 84 3b 13 b6 a2 3c 2c d1 86 3e
       0.30372182 0.0040579676 0.01986221 0.2633146
0000f0 53 5e 69 3f 52 fa 34 3f 14 2e ef 08 31 72 a3 3d
       0.9115955 0.7069446 1.4395122e-33 0.07980765

gnn.gnn_layers.0.bn_layer.running_var f4 [64]
000000 e8 fe b4 3e 09 59 19 3e 18 c4 fc 3e 14 e1 3e 3e
       0.35350728 0.1497537 0.49368358 0.18640548
000010 29 3c f0 3e f4 a6 91 3f 85 44 a8 3e 08 0e 2b 3f
       0.469209 1.1379075 0.32864776 0.66818285
000020 7a fc 8e 0f 28 f4 f6 3e 92 6f 13 3e 8c 8e 3e 3b
       1.4099532e-29 0.4823315 0.1439803 0.0029076664
000030 aa b7 a5 3e 70 91 08 3e 9d 8b 85 3f 56 ba 96 3f
       0.32366687 0.1333673 1.0433232 1.1775615
000040 36 ac 08 3e 4f 0e 0e 3f 92 b1 4b 3f 00 20 10 3f
       0.13346943 0.55490583 0.79567826 0.5629883
000050 69 72 11 2f d1 3f 52 3e e8 41 a0 3e 0d dc 1f 3e
       1.322832e-10 0.20532157 0.31300282 0.15611286
000060 b1 32 78 3e e4 8d a2 3e 1e 03 81 3b df 9a 36 40
       0.24238087 0.3174888 0.003937139 2.8532026
000070 6c 61 a8 3f 7a b9 25 3f f4 67 91 3e d8 2c e5 3e
       1.3154731 0.6473614 0.28399622 0.44760776
000080 db 2d e9 3e dc 19 d2 3e 95 04 5e 3f 0c 6f 3b 3f
       0.45542797 0.41035354 0.8672574 0.7321632
000090 b6 8f 1c 3f 30 05 71 3e da 45 dc 3f ce 71 1c 3f
       0.61156785 0.23537135 1.7208817 0.6111115
0000a0 71 91 e2 3f f8 0e 4c 3e 1e e8 b0 3e a6 ce 43 3e
       1.7700635 0.19927585 0.3455209 0.19121799
0000b0 1b b0 2b 3e 8e 13 d6 08 c6 dd 07 3e ce 8a 68 3f
       0.16766398 1.2884254e-33 0.13268194 0.908368
0000c0 4b 9a ea 3e 91 cc ba 3d de c2 03 3d 21 7b 68 3f
       0.4582084 0.09121049 0.03216826 0.9081288
0000d0 31 59 20 3f ed c7 b0 3e 73 66 a2 3e 7e 9a 2a 3f
       0.62636095 0.3452753 0.31718788 0.66641986
0000e0 ae bf a7 3e 77 1f d7 3b 2a a8 99 3b 7a 28 9f 3e
       0.32763427 0.00656503 0.004689236 0.3108557
0000f0 ae ef 35 3f 08 21 89 3f c5 22 fe 08 64 a1 f2 3d
       0.7106885 1.0713205 1.5295243e-33 0.11847189

gnn.gnn_layers.1.graph_conv.weight f4 [64, 64]
000000 2d 65 09 bd dd 74 94 be 36 f3 ab bf e7 9b 10 be
       -0.033543754 -0.2899541 -1.3433597 -0.14121972
000010 42 fd 78 3e 96 ba f7 3c b8 50 c6 3e 15 bd 6c 3e
       0.2431536 0.030240338 0.3873346 0.23119004
000020 ad 87 2b bd cb d6 ed 3d 81 1c d8 3d 20 c8 86 3e
       -0.041877437 0.11613234 0.10552312 0.26324558
000030 5b b3 9d be 77 3f b2 bc 04 09 1b be 28 2f e6 bd
       -0.308009 -0.021758778 -0.15140158 -0.11239463
000040 87 fc aa 3d a8 8a 0b bf 69 8c 30 bf b5 09 63 3e
       0.08348947 -0.5450845 -0.6896425 0.22171672
000050 82 e6 29 bf b7 1f 75 be 40 e0 f5 3e aa 06 c2 3d
       -0.6636735 -0.2393788 0.48022652 0.09473927
000060 20 d5 90 be b9 78 4e bf bc 58 99 3e 8f a1 76 be
       -0.282876 -0.8065296 0.2995051 -0.24085067
000070 ed 4b 07 be 91 fc 86 be 42 cf 4e bd 44 fd 0f be
       -0.13212557 -0.26364568 -0.050490625 -0.14061457
000080 01 7a 47 3e 62 a7 51 be e2 f8 c2 be cf 11 eb 3e
       0.19480135 -0.20474008 -0.38080508 0.45912024
000090 24 28 81 3c 15 b8 e6 be 06 74 64 bd 57 99 a2 be
       0.01576621 -0.45062318 -0.05577471 -0.31757614
0000a0 15 6b b5 bd 5a 48 cb be 4d c4 10 3f 95 c4 6c be
       -0.08858315 -0.39703637 0.5654953 -0.23121865
0000b0 17 ab 8a 3e 92 02 2c be 06 24 ec be 0a ab f2 bd
       0.27083656 -0.16797855 -0.46121234 -0.11849029
0000c0 01 a1 99 3e e9 d5 fc 3c 54 1a f4 3c 7f fd a4 be
       0.3000565 0.030863719 0.02979771 -0.32224652
0000d0 40 0b 8e bc da 00 fe bc bc 15 fc be a8 2c 14 bf
       -0.017339349 -0.031006265 -0.49235332 -0.5788064
0000e0 19 9d d6 be 46 e8 25 bf 43 cb 3f 3e f3 ef 3a be
       -0.4191673 -0.64807546 0.18729882 -0.18255596
0000f0 9c e1 2c 3f 3f fe 8c 3e 29 26 3a 3d d5 f8 91 3e
       0.6753175 0.27537724 0.04544655 0.28510156
000100 0a cc 56 3e 9b 6d 0b be d2 33 29 3f 83 65 0f be
       0.20976272 -0.1361603 0.66094697 -0.14003567
000110 f9 59 f4 3e 7a 0b ae 3e df 81 f0 3e 74 ae 81 be
       0.47724894 0.3399313 0.46974084 -0.2532841
000120 b9 1b 15 3c 34 66 6f 3e d0 14 2f 3d 14 7d 04 3e
       0.009100848 0.23378831 0.042744458 0.12938339
000130 9c 59 93 bd 30 44 24 3f 0a 44 d9 3e e9 ba 29 3e
       -0.07194826 0.64166546 0.42434722 0.16575207
000140 ec 40 40 be 7a 9f 3f be bc ef b1 bd d3 60 e0 3e
       -0.18774766 -0.18713179 -0.08688304 0.4382387
000150 dd dc 88 3d 87 ce e1 3e 3b ad 17 3f 36 47 e8 3e
       0.06682751 0.4410288 0.59248704 0.4536683
000160 9f 40 fc be 38 de 9f 3e 36 6c cb 3e 43 67 0f 3f
       -0.49268052 0.31224227 0.39730996 0.5601694
000170 75 20 69 3e d7 27 4b bc 63 9e 05 be c1 f4 b5 3e
       0.22766288 -0.012399635 -0.13048701 0.35538295
000180 36 27 92 3e ef bf fe bd 74 92 22 3f 0e 14 8b bc
       0.2854554 -0.12438952 0.6350472 -0.016977336
000190 9b 0e 93 bd 98 ed 83 3e b3 73 82 bd 51 54 0b 3f
       -0.0718052 0.25767207 -0.06369724 0.5442553
0001a0 80 cc c8 be 5e cf d9 bd eb 96 03 be 1e be 98 bc
       -0.3921852 -0.10635255 -0.1285054 -0.018645342
0001b0 26 de 20 3f 98 65 74 3e ad 9c 25 3d 4c dd 49 be
       0.6283897 0.2386688 0.04043262 -0.19713324
0001c0 c4 90 5a bd 3a 80 2f be 7a bc 0a 3f b1 6e cc 3d
       -0.053360716 -0.17138758 0.5419384 0.0998205
0001d0 d8 65 e4 3e b1 d3 2a be da 70 a2 3d 59 78 66 3e
       0.4460895 -0.16682316 0.07931681 0.22506846
0001e0 f8 8c 13 be a0 26 26 3e 23 03 ac 3d 44 76 f2 3e
       -0.14409244 0.16225672 0.08399036 0.47355855
0001f0 be 61 92 bd 0c 3f 8d 3e ef cc aa 3e 34 3e 3b 3d
       -0.07147549 0.27587163 0.33359477 0.04571362
000200 40 8c 06 3e 38 24 bc 3d 00 35 88 3c 09 02 f5 3e
       0.13139439 0.09186596 0.016626835 0.47853115
000210 72 17 63 be b0 da 92 bc ee 5f 52 3e 83 d0 f7 be
       -0.22176912 -0.017926544 0.20544407 -0.4840127
000220 84 29 de be 8b 27 2e be 85 2d c6 be c1 25 b9 3d
       -0.4339105 -0.17007272 -0.38706604 0.09040404
000230 7b bc 06 3f 11 c4 95 be a4 13 cc 3e 0a 60 0c 3e
       0.5263135 -0.2925115 0.39858735 0.13708511
000240 45 2a df be 89 19 47 bf fc d1 d0 bd 16 ee 00 3f
       -0.43586937 -0.7777334 -0.10196301 0.5036329
000250 ff e5 90 bd 3e 8c e7 3d ae 2c fa bd 2c b4 8b 3c
       -0.07075118 0.11306046 -0.12215553 0.017053686
000260 99 07 2d bf 47 0f 00 3f db 79 59 be ea 53 b3 3e
       -0.6758972 0.5002331 -0.2123789 0.3502496
000270 cb 3d ae be 31 48 9b bd 68 dc fa 3d 25 bf bc 3d
       -0.3403152 -0.07582129 0.122490704 0.092161454
000280 34 6a 19 3e 66 58 19 3d 15 55 fd be 95 05 81 bd
       0.1498192 0.03743782 -0.49478975 -0.06299893
000290 59 2e 2c 3e a9 bc aa 3e 94 f7 a7 be 37 b5 24 bf
       0.16814555 0.3334706 -0.32806075 -0.6433901
0002a0 13 a6 f4 be 1a 37 ae be d9 17 a8 be 16 3b 8f be
       -0.47782955 -0.34026414 -0.32830694 -0.27974766
0002b0 25 7f 40 bc e0 a2 aa 3d ef f1 2b bf ec 0b 41 3e
       -0.011749064 0.08331847 -0.67166036 0.18852204
0002c0 93 ca 8e be e2 7d da 3e 7d 8f 00 be 1c 09 08 be
       -0.27888927 0.42674166 -0.12554736 -0.13284725
0002d0 f9 e7 7e be 31 f8 d3 be 87 f8 da be 1e 69 01 bf
       -0.24893178 -0.41400293 -0.42767736 -0.5055102
0002e0 cd f7 07 bf 5d 7c 10 bf 18 6a 21 bf cb 61 64 3e
       -0.5311249 -0.56439763 -0.6305251 0.2230293
0002f0 1d 30 07 3f 82 97 81 3e 6b b2 6d 3d d1 0f 28 bf
       0.5280779 0.25310904 0.05803148 -0.65649134
000300 b2 0a 4e 3e 17 81 fd 3e 35 ee d2 3e d7 81 47 be
       0.20121267 0.4951255 0.41197363 -0.19483124
000310 94 e8 57 be 2a 29 82 3c 8e 0b 94 bd 52 d5 cc 3e
       -0.21084815 0.01588877 -0.072287664 0.400065
000320 18 e0 09 3e 1f 94 14 bd d2 f1 28 bf fa 30 8f 3d
       0.13464391 -0.03627407 -0.6599399 0.069917634
000330 f9 db 8c 3b 82 6d c3 be 04 1a 1b be 99 ea 23 3e
       0.0042986837 -0.38169485 -0.15146643 0.1600746
000340 39 cd 00 bf d9 78 a5 be f1 05 a6 3e a9 a9 b3 bd
       -0.50313145 -0.32318762 0.32426408 -0.087725945
000350 52 c4 89 3e cd 73 69 be 27 5c a6 be 8f 00 ae 3e
       0.26907593 -0.2279808 -0.32492182 0.339848
000360 0d 2d 61 be e1 76 73 3e 26 f5 54 be 9b 0f fb 3c
       -0.21989842 0.23775817 -0.20796642 0.03064709
000370 e6 5c 03 bf ed d7 1e be 87 ad 80 bd a4 55 1b be
       -0.51313627 -0.15512057 -0.06283098 -0.15169388
000380 fe 5a a0 be 97 ae 68 3e ef 46 51 be 6f d9 25 be
       -0.31319422 0.2272285 -0.20437215 -0.16196226
000390 78 a1 be 3e 51 b5 47 be eb 8e 6b 3d 4a 34 1b 3e
       0.37232566 -0.1950276 0.057509344 0.15156665
0003a0 77 ba c8 be 47 f9 9a be ba b6 54 bf ad 41 2c 3b
       -0.3920476 -0.3026831 -0.8309132 0.0026284263
0003b0 72 6e b6 be 86 81 c4 be 41 8a 32 bc 76 86 23 3d
       -0.35631138 -0.3838007 -0.01089722 0.039923154
0003c0 bd 66 c4 be 89 b7 af 3e 28 f1 05 bf ad f3 56 be
       -0.38359633 0.34319714 -0.523211 -0.20991392
0003d0 8d c2 db 3d 7b 71 8c be 3f ce da bd 42 1f db bd
       0.10730467 -0.2743033 -0.106838696 -0.10699321
0003e0 5b eb a7 3c b9 6b 28 be 72 28 16 3a e7 bb 5c 3e
       0.020497968 -0.16447343 0.0005728073 0.21556054
0003f0 61 9f 85 be 1f f8 14 3e 29 b2 01 be 89 e1 bf be
       -0.2609816 0.14547776 -0.12665619 -0.37476757

gnn.gnn_layers.1.graph_conv.bias f4 [64]
000000 43 fd ff 3b dc 91 b8 bd 36 6b 8b be 70 13 76 be
       0.0078121736 -0.090121955 -0.27230233 -0.24030852
000010 0f b9 e1 be 4e 5d b3 ba 4e 71 ef be ed b9 fc be
       -0.440865 -0.0013684423 -0.46766132 -0.493606
000020 d7 6d 02 be 2c f9 9b be 98 7c da be 1b 68 58 3d
       -0.12737213 -0.3046354 -0.42673182 0.052833658
000030 a8 74 16 be 5f a0 e6 be a6 d4 7c bd 04 e2 0e be
       -0.14692938 -0.45044228 -0.061726235 -0.13953406
000040 01 c1 19 3e 67 a4 cc be 9f b5 80 be 7b 9e ec be
       0.15015031 -0.3996918 -0.25138566 -0.4621466
000050 a3 a1 0d bf cc 2a 11 3d 01 3e 37 bf bc 10 85 be
       -0.55324763 0.035441205 -0.71578985 -0.2598933
000060 d6 ba 76 bd e8 29 56 be bb d8 e2 be 76 e6 67 be
       -0.060236774 -0.20914423 -0.44305977 -0.22646508
000070 9b a9 db be 6f 78 44 bd da 16 50 be a9 74 0a bf
       -0.42902836 -0.047966417 -0.20321217 -0.5408426
000080 f0 23 eb 3c 50 24 48 bf 3a 47 04 3e 0e 64 b3 be
       0.02870366 -0.7818041 0.12917796 -0.35037273
000090 52 2b 3b be cc e9 48 be d8 b7 f6 be d2 35 ca 3d
       -0.18278244 -0.19620436 -0.48187137 0.09873547
0000a0 f7 84 07 bc 90 50 e1 be ee 11 25 bf 6b da a3 be
       -0.008271447 -0.44006777 -0.64480484 -0.32002577
0000b0 e5 c9 3c be 24 1c 9c be 12 27 06 3c 1c 00 51 be
       -0.18436392 -0.3049022 0.008188026 -0.20410198
0000c0 22 ba 81 3c 6a 10 cb be d6 49 e2 be a8 53 9e be
       0.015835825 -0.3966096 -0.44196957 -0.309232
0000d0 46 92 2c be 7a 69 62 be cb fd ed bd e0 17 56 be
       -0.16852674 -0.22110549 -0.11620673 -0.20907545
0000e0 aa 51 12 bf fb ad 8b 3c 62 63 25 bf 59 dc 08 bf
       -0.5715586 0.017050734 -0.6460477 -0.53461224
0000f0 dd f9 29 3e cb f1 64 be 09 bf c3 be 9e 63 93 be
       0.16599222 -0.22357862 -0.38231686 -0.2878694

gnn.gnn_layers.1.res_connection.weight f4 [64, 64]
000000 60 35 5e 3f a2 1d d6 3c 16 b8 07 be 77 39 f0 be
       0.86800194 0.026137177 -0.13253817 -0.46918842
000010 a5 82 cd 3e e4 9d 0d bf 45 ac 61 be 18 6c c7 bd
       0.40138736 -0.55319047 -0.22038372 -0.09737414
000020 26 b8 f0 3a ab 21 24 3f 12 7a 66 3e 37 61 d8 3d
       0.0018365427 0.64113873 0.22507504 0.10565417
000030 98 03 ab bd 53 38 d4 bd f2 7b 46 3f 6c d0 48 bc
       -0.08350295 -0.103623055 0.77532876 -0.012256723
000040 52 1f 02 3f 22 30 8f bd 6a 30 a8 3c 00 0c bc 3c
       0.5082904 -0.069916025 0.020530898 0.02295494
000050 20 05 22 3d b5 ba a5 bc 09 16 89 be 44 db 9d bd
       0.03955567 -0.02023063 -0.26774624 -0.07707837
000060 74 f1 8e be 9d 15 46 3e 8c d4 35 be ae de 74 3e
       -0.2791859 0.19344182 -0.17756861 0.2391307
000070 ab 84 9e bd 08 10 d5 bd d2 d2 cd be 17 7c c4 3e
       -0.07740148 -0.10403448 -0.40199906 0.38375923
000080 cd 78 37 3d ca 32 d8 bd a5 a1 70 be a6 7f a1 3d
       0.04479294 -0.10556562 -0.23499162 0.07885675
000090 19 a4 87 3e 36 ba 25 be a8 a2 6c 3d 60 c7 65 bc
       0.26492384 -0.16184315 0.05777231 -0.0140245855
0000a0 55 d6 c9 bd 29 e7 f2 bc ed b1 8d be 84 ee a7 bd
       -0.09855334 -0.029651241 -0.2767481 -0.0819979
0000b0 28 bb e4 be 93 94 78 3b 86 33 85 be df 20 b3 be
       -0.4467404 0.0037930354 -0.26015872 -0.34986016
0000c0 8e 72 a8 3d 50 b5 1e be 14 79 a5 3c a7 79 1f 3d
       0.082249746 -0.15498853 0.020199336 0.038934376
0000d0 c7 13 67 3e 4f ed 42 be 72 ea 29 be 9c 1b a9 3e
       0.22566138 -0.19035839 -0.1659334 0.33028877
0000e0 e8 7e 8b be 11 bb b5 be 4e 33 0a 3e 05 fc 00 bf
       -0.2724526 -0.35494283 0.13496134 -0.5038455
0000f0 64 ed cf 3c a0 b8 cb bd d0 c3 ae ba ac 34 b5 be
       0.025381751 -0.09947324 -0.0013333503 -0.35391748
000100 87 20 aa 3e e1 b1 32 be f7 3a 86 bc 59 49 5d 3e
       0.3322794 -0.17450668 -0.016385539 0.21610011
000110 c4 df 91 bd 2b af 8b be e3 e3 1f 3e 75 2c 25 be
       -0.07122758 -0.2728208 0.15614276 -0.1613024
000120 d9 e9 33 3c ca 3f 41 3e 62 b2 6d be 5d 71 2a 3e
       0.010981047 0.1887199 -0.23212579 0.16644807
000130 f0 e4 83 3d d7 25 c5 3d 04 6c 82 3d 32 93 fa be
       0.06440151 0.09626358 0.063682586 -0.48940426
000140 22 2e 23 be b2 7f b7 bd 9e 45 ab 3d 46 33 97 be
       -0.15935567 -0.08959903 0.08362888 -0.29531306
000150 58 30 ff 3d 67 64 81 3e 3a cf e9 3d 8b 59 e5 3d
       0.12460393 0.25271913 0.114164785 0.111987196
000160 1c 26 72 be af d7 b2 be 76 31 ab be f4 67 9b 3e
       -0.2364735 -0.3493018 -0.33436173 0.30352747
000170 45 41 3b 3e 83 2b 46 bc 51 08 ba bc 59 7b f7 3d
       0.18286617 -0.012095335 -0.022709044 0.120840736
000180 4b 97 86 be a5 dc 0a b9 c1 13 06 3e e8 7d 17 3f
       -0.26287302 -0.00013242902 0.13093473 0.5917649
000190 18 0e c8 be 1d 47 b5 bd 88 ac af 3e e1 8a f0 bd
       -0.39073253 -0.088514544 0.34311318 -0.11745239
0001a0 da 72 21 3e 61 7e 77 3e cc 56 f4 be c5 a1 e9 bd
       0.15766469 0.24169303 -0.4772247 -0.11407808
0001b0 a1 11 5d be 33 f6 41 3b 93 d6 43 be f8 eb 43 bf
       -0.21588756 0.002959621 -0.19124822 -0.76531935
0001c0 51 13 51 3e 92 aa fa bd 88 55 90 bd d9 23 30 be
       0.20417525 -0.12239565 -0.07047564 -0.17201175
0001d0 a6 64 f0 3e 1c a6 8b be e1 4e a3 3c 11 33 59 be
       0.4695179 -0.2727517 0.019935073 -0.21210887
0001e0 27 41 ac be 48 d6 b4 bd 68 f4 ee 3e 4f 5c a1 be
       -0.33643457 -0.088299334 0.46670842 -0.31515738
0001f0 98 bb 87 3d b2 af 30 bd f0 6d 1a 3b 04 05 df bd
       0.066275775 -0.043136306 0.0023564063 -0.108896285
000200 59 16 8d 3e 51 79 d0 be 9d a7 d8 be e9 d2 b4 3d
       0.27556112 -0.40717557 -0.4231538 0.088292904
000210 ca 6a 0a 3e ef 70 19 be ca 4e 4b be b9 9b 1d 3e
       0.135173 -0.14984487 -0.19854274 0.15391435
000220 d6 9e a1 bd 99 04 05 be 48 56 b6 be 23 04 26 be
       -0.07891624 -0.12990035 -0.35612702 -0.16212516
000230 97 88 0b bd ff 91 1f bd 31 90 6b 3d 96 2a 10 be
       -0.03406581 -0.038957592 0.05751056 -0.14078745
000240 87 38 0e 3e 4a 7c 58 3d 22 08 1b bd a6 0a 9b be
       0.13888751 0.052852906 -0.037849553 -0.30281562
000250 86 5d b3 3d 75 60 6c be cb 38 ad bd 5e b4 6b 39
       0.087580726 -0.2308367 -0.08458098 0.00022478538
000260 db 1a 8a bd 21 c6 55 3d f6 b4 b9 be 47 83 27 be
       -0.067434035 0.052190904 -0.36270875 -0.16358672
000270 c4 ac 8c be 04 49 64 bd e8 3c 38 be 6b c8 cd 3e
       -0.2747556 -0.055733696 -0.17991984 0.4019197
000280 10 d2 3d be 62 b8 66 3e ea c1 6d 3e 3f c8 e3 3e
       -0.18537164 0.22531274 0.23218504 0.44488713
000290 ea 5f 27 be 04 86 d0 bd 10 ad 49 3d 15 e3 cc be
       -0.16345182 -0.101818115 0.04923731 -0.40017
0002a0 d2 e8 55 3d f4 39 2e 3e a9 3f d7 be f8 12 0e 3e
       0.052223988 0.17014295 -0.42040756 0.13874424
0002b0 c2 62 06 bb f2 6d f9 bc e5 d1 9b be e2 f3 c3 bc
       -0.0020505642 -0.030447934 -0.30433574 -0.023920003
0002c0 51 1a 6e be bc dc 25 be 61 68 83 bd c7 27 2f be
       -0.23252226 -0.16197485 -0.06416393 -0.17105018
0002d0 8a 2b 37 3d 4d 15 de bd af 1b 38 3e 06 d9 e8 be
       0.044719256 -0.108439066 0.1797931 -0.45478076
0002e0 0b c8 eb 3b 5a ba 99 be 03 c7 05 bd 27 5b 5c be
       0.007195478 -0.30024987 -0.032660495 -0.21519147
0002f0 d3 0e 92 3e 85 21 33 3e 5e 41 b1 bc 1f 63 82 be
       0.28526935 0.17493255 -0.021637615 -0.25466248
000300 9f 86 a4 be 29 0c da 3d 98 e6 e6 3d 4f 3b 9e be
       -0.32133958 0.106468506 0.11274451 -0.30904624
000310 60 35 ce be 85 f9 b1 be 37 e8 83 3d 31 9d 37 be
       -0.40275097 -0.3476068 0.06440776 -0.17931058
000320 2c a7 31 bd 19 30 c6 3c 13 c0 41 bd 80 28 9b 3e
       -0.04337232 0.024192857 -0.047302317 0.30304337
000330 8b ba 86 be b2 2c 42 3e f5 be 23 be c8 33 28 3e
       -0.26314196 0.18962362 -0.15990813 0.16426003
000340 11 51 b1 be ed 4c bc bd ae 80 a7 be 2f af 7e be
       -0.3463216 -0.0919436 -0.32715362 -0.24871515
000350 32 80 48 3d b3 c2 c7 bd 7f 5d 9d be 6c 04 44 be
       0.04895038 -0.09753933 -0.30735394 -0.19142312
000360 62 4e e7 bd bf 7a 97 be ec 48 88 be 16 9c 74 be
       -0.11294247 -0.29585835 -0.26618135 -0.23887667
000370 78 5b 9d be ff 11 96 bd d8 e4 78 bd 47 15 ad ba
       -0.30733848 -0.07327651 -0.060765117 -0.0013205194
000380 99 a3 1b be 7b 73 1e be d5 bb bb be 1b b8 20 be
       -0.15199126 -0.1547374 -0.36666742 -0.1569523
000390 86 1c 36 be a9 f9 71 bd 03 28 3b be 16 90 66 be
       -0.17784318 -0.059075985 -0.18276982 -0.22515902
0003a0 3b 62 46 3d ae a6 e2 bd da 2b 3d 3e a0 20 18 bd
       0.048433524 -0.11066948 0.1847376 -0.03714049
0003b0 ac b0 a5 bd 57 10 e7 bc 95 a9 af be 37 be 91 be
       -0.08090338 -0.028206034 -0.34309068 -0.28465435
0003c0 f4 ec 82 bd 79 8d 0b be 8e 49 79 3d 7d ce ad 3c
       -0.063928515 -0.13628186 0.060861163 0.021216625
0003d0 e1 b7 88 be 40 6a 0f be 2c 01 01 bd ac e9 df bd
       -0.26702788 -0.14005375 -0.03149526 -0.10933241
0003e0 a7 3e a6 be bf a7 69 be 72 c4 4d 3e 3b c5 9f be
       -0.32469675 -0.22817896 0.20094469 -0.31205162
0003f0 d4 94 f4 bc 01 4f 03 be 6f f3 de 3a 39 f5 42 bd
       -0.029856123 -0.12823106 0.0017009805 -0.047597144

gnn.gnn_layers.1.res_connection.bias f4 [64]
000000 82 3e 47 bd 35 dc 0e be 63 52 b8 be 78 91 25 be
       -0.048643596 -0.1395119 -0.36000356 -0.16168773
000010 12 55 d9 bd ef 49 81 bd f2 30 05 3e c5 10 0f be
       -0.10611929 -0.0631293 0.13006952 -0.13971241
000020 ef f0 24 bd 00 51 b2 3e c9 e0 a7 be 21 20 05 be
       -0.040268835 0.34827423 -0.32788685 -0.13000537
000030 a7 7e 38 be 64 c1 44 be b8 07 7f bd ab 6a 12 be
       -0.18017064 -0.19214398 -0.06226322 -0.14298503
000040 b5 ad 94 be f2 1c ac bd 08 df 28 be d7 75 ce bd
       -0.29038778 -0.084039584 -0.1649133 -0.1008107
000050 f3 fa c0 be d9 d8 ba bd ec 8b b3 be 97 d0 e9 3d
       -0.3769146 -0.09123392 -0.3506769 0.114167385
000060 e0 89 8e be fd 6f a1 be e5 9f 9a be e9 c8 d0 3d
       -0.27839565 -0.31530753 -0.30200115 0.101945706
000070 1f 4b f8 3c 5f 48 51 be a2 34 6a be 63 3f 90 3e
       0.030309258 -0.20437764 -0.2287164 0.2817336
000080 61 8c 50 be 34 b7 b4 bd 7b 12 1f 3e 77 88 41 be
       -0.2036605 -0.08824006 0.15534393 -0.18899713
000090 4b 9a c1 3d 04 aa 86 be 06 4c e3 bc 21 f6 d2 bd
       0.09453257 -0.26301587 -0.027746212 -0.103008516
0000a0 cc 18 da bd 4b db 2e be e5 af 94 bc 44 3f ca be
       -0.10649261 -0.17075841 -0.01815028 -0.39501393
0000b0 5d 1d 3a be d1 aa 1f be 6e c1 c0 bd cd 65 2c bd
       -0.18175264 -0.15592505 -0.09411894 -0.042089272
0000c0 ff b6 14 be 77 a7 fe 3d 66 fd 98 3d e2 3f 81 3d
       -0.14522932 0.12434285 0.07470207 0.06311013
0000d0 87 e8 ae 3d 52 98 d0 bd 7b 2d 91 bc 2c a5 af be
       0.08540445 -0.10185303 -0.017721882 -0.34305704
0000e0 2d 58 7d bd 86 10 51 be 05 79 fb 3c 73 de b3 3e
       -0.06185167 -0.2041646 0.030697355 0.35130653
0000f0 b0 67 79 be 16 1c 8e 3a 71 0d 90 3d b5 53 56 be
       -0.2435596 0.001084211 0.07033814 -0.20930369

gnn.gnn_layers.1.bn_layer.weight f4 [64]
000000 bd f3 5b 3f 68 b0 60 3f 1a d2 70 3f 79 7a 89 3f
       0.8591879 0.87769175 0.9407059 1.0740501
000010 cd fd 81 3f a3 20 a8 3e 43 ad 8c 3f 90 00 92 3f
       1.0155579 0.328374 1.0990375 1.1406422
000020 f3 21 16 3f ce ca 4c 3f 9a 6c 61 3f 4a b7 2f 3f
       0.5864555 0.79996955 0.8805634 0.6863905
000030 99 cd 43 3f e6 00 51 3f 7f 7b 57 3f e8 be 32 3f
       0.7648559 0.81641996 0.84172815 0.6982255
000040 e9 9f 6d 3f 4b 71 88 3f 4e dc 6a 3f 01 09 5a 3f
       0.9282213 1.0659574 0.9174241 0.8516999
000050 57 6a 57 3f 3a d3 07 3f f3 3b 90 3f 2d 42 34 3f
       0.84146637 0.5305668 1.1268295 0.70413476
000060 59 91 48 3f b0 d2 08 3f 21 f5 5b 3f 43 82 19 3f
       0.7834678 0.53446484 0.8592091 0.5996439
000070 85 99 66 3f ce 42 e2 3e 4d 1a 28 3f 5b 94 81 3f
       0.90078 0.44191593 0.6566513 1.01234
000080 b2 08 61 3f 23 a0 86 3f 6e 92 69 3f ff 14 86 3f
       0.87903893 1.051762 0.9123906 1.0475157
000090 87 04 8c 3e 77 ad 69 3f 10 92 8f 3f c8 48 62 3f
       0.27347204 0.9128031 1.121645 0.88392305
0000a0 e8 90 18 3f 53 af 90 3f 8e d3 63 3f b4 4c 6c 3f
       0.5959611 1.1303505 0.8899468 0.9230454
0000b0 c2 bc 36 3f 4d ed 82 3f 11 5f 19 3f 1a f6 2d 3f
       0.7138177 1.0228668 0.59910685 0.67953646
0000c0 ea 20 0e 3f 89 9e 33 3f 4c 07 8d 3f 30 73 08 3f
       0.5551897 0.7016378 1.1017852 0.5330076
0000d0 9a 05 f3 3e f7 9b 09 3f 36 ff 10 3f 07 14 4c 3f
       0.4746521 0.5375361 0.5663942 0.7971806
0000e0 38 dd 51 3f a0 b7 59 3f 2a a7 36 3f 4e 4a 37 3f
       0.8197818 0.85045815 0.7134882 0.71597755
0000f0 1f 94 f6 3e 82 64 2f 3f 85 51 13 3f b8 b2 20 3f
       0.48159882 0.6851274 0.57546264 0.62772703

gnn.gnn_layers.1.bn_layer.bias f4 [64]
000000 8e d8 22 3f 22 3b 5d 3e a4 b2 50 3e 60 df 5d 3e
       0.63611686 0.21604589 0.20380646 0.21667242
000010 2e 29 13 3e d0 8c 60 3e 8c 8d b0 3e 33 d9 46 be
       0.14371178 0.21928716 0.34482992 -0.19418792
000020 b6 01 6a bd 8d 7a 7a 3e ee 22 8c be f4 1f 7a 3e
       -0.057130538 0.24460812 -0.273704 0.24426252
000030 35 e8 2d 3e b5 c4 47 3e 23 74 fa 3e 49 2a 80 be
       0.16983111 0.19508632 0.4891673 -0.2503226
000040 c5 24 d7 bd 71 bf a7 3d 6c dd 99 bc 23 b6 06 3f
       -0.1050506 0.081908114 -0.01878234 0.5262167
000050 b3 9a 98 bc 92 62 2d bd e6 94 83 3e b0 b3 0c 3d
       -0.018628454 -0.042330332 0.25699538 0.03435105
000060 ea 91 b5 3d 5c f2 7e be d3 fa a3 3e ac db 44 3e
       0.088657215 -0.2489714 0.320273 0.19224423
000070 2f 31 07 3e 28 5e ab bd 90 58 79 be f3 57 1f 3f
       0.13202356 -0.08367568 -0.2435019 0.62243575
000080 a8 49 59 bd 32 97 ce 3e 79 b8 96 3e d9 a9 ae 3e
       -0.05304876 0.40349728 0.29437616 0.34113958
000090 cd a5 e6 3d 4d ec fc 3e 4f 06 27 3e 3c 47 1b 3e
       0.11262093 0.49399033 0.16311 0.15163893
0000a0 97 73 57 3e 30 91 d8 3e f0 77 f9 3d c7 3d 23 3d
       0.21040188 0.4229827 0.121810794 0.039853837
0000b0 e4 a7 f9 bd 50 b5 8a 3e 85 2a 93 3e 50 2d f8 3d
       -0.12190226 0.27091455 0.28743377 0.12118018
0000c0 a1 99 2d bd ae f1 d7 3d 71 45 2c 3f 38 c3 e0 bc
       -0.04238284 0.105441436 0.6729346 -0.027436838
0000d0 8c 2e 85 3e 01 a0 d3 bd db d5 13 bc 72 bd 20 3e
       0.26012075 -0.10333253 -0.009023155 0.15697268
0000e0 41 29 b9 3d 15 5e b1 3e 24 e9 ac 3e 44 67 a1 3e
       0.09041072 0.3464209 0.33771622 0.31524098
0000f0 55 a5 86 bd 65 9d 71 3e 65 4d cf 3d ee 1d 55 bd
       -0.06574503 0.23595197 0.10122184 -0.052030496

gnn.gnn_layers.1.bn_layer.running_mean f4 [64]
000000 56 0c 0c 40 eb 45 bc 3f 28 ca eb 3f 48 9e ee 3f
       2.188253 1.4708837 1.8421068 1.8642054
000010 bd af 0d 40 e7 1f 49 40 69 26 5c 40 5b 2b 8f 3f
       2.2138512 3.1425722 3.4398444 1.1185106
000020 27 86 f1 3e c2 20 11 40 ec 22 86 3f 3e a3 a1 3f
       0.47172663 2.2676244 1.0479407 1.2627943
000030 39 22 0e 40 5d 6c fb 3f 34 58 0d 40 30 1e 99 3f
       2.2208388 1.9642445 2.2085085 1.1962337
000040 23 0f 97 3f 2f b5 25 3f 6a d9 13 40 ac 45 79 40
       1.1801494 0.6472959 2.310145 3.8948774
000050 90 f8 16 3f 3c a4 d9 3f 51 e4 4c 40 26 5e e1 3f
       0.58973026 1.7003245 3.2014353 1.7606857
000060 f2 94 a9 3f 06 8c 6f 3f 32 9c 29 40 0a c0 f9 3f
       1.324858 0.93573034 2.6501584 1.9511731
000070 ec 7b ad 3f 28 9b f1 3f 43 1d 3a 3f d2 a1 d8 3f
       1.3553443 1.8875475 0.727009 1.6924384
000080 8b d5 e1 3f d0 e4 8a 3f aa 0c 96 3f 10 13 8d 3e
       1.7643293 1.0851078 1.1722615 0.27553606
000090 b2 88 b5 3f 52 24 f1 3f 72 62 ab 3f 37 87 69 3f
       1.4182341 1.8839209 1.3389418 0.91221946
0000a0 1a 81 2d 40 ba dc f7 3e 79 01 7c 3f a4 3f 68 3f
       2.7110047 0.48410589 0.9843975 0.9072211
0000b0 7e 82 83 3f 2e 3f 00 40 8e af e3 3f f2 db ec 3f
       1.0274198 2.0038562 1.778795 1.8504622
0000c0 c7 11 ca 3f 39 85 cf 3f c1 96 5a 40 f5 b0 a6 3f
       1.5786675 1.6212531 3.4154513 1.3022753
0000d0 2a 40 f4 3f 5b 9e fb 3f 9e 51 ef 3f 1e 98 0b 3f
       1.9082081 1.9657701 1.8696783 0.5452899
0000e0 07 b1 0e 3f 0f ea 28 40 e1 2c bf 3f 1d d5 f1 3f
       0.5573887 2.6392858 1.4935571 1.8893162
0000f0 f2 6b 54 3f 74 63 9e 40 93 f8 a5 3f 41 6c c7 3f
       0.8297721 4.9496403 1.2966484 1.5579911

gnn.gnn_layers.1.bn_layer.running_var f4 [64]
000000 a2 9a 3a 41 be ba 06 41 cf d8 6c 41 fd e1 43 41
       11.662752 8.420591 14.802932 12.242673
000010 68 94 ce 41 f6 5d 9b 41 f8 3a 9f 41 92 fe cc 40
       25.822464 19.42088 19.903793 6.4060755
000020 85 35 d3 3f 98 27 25 41 bb 98 db 40 f0 03 a3 40
       1.6500708 10.322166 6.862394 5.0942307
000030 19 fb 0d 41 ab 01 56 41 bd 86 82 41 c9 a2 02 41
       8.873803 13.375407 16.31579 8.164742
000040 34 1a e1 40 8e b0 47 40 22 f7 2f 41 fe 67 f3 41
       7.0344486 3.120151 10.997835 30.425777
000050 10 86 06 40 d9 06 b4 40 fd 11 30 42 84 9a ca 40
       2.1019325 5.625836 44.017567 6.331362
000060 32 ba f7 40 73 ec bc 40 08 79 d5 41 9d 55 2b 41
       7.741479 5.9038634 26.684097 10.708402
000070 57 9e 00 41 ef 9c fb 40 b5 3c 5c 40 37 8f d4 40
       8.038657 7.862907 3.4412053 6.6424823
000080 56 32 ff 40 a4 fe 9f 40 26 88 f6 40 18 2f 48 3f
       7.9748945 4.999834 7.7041197 0.7819686
000090 dd 67 90 40 ea af 2f 41 98 6b 1b 41 06 88 70 40
       4.5126786 10.980448 9.713768 3.7583022
0000a0 91 7a 98 41 d1 85 d2 3f 89 05 a3 40 76 95 cf 40
       19.059847 1.6447088 5.0944257 6.4869947
0000b0 d7 24 85 40 9a 05 31 41 dd 20 ec 40 6e 1f 39 41
       4.160747 11.063868 7.3790116 11.570173
0000c0 ae 87 19 41 8d bd 18 41 6f d4 b7 41 47 4f 83 40
       9.595625 9.546277 22.978727 4.1034274
0000d0 fc fa ac 40 ff d6 4d 41 aa f1 09 41 8d c7 0c 40
       5.4056377 12.864989 8.6215 2.1996796
0000e0 d0 da f0 3f ae 8b 25 41 5c e2 96 40 be 7f 25 41
       1.8816776 10.3466015 4.7151318 10.343687
0000f0 e7 f1 86 40 1e 2b f9 41 f9 70 94 40 2b 52 23 41
       4.217029 31.146053 4.6387906 10.207561
