Models/GCN/aromaticity.pt (torch, 114175 bytes, 14 tensors)

gnn.gnn_layers.0.graph_conv.weight f4 [78, 64]
0	0x3df49978	0.11943334
1	0x3e0249e4	0.127235
2	0xbd122db6	-0.035688125
3	0x3e100480	0.14064217
4	0xbd9c4d79	-0.07631964
5	0x3c97605a	0.018478561
6	0xbdd118fb	-0.10209843
7	0x3dcb5cdf	0.09929823
8	0x3de62563	0.112376
9	0xbd3f4859	-0.046699855
10	0x3e17ee1e	0.14836928
11	0xbc0b1093	-0.008487838
12	0x3db80f1f	0.08987259
13	0xbbbc3d81	-0.0057446365
14	0x3d78bb42	0.060725458
15	0xbda68792	-0.08131327
16	0x3e396bf8	0.18107593
17	0x3c3c52bc	0.011494335
18	0xbdee0b49	-0.11623246
19	0x3c75efcb	0.015010784
20	0xbd58bb3f	-0.052912947
21	0xbb12c042	-0.0022392427
22	0xbe0d92f5	-0.13825591
23	0x3da1d36f	0.07901656
24	0xbe8700c3	-0.2636777
25	0xbddd0f43	-0.107939266
26	0xbddef959	-0.10887403
27	0xbe0f2893	-0.13980322
28	0xbc97983a	-0.018505204
29	0xbe81596c	-0.25263536
30	0x3dee4bc4	0.11635545
31	0xbe50a330	-0.20374751
32	0x3dc5a805	0.09651188
33	0x3dec7c96	0.115472004
34	0xbd84acd4	-0.06478277
35	0x3d0f2ff2	0.034957834
36	0x3d8173fa	0.06320949
37	0x3dee60d4	0.11639562
38	0xbb5c428c	-0.0033609
39	0xbdfd96d9	-0.123822875
40	0x3cf87084	0.03032709
41	0xbda16c89	-0.078820296
42	0x3d9d20b0	0.0767225
43	0x3df1b5a3	0.118022226
44	0xbcd75640	-0.026286244
45	0xbe04a3f3	-0.12953167
46	0x3d95739d	0.07297442
47	0xbc7e6750	-0.015527561
48	0x3c1be131	0.009514139
49	0xbe255bfd	-0.16148372
50	0xbe2719f4	-0.16318494
51	0xbe19bb23	-0.15012793
52	0xbe4c67b7	-0.19961439
53	0x3db0c812	0.086319104
54	0x3ce7b74d	0.028285647
55	0x3d68722a	0.0567495
56	0x3d1932a5	0.037401814
57	0xbce31628	-0.027720526
58	0x3de89800	0.11357117
59	0xbe3cb103	-0.184269
60	0x3ddb6650	0.10712874
61	0xbe170771	-0.14748932
62	0x3ced90bb	0.028999677
63	0xbe644766	-0.22292861
64	0xbd68641d	-0.0567361
65	0xbd873283	-0.06601431
66	0x3e0a286c	0.13491982
67	0xbdf8fd02	-0.121576324
68	0xbe168c16	-0.14701876
69	0xbdcef615	-0.1010553
70	0x3dd701c9	0.10498387
71	0x3da5e0a2	0.08099486
72	0x3e298133	0.16553192
73	0xbdf40d71	-0.11916626
74	0xbe66038c	-0.2246229
75	0xbdfbb62c	-0.12290606
76	0xbe46c833	-0.19412307
77	0x3d504f44	0.050856844
78	0xbc381f9c	-0.011238005
79	0x3dff6acd	0.124715425
80	0x3c9ee83b	0.019397845
81	0xbeac3044	-0.33630574
82	0x3da0b958	0.078478515
83	0xbe07e7ae	-0.13271973
84	0x3e89d4bf	0.26920125
85	0x3d000348	0.03125313
86	0x3db72179	0.08941931
87	0xbe49634a	-0.19666782
88	0xbeaffc40	-0.3437214
89	0x3d46dcc8	0.048550397
90	0x3df6e6af	0.12055718
91	0xbd70705e	-0.05870091
92	0x3dbaeda5	0.09127358
93	0x3dcf914d	0.10135136
94	0xbe7387a4	-0.23782212
95	0xbe3eacf0	-0.18620658
96	0x3e5888eb	0.2114598
97	0xbd97fd69	-0.07421381
98	0xbdae0087	-0.08496194
99	0xbdc4b9ac	-0.096057266
100	0xbd8771e1	-0.066135176
101	0x3d95f80d	0.073227026
102	0x3d6c0f3a	0.05763171
103	0xbe6d7f44	-0.23193079
104	0xbc0f935a	-0.008763159
105	0xbe045858	-0.12924325
106	0xbcba6f51	-0.022758158
107	0xbe27f6ca	-0.16402736
108	0x01f4c3c2	8.9912343e-38
109	0xbd8e0abe	-0.06935643
110	0x3e73b1a6	0.23798236
111	0x3d03845f	0.03210866
112	0x3ce65ea1	0.028121294
113	0xbe826161	-0.2546492
114	0xbe5080ec	-0.2036168
115	0xbde11197	-0.10989683
116	0xbc2e845a	-0.010651672
117	0xbe2061ff	-0.15662383
118	0xbd1ddf39	-0.03854296
119	0xbdbd7607	-0.092510276
120	0xbcc48e00	-0.023993492
121	0xbdc72a5f	-0.097248785
122	0xbd73bb42	-0.059504755
123	0xbe3101f8	-0.17285907
124	0x3d028af9	0.031870816
125	0xbe111486	-0.14167985
126	0x3d8e58f4	0.0695056
127	0xbdc85599	-0.097819515
128	0x3d7d1c84	0.061794773
129	0xbd771edc	-0.060332164
130	0x3dbbe76d	0.09175
131	0xbb43432c	-0.0029794676
132	0xbe28c03a	-0.16479579
133	0x3dce36c1	0.10069037
134	0xbd9081d8	-0.07056016
135	0x3ce84643	0.028353816
136	0xbe01d032	-0.12677076
137	0xbdb9c65c	-0.09071037
138	0x3d0df55c	0.03465782
139	0xbc246214	-0.010033149
140	0x3d7b6518	0.061375707
141	0xbd81a41f	-0.06330132
142	0x3dfb0d55	0.12258402
143	0x3da1b1e1	0.07895256
144	0xbae532d6	-0.0017486464
145	0x3e0837a9	0.13302483
146	0x3dd7170f	0.10502445
147	0x3dc12cfc	0.09432408
148	0x3e4c81e9	0.19971432
149	0xbe01a696	-0.12661204
150	0xbcaf6cef	-0.021414248
151	0xbe0e5664	-0.13900143
152	0xbd8004f0	-0.06250942
153	0xbc0af20a	-0.008480558
154	0x3db7ecfd	0.08980749
155	0xbe20a636	-0.15688404
156	0x3d9145d8	0.070934
157	0x3d9e6e96	0.07735936
158	0xbcb081d9	-0.021546291
159	0xbdd5e301	-0.10443688
160	0x3e0598cf	0.13046573
161	0xbc73e517	-0.014886162
162	0x3df854e3	0.12125566
163	0xbeb73d01	-0.3578873
164	0x3e1be1af	0.1522281
165	0x3e0eb9d7	0.1393808
166	0xbe4a9720	-0.19784212
167	0x3dba08bb	0.090836965
168	0x3e08e27d	0.13367648
169	0xbd1edd4a	-0.038785256
170	0xbddab9b8	-0.10679954
171	0xbc9aa0ac	-0.018875442
172	0x80cd9df7	-1.8882944e-38
173	0xbdfdd7e0	-0.123946905
174	0x3e16985b	0.14706556
175	0xbdc6d8a3	-0.09709289
176	0xbc05c075	-0.008163561
177	0x3da71d75	0.08159915
178	0x3e036708	0.12832272
179	0x3c247e34	0.010039855
180	0x3c86bfd2	0.016448889
181	0x3d66204b	0.05618314
182	0x3ca43daa	0.020048935
183	0xbdf57c8d	-0.11986647
184	0x3d8f8b0b	0.07008942
185	0x3d980c52	0.07424225
186	0xbd9c5569	-0.07633478
187	0xbda30c1f	-0.07961296
188	0x3ce36162	0.027756397
189	0x3cda4416	0.026643794
190	0x3cd728ac	0.026264511
191	0x3bf4e4a7	0.0074735465
192	0xbdd7ce06	-0.10537343
193	0x3c3b5814	0.011434574
194	0x3a4250a3	0.00074125285
195	0xbd85dd7a	-0.06536384
196	0xbd5797a5	-0.052634854
197	0xbe0b0783	-0.13577084
198	0x3dd12b7e	0.102133736
199	0xbd8cd27f	-0.068760864
200	0xbe595d9b	-0.21227114
201	0xbd66645c	-0.056248054
202	0x3e1d9ad1	0.15391089
203	0x3e71ebc6	0.23625097
204	0xbda74a66	-0.08168487
205	0xbd960a09	-0.07326133
206	0xbe374bb8	-0.17899978
207	0xbe80551a	-0.25064927
208	0xbae851b8	-0.0017724549
209	0x3e1702f1	0.14747216
210	0x3e486d78	0.19573009
211	0x3e0a25ab	0.13490932
212	0xbda82dc6	-0.082118556
213	0x3c83c7e9	0.016086536
214	0xbddd499a	-0.10805054
215	0x3e01bf4a	0.12670627
216	0x3d022e66	0.03178253
217	0xbd0a3487	-0.0337415
218	0x3d80d707	0.06291013
219	0xbc571e64	-0.013129804
220	0x3c92e5a6	0.01793177
221	0x3e0b8d81	0.13628198
222	0xbe62ef44	-0.22161585
223	0x3dad11a6	0.08450632
224	0xbe6477f6	-0.22311386
225	0xbcad19e4	-0.02113051
226	0x3d2d58a4	0.042320862
227	0xbb3330b6	-0.0027342266
228	0xbd87600b	-0.066101156
229	0xbe6004c7	-0.21876822
230	0xbeabaccf	-0.3353028
231	0x3e34d3b4	0.17658883
232	0x3e43479b	0.19070284
233	0x3e26187d	0.16220279
234	0x3d6bde5c	0.057585105
235	0xbdccdc41	-0.100029476
236	0x803ad301	-5.402153e-39
237	0xbd5fe9a0	-0.05466616
238	0x3e55cd94	0.20879203
239	0xbe2b6d01	-0.167408
240	0x3eb7e21a	0.3591469
241	0xbcdea3e5	-0.02717776
242	0xbd48582f	-0.048912223
243	0xbb00f447	-0.001967685
244	0xbdebe359	-0.115179725
245	0xbdf7fe12	-0.12109007
246	0x3d371013	0.044693064
247	0x3d8be0cc	0.06829986
248	0x3cbcabfc	0.023031227
249	0x3dd91519	0.10599727
250	0xbe99404b	-0.29931864
251	0xbe059d49	-0.13048281
252	0x3d6b6345	0.057467718
253	0xbdd6add0	-0.10482371
254	0xbcca7a57	-0.02471654
255	0xbd88b29b	-0.06674691

gnn.gnn_layers.0.graph_conv.bias f4 [64]
0	0xbd5a01f1	-0.053224508
1	0xbd243614	-0.040090635
2	0x3bfd6119	0.007732522
3	0xbd067198	-0.032823175
4	0xbcfa0168	-0.030518249
5	0xbc698f7c	-0.014255401
6	0xbaccdae9	-0.0015629205
7	0xbc41461b	-0.0117965
8	0xbd7f4ddf	-0.062330123
9	0x3de23340	0.110449314
10	0xbcddf757	-0.02709548
11	0x378ec093	1.7017393e-05
12	0xbd41e592	-0.047338076
13	0x3cffc11a	0.031220008
14	0xbd0512ac	-0.03248851
15	0xbd3cf53c	-0.04613231
16	0x3d5c98b0	0.05385655
17	0xbc4de3b6	-0.012566498
18	0xb827e564	-4.002954e-05
19	0xbcf0f3ba	-0.029413093
20	0x3db0cec9	0.08633191
21	0x3d0badda	0.034101345
22	0xbd555efb	-0.052092534
23	0xbd7a8114	-0.061158255
24	0xbd6b734e	-0.05748301
25	0xbc5d2ae3	-0.0134989945
26	0xbd04ffa9	-0.03247038
27	0xbcc50db4	-0.024054386
28	0xbcb9bec8	-0.02267398
29	0xbca0cea8	-0.019629791
30	0xbd6ea917	-0.058266725
31	0xbb81d331	-0.0039619436
32	0xbd9435bb	-0.07236811
33	0x3d34a87f	0.044106003
34	0x3c892983	0.016743427
35	0xbd4976ad	-0.049185444
36	0x3d77a014	0.060455397
37	0xbcdb5668	-0.0267746
38	0xbd68305b	-0.05668674
39	0xbd64df34	-0.055876926
40	0x3aff1ca2	0.0019463489
41	0xbc8a6b5b	-0.016896894
42	0xbab988c3	-0.0014155138
43	0xbd2d1789	-0.042258773
44	0x3b5bc175	0.0033532057
45	0xbd5bf1d7	-0.053697433
46	0x3d103e9a	0.03521595
47	0xbd00137e	-0.03126859
48	0xbd4b5d4f	-0.049649533
49	0xbd770541	-0.060307745
50	0x3beb6b58	0.007184427
51	0x3cf54a03	0.029942518
52	0xbd2a1a45	-0.04152896
53	0xbd6719b8	-0.05642101
54	0x3b86672d	0.004101655
55	0xbcaae740	-0.020862222
56	0xbc7798b2	-0.015112089
57	0xbce36372	-0.02775738
58	0xbd79433c	-0.060855135
59	0xbd1ecb78	-0.03876826
60	0x3df1b435	0.1180195
61	0x3c89fea6	0.016845059
62	0x3b407399	0.0029365777
63	0xbda19751	-0.078901894

gnn.gnn_layers.0.res_connection.weight f4 [64, 78]
0	0x3d3edcdb	0.046597343
1	0xbce07003	-0.027397161
2	0x3dbab369	0.09116251
3	0x3d199d13	0.037503313
4	0x814b726c	-3.7367305e-38
5	0x00a86258	1.5463642e-38
6	0x003f90e8	5.837619e-39
7	0x002ee3d5	4.306164e-39
8	0x0033e052	4.764081e-39
9	0x805b9373	-8.409925e-39
10	0x803adc11	-5.405404e-39
11	0x0020062f	2.940954e-39
12	0x811214bc	-2.683084e-38
13	0x0026d15c	3.564853e-39
14	0x800e9c39	-1.341739e-39
15	0x014cf7c2	3.764664e-38
16	0xbce21141	-0.027596118
17	0x017ec19a	4.6791334e-38
18	0x81796d99	-4.581271e-38
19	0x00acea19	1.5879684e-38
20	0x004420e0	6.256607e-39
21	0x8109bccb	-2.5298378e-38
22	0x80211746	-3.03892e-39
23	0x8145d1af	-3.6333626e-38
24	0x80e9c16b	-2.1467056e-38
25	0x801c1cff	-2.581796e-39
26	0x8041a2c9	-6.027704e-39
27	0x0031e77a	4.582977e-39
28	0x81505ace	-3.8268716e-38
29	0x809e4cd7	-1.4537573e-38
30	0x006dfaa3	1.009998e-38
31	0x800c91ad	-1.154285e-39
32	0x009afc8d	1.4233265e-38
33	0x012dcac6	3.1920564e-38
34	0x8127aafc	-3.079573e-38
35	0x00a3763a	1.5011598e-38
36	0x00327ebe	4.637241e-39
37	0x8033cecb	-4.757794e-39
38	0x0089d357	1.2657277e-38
39	0x011f3728	2.924326e-38
40	0x805bdacc	-8.43552e-39
41	0x00a37a31	1.501302e-38
42	0x8142cf90	-3.578109e-38
43	0x8068f1ff	-9.637703e-39
44	0x3cb05753	0.021526014
45	0x3d4e38ef	0.050347265
46	0xbe09e926	-0.13467845
47	0xbda268a6	-0.07930116
48	0x808d5740	-1.2980104e-38
49	0x811918e7	-2.8119528e-38
50	0x8028f82a	-3.762444e-39
51	0x01348bb9	3.3161025e-38
52	0x804fbc7a	-7.322617e-39
53	0x0131229b	3.2534594e-38
54	0x3c31cfa3	0.010852727
55	0x3d9820bc	0.074281186
56	0x3d077e37	0.033079352
57	0xbb764f03	-0.0037583716
58	0x0050f2cd	7.43394e-39
59	0x8025e8fd	-3.481494e-39
60	0x80f31e39	-2.2326867e-38
61	0xbceab0a9	-0.028648691
62	0xbdff5633	-0.12467613
63	0x0135bff3	3.3382166e-38
64	0xbe1b0e44	-0.1514216
65	0xbaeb3ba1	-0.0017946848
66	0xbd3aa6d8	-0.04556927
67	0x805c6883	-8.486357e-39
68	0x00232e44	3.23084e-39
69	0xbbca3ff2	-0.0061721737
70	0xbe10b871	-0.14132859
71	0x3dccd6a4	0.10001877
72	0xbdae8690	-0.085217595
73	0xbb533e9d	-0.0032233365
74	0x00356f26	4.907154e-39
75	0xbdba7e9c	-0.0910618
76	0x3dd21fbc	0.10259959
77	0x3c9ca45a	0.019121338
78	0xbd96614a	-0.07342775
79	0xbe19821d	-0.1499104
80	0xbd3c0b0a	-0.045908965
81	0xbd3b69aa	-0.045755066
82	0x3e772aeb	0.24137466
83	0x003a9e63	5.383277e-39
84	0xbcb3741d	-0.021905953
85	0x3f1eb1ff	0.6199035
86	0x3e7eed9f	0.24895333
87	0x0036ce32	5.033086e-39
88	0x8034e23a	-4.8566e-39
89	0x011ef653	2.9196746e-38
90	0x010a9935	2.5456518e-38
91	0xbd8391bc	-0.06424281
92	0x8000ac74	-6.1865e-41
93	0xbe770a99	-0.24125136
94	0xbe9f1be4	-0.31075966
95	0x80899920	-1.2636394e-38
96	0x807ae136	-1.1284721e-38
97	0x80f4493b	-2.2434131e-38
98	0x80461abd	-6.438077e-39
99	0x00ca802d	1.8596751e-38
100	0xbcb09280	-0.021554232
101	0x80d291d4	-1.9337767e-38
102	0x00139951	1.799874e-39
103	0x80dd7899	-2.0338907e-38
104	0x80a2d17a	-1.4952496e-38
105	0x002ee0ee	4.305122e-39
106	0x0143643d	3.588776e-38
107	0x80353a6f	-4.888243e-39
108	0x80069cd9	-6.0728e-40
109	0x00000476	1.6e-42
110	0x80360722	-4.961676e-39
111	0x00a7b153	1.540014e-38
112	0x3ef8270a	0.48467284
113	0x008813a2	1.249667e-38
114	0x003fa287	5.84394e-39
115	0x3e38e2a5	0.18055208
116	0x00222480	3.1355e-39
117	0x801360f3	-1.779653e-39
118	0x8005d189	-5.34345e-40
119	0x010940aa	2.520932e-38
120	0x00196eb6	2.335603e-39
121	0x3ef3758c	0.4755062
122	0x3dfd7e07	0.123775534
123	0xbd7c9c01	-0.061672214
124	0xbc876b42	-0.016530637
125	0xbe0a022e	-0.13477394
126	0x80d98bb1	-1.9978415e-38
127	0x801fe2c5	-2.92825e-39
128	0x0021bfc2	3.099361e-39
129	0x013a2cbd	3.4194903e-38
130	0x80877f6e	-1.2443505e-38
131	0x0026e012	3.57013e-39
132	0x3d3b899c	0.04578553
133	0xbde3b2f7	-0.11118119
134	0xbd54fcf3	-0.051999044
135	0x3c9572a4	0.018243141
136	0x0097efb6	1.3953152e-38
137	0x0035180b	4.875906e-39
138	0x80002887	-1.4538e-41
139	0xbe4c3f17	-0.19945942
140	0xbd4b4085	-0.049622077
141	0x3e0b98cb	0.13632505
142	0x3d8dda71	0.0692643
143	0xbb8ceb05	-0.0043004774
144	0x3cc140a6	0.023590397
145	0x3ef6cca3	0.48203
146	0x013385d8	3.2973136e-38
147	0x3d84fd33	0.064936064
148	0x3c3fec3d	0.011714038
149	0xbdf6e2a2	-0.120549455
150	0x3c843bff	0.01614189
151	0xbc7e9d2a	-0.0155404005
152	0x803fba3d	-5.852446e-39
153	0xbdad0732	-0.08448638
154	0x3d8631f5	0.06552497
155	0xbc259577	-0.010106436
156	0x3df68297	0.12036627
157	0x3c85e4fb	0.016344538
158	0x3de4ce14	0.11172119
159	0xbd7f7323	-0.062365662
160	0xbe46d783	-0.19418149
161	0x00053933	4.79697e-40
162	0x3dba2bd6	0.09090392
163	0x3ed8c271	0.42335847
164	0x3dc95353	0.09830346
165	0x803b721b	-5.459228e-39
166	0x011a533d	2.8345053e-38
167	0x00243b14	3.327271e-39
168	0x801a46a9	-2.413071e-39
169	0x3daf0a6a	0.08546908
170	0x801743d0	-2.136543e-39
171	0xbe075746	-0.13216886
172	0x3da1cdff	0.07900619
173	0x80e32edc	-2.0863468e-38
174	0x810ec698	-2.6223765e-38
175	0x006c7829	9.961339e-39
176	0x0185339c	4.893054e-38
177	0x808acac9	-1.2746044e-38
178	0x3d340ef9	0.04395959
179	0x81811c79	-4.742797e-38
180	0x002bd75b	4.026181e-39
181	0x013e26b0	3.4925245e-38
182	0x00b87c3b	1.6942297e-38
183	0x8095508d	-1.3712385e-38
184	0x808862eb	-1.2525113e-38
185	0x00301980	4.417251e-39
186	0x00bd93dc	1.7409951e-38
187	0x81518092	-3.8479482e-38
188	0x8009b085	-8.89843e-40
189	0x8049c49a	-6.774519e-39
190	0x37cf6313	2.4722458e-05
191	0x0087e3ab	1.2479464e-38
192	0x003cc981	5.582416e-39
193	0xbda144f1	-0.07874478
194	0x0102fe58	2.4059712e-38
195	0x809965cd	-1.408735e-38
196	0x8029d0e9	-3.840198e-39
197	0x806b68d5	-9.864005e-39
198	0x0005fb97	5.49431e-40
199	0xbda22e6c	-0.079190105
200	0x3d385d8e	0.045011096
201	0x3dbfde7f	0.0936861
202	0xbe3900c0	-0.18066692
203	0x3cdcdc38	0.026960477
204	0x8017d860	-2.189837e-39
205	0x803a8d1f	-5.377083e-39
206	0x80b9c7a7	-1.7061189e-38
207	0x8037dfff	-5.131307e-39
208	0x0085b255	1.2278094e-38
209	0x00d91150	1.9934513e-38
210	0x3dc97646	0.09837012
211	0x3d03173a	0.032004572
212	0x3e0507eb	0.12991302
213	0xbe2bda8a	-0.16782585
214	0x002ab102	3.920589e-39
215	0x80618c61	-8.958402e-39
216	0x814a0e69	-3.711188e-38
217	0xbd21e18f	-0.03952175
218	0x3d324f24	0.043532506
219	0xbda144f3	-0.07874479
220	0x3ea1ae2a	0.3157819
221	0xbe01554e	-0.12630197
222	0x3e07d493	0.13264684
223	0x3834a0dd	4.306516e-05
224	0x00691a9a	9.65227e-39
225	0xbd866370	-0.06561935
226	0xbddc49b1	-0.10756243
227	0xbce847b7	-0.028354509
228	0x3e356223	0.17713217
229	0xbe061622	-0.1309438
230	0x0075713d	1.0785375e-38
231	0xbe2f65b1	-0.17128636
232	0xbde7dc79	-0.11321349
233	0xbd7b1ae8	-0.061304957
234	0x3d178934	0.03699608
235	0xbe62b00e	-0.22137472
236	0x3df4563c	0.119305104
237	0xbda3e458	-0.080025375
238	0xbd024ce9	-0.03181163
239	0x8027c9db	-3.653996e-39
240	0xbbd928d9	-0.006627184
241	0xbe09797d	-0.1342525
242	0xbd7ee80b	-0.062233012
243	0x0000ff46	9.1575e-41
244	0x804ddf82	-7.151513e-39
245	0x810f8399	-2.6359369e-38
246	0x80ef70e3	-2.198918e-38
247	0x003296c2	4.645857e-39
248	0x00ffa3c4	2.34768e-38
249	0xb96705c8	-0.0002203203
250	0x801dd440	-2.73937e-39
251	0x8033798f	-4.727217e-39
252	0x807fe8c0	-1.1746603e-38
253	0x81269e72	-3.0603064e-38
254	0x01632b48	4.1724368e-38
255	0x8020e205	-3.019816e-39

gnn.gnn_layers.0.res_connection.bias f4 [64]
0	0xbcff45ba	-0.031161178
1	0x3c374878	0.0111867115
2	0xbda5a729	-0.08088524
3	0xbdf402da	-0.119146064
4	0x3c505a70	0.0127168745
5	0xbdb04f77	-0.08608907
6	0x3d7e2e5f	0.06205594
7	0x3c8cbdef	0.017180411
8	0xbbcaeca8	-0.0061927624
9	0x3d758a0f	0.059946116
10	0x3db35ea5	0.087582864
11	0x3d1aacd5	0.03776248
12	0x3d407cef	0.046994146
13	0xbdc9d6cb	-0.09855422
14	0x3d42a8a9	0.047524128
15	0xbd2f7165	-0.04283275
16	0x3d9f5c78	0.07781309
17	0xbddb23bd	-0.10700176
18	0xbcd4bdc8	-0.025969401
19	0xbdc30da2	-0.09524085
20	0x3d6bf25b	0.057604175
21	0xba309cc8	-0.00067372294
22	0xbe0a7da2	-0.13524488
23	0x3ded923e	0.11600159
24	0xbb728986	-0.003700824
25	0x3d8b5a16	0.06804292
26	0xbbf5643f	-0.007488757
27	0x3d0e3422	0.034717686
28	0x3d54a789	0.051917586
29	0xbdb90c10	-0.09035504
30	0x3d8dda1e	0.06926368
31	0xbcd34c39	-0.025793182
32	0xbd067c06	-0.03283312
33	0xbdd407e9	-0.10353071
34	0xbb85876f	-0.004074983
35	0x3d3d43c9	0.046207223
36	0x3c823cbb	0.0158981
37	0xbcd9a1cb	-0.026566407
38	0x3d6ff1e1	0.058580283
39	0x3d9c0e1e	0.0761988
40	0xbd4e86b6	-0.05042144
41	0xbca1b8ec	-0.019741498
42	0x3baddac4	0.00530562
43	0x3d6dec0c	0.05808644
44	0xbcbca080	-0.023025751
45	0xbd2108e6	-0.039315127
46	0xbdbb2d68	-0.0913952
47	0x3d825d43	0.063654445
48	0x3cebdaf7	0.028790934
49	0xbd1598ac	-0.036522552
50	0xbcb7d0bc	-0.0224384
51	0xbd54c2c3	-0.05194355
52	0xbdcf286a	-0.1011513
53	0xbd4cd753	-0.050010037
54	0x3d4f0618	0.05054292
55	0x3d4ff8fa	0.050774552
56	0x3dc598f4	0.09648314
57	0xbd8f7073	-0.0700387
58	0xbda094ca	-0.07840879
59	0xbd6daddf	-0.058027145
60	0x3e12c1e0	0.1433177
61	0x3dd0146b	0.101601444
62	0xbdfea871	-0.124344714
63	0x3d5157dc	0.05110918

gnn.gnn_layers.1.graph_conv.weight f4 [64, 64]
0	0xbdf2c1d6	-0.118533775
1	0x3ca2717e	0.019829508
2	0xbe49f2b0	-0.19721484
3	0x3da52662	0.080639616
4	0xbe6ce263	-0.23133235
5	0xbd01481f	-0.03156292
6	0x3d13758d	0.036000777
7	0xbdc4c5a0	-0.096080065
8	0x3e3ac57d	0.18239398
9	0x3cd353ca	0.02579679
10	0xbe37da28	-0.17954314
11	0x3d99e026	0.07513456
12	0x3cdacb10	0.026708156
13	0x3db77c51	0.08959258
14	0xbda6288b	-0.08113202
15	0xbcdb9b03	-0.026807314
16	0xbcde1566	-0.027109813
17	0x3d4d6d0b	0.05015282
18	0x3dd536a4	0.104108125
19	0x3da19dda	0.07891436
20	0xbc34fda0	-0.011046797
21	0xbe56d0fd	-0.2097816
22	0xbe446a11	-0.19181086
23	0xbdfa2917	-0.122148685
24	0xbeac697a	-0.33674222
25	0x3e407e41	0.18798162
26	0xbdec8633	-0.11549034
27	0xbe1d25ee	-0.153465
28	0xbd6f537b	-0.058429223
29	0x3dc36f83	0.095427535
30	0xbe01a6fa	-0.12661353
31	0xbe2186ad	-0.15774031
32	0xbe0a93ac	-0.13532895
33	0x3d82bf24	0.063841134
34	0xbd702d42	-0.05863691
35	0xbc3feba0	-0.011713892
36	0xbe0f1fdd	-0.13976999
37	0xbe5b0020	-0.21386766
38	0x3dd7aee2	0.10531403
39	0x3da235a6	0.07920389
40	0x3d23a511	0.03995234
41	0xbc9bd216	-0.019021075
42	0xbe58735d	-0.21137758
43	0x3b7f8d0e	0.0038993987
44	0xbd4641e9	-0.0484027
45	0xbd622b40	-0.055217028
46	0xbdcde953	-0.10054269
47	0x3c96a86c	0.018390857
48	0x3cc71a81	0.02430463
49	0x3e4c4147	0.19946776
50	0x3e5774e0	0.21040678
51	0xbd2a9000	-0.041641235
52	0x3cc94542	0.024569158
53	0xbe1268d3	-0.142978
54	0xbe3f97e5	-0.18710287
55	0x3e5723bc	0.21009725
56	0x3d64b473	0.055836152
57	0xbdc1e491	-0.09467424
58	0xbbe5b928	-0.0070105977
59	0x3e02fe91	0.12792422
60	0x3d6cb978	0.057794064
61	0x3d976fdd	0.07394383
62	0x3cc6b434	0.02425585
63	0xbe4cdbd4	-0.20005733
64	0xbe291662	-0.16512445
65	0x3cb24c2b	0.021764835
66	0x3e1a249d	0.1505303
67	0xbe4085af	-0.18800996
68	0x3e0e2aae	0.13883469
69	0xbe25b304	-0.1618157
70	0x3e2c1a42	0.16806892
71	0x3e031fef	0.1280515
72	0x3e398c30	0.18119884
73	0xbcfa51b4	-0.030556537
74	0xbdc75e31	-0.097347625
75	0xbdeb370e	-0.1148511
76	0x3d8776f1	0.06614483
77	0x3d5abad5	0.053400833
78	0x3e2cb15c	0.16864532
79	0xbbf1ad13	-0.0073753684
80	0x3d999a7b	0.07500168
81	0xbe561ada	-0.2090868
82	0xbd84f617	-0.064922504
83	0x3e073f8f	0.1320784
84	0xbb5ae8f1	-0.0033403004
85	0x3e02785b	0.12741224
86	0xbe5782a1	-0.21045925
87	0xbe09ae0c	-0.134453
88	0xbc136029	-0.008995094
89	0xbd0e3657	-0.03471979
90	0xbe61ac54	-0.22038394
91	0x3d78a7a8	0.060706764
92	0x3cf92269	0.030411916
93	0x3ce162c7	0.027512921
94	0xbd5fb20c	-0.054613158
95	0xbdfe4aea	-0.124166325
96	0xbe1a7cb9	-0.1508664
97	0xbe15dc16	-0.14634737
98	0x3d30b37c	0.04313992
99	0xbcfae033	-0.030624485
100	0x3e3ee05b	0.18640272
101	0xbdccfd63	-0.10009267
102	0x3d3bb808	0.045829803
103	0x3e3f3957	0.18674217
104	0xbe02934b	-0.127515
105	0xbe6e1ed1	-0.23253943
106	0x3d205283	0.03914119
107	0xbe73f2cc	-0.23823088
108	0x3e17f0fe	0.14838025
109	0x3d8a364a	0.06748636
110	0x3de65717	0.1124708
111	0xbd25245f	-0.04031789
112	0xbe47d7b9	-0.19515885
113	0xbe4bd3de	-0.1990504
114	0xbe0e5e0c	-0.13903064
115	0x3e49ba86	0.1970006
116	0xbd99ede6	-0.07516079
117	0x3c855b0e	0.01627877
118	0xbd81918e	-0.063265905
119	0xbd95a9f8	-0.073078096
120	0x3e536c90	0.20646882
121	0xbd606fa6	-0.054793976
122	0xb8aeb8eb	-8.33141e-05
123	0x3e5e7ce1	0.21727325
124	0x3db643d7	0.08899658
125	0x3e0b89a8	0.1362673
126	0x3e08a79b	0.13345186
127	0xbe2be654	-0.16787082
128	0x3cbf0abb	0.023320546
129	0x3caecb5f	0.02133721
130	0xbc0c4364	-0.008560989
131	0x3da77863	0.08177259
132	0xbe67a594	-0.22621757
133	0x3dcb63ac	0.0993112
134	0xbc5f3290	-0.013622895
135	0x3dc6f4ee	0.097146854
136	0x3cc41a13	0.023938214
137	0xbd984f22	-0.074369684
138	0xbdee3993	-0.11632075
139	0xbe4f7116	-0.20257983
140	0x3cda79f9	0.02666949
141	0xbe32db6a	-0.17466512
142	0xbe610222	-0.2197347
143	0xbd02d9ca	-0.03194598
144	0xbe5129d5	-0.20426114
145	0xbe09eabe	-0.13468453
146	0xbe7c77ed	-0.24655123
147	0x3da0a14d	0.07843266
148	0x3e1a8074	0.15088063
149	0x3cfd01aa	0.030884583
150	0xbe47420c	-0.19458789
151	0x3e17a0bc	0.14807409
152	0x3e5b77e9	0.21432461
153	0xbde9bda4	-0.11413124
154	0x3dbe23fb	0.092842065
155	0xbdacf863	-0.084458135
156	0xbdff1955	-0.124560036
157	0xbda13c31	-0.07872809
158	0xbe5096a3	-0.20369963
159	0x3d55fe51	0.05224449
160	0x3d290523	0.041264664
161	0xbe2a9667	-0.16658936
162	0xbdf2908a	-0.11843975
163	0xbc74474e	-0.0149095785
164	0x3daefc2e	0.08544193
165	0xbe270ebd	-0.16314216
166	0xbd382633	-0.044958305
167	0xbd7e314b	-0.06205873
168	0xbe033e4d	-0.12816735
169	0xbdd72f26	-0.1050704
170	0x3cfb3115	0.030663053
171	0xbdf368f0	-0.118852496
172	0xbdb9ef5b	-0.090788566
173	0xbd27519e	-0.04084932
174	0xbd100c46	-0.035167955
175	0xbe005224	-0.12531334
176	0x3d813879	0.063095994
177	0x3e1f4bc0	0.1555624
178	0xbd7071f2	-0.058702417
179	0xbd76383e	-0.06011223
180	0xbe316435	-0.17323382
181	0xbe33b56b	-0.17549674
182	0xbd023e88	-0.031797916
183	0xbc16aeea	-0.009196976
184	0x3cef2645	0.029193053
185	0xbdf39d66	-0.11895256
186	0xbc171f1f	-0.009223728
187	0xbc44122f	-0.011967226
188	0x3e1933f8	0.14961231
189	0x3e0a5abc	0.13511175
190	0xbe3820b1	-0.17981221
191	0xbd9aaa84	-0.075520545
192	0xbd7b4053	-0.06134064
193	0x3c9dd395	0.01926593
194	0x3da051a1	0.078280695
195	0xbdda0403	-0.106452964
196	0xbe03db67	-0.12876664
197	0xbe4445ef	-0.19167303
198	0xbd65b4b7	-0.056080546
199	0xbe7344da	-0.23756734
200	0x3cf8a440	0.030351758
201	0xbd27d45b	-0.040974002
202	0xbdd83b64	-0.10558203
203	0xbe375cbb	-0.17906468
204	0x3dd08ae5	0.10182742
205	0xbdc2a41a	-0.09503956
206	0x3e5de797	0.21670376
207	0xbd8ee1f5	-0.06976692
208	0x3e10e38e	0.14149305
209	0xbd6aa67e	-0.057287686
210	0xbe2a4b26	-0.1663023
211	0x3e05fb3f	0.13084124
212	0xbe564267	-0.20923768
213	0xbe2e84b0	-0.17042804
214	0x3d325965	0.043542285
215	0xbd05e8ad	-0.0326926
216	0xbdd1d12f	-0.10244977
217	0x3e35abc6	0.17741308
218	0xbe5112bf	-0.20417307
219	0xbe0b39fe	-0.13596341
220	0x3dba56a6	0.09098558
221	0xbd84f63f	-0.0649228
222	0xbd8ff851	-0.070297845
223	0xbd2fa5e9	-0.042882834
224	0xbae6c9af	-0.0017607714
225	0x3e0055d9	0.12532748
226	0xbd83c895	-0.06434742
227	0xbaff3834	-0.0019471706
228	0x3b7c870c	0.0038532643
229	0x3e0911d0	0.13385701
230	0x3e25da54	0.16196567
231	0x3df7225f	0.12067103
232	0xbdd9ad53	-0.10628762
233	0x3d0daeef	0.034590658
234	0xbe04919a	-0.12946168
235	0xbe871d44	-0.26389515
236	0x3e355864	0.177095
237	0xbe709b0b	-0.23496644
238	0xbe0da07b	-0.1383075
239	0xbdc61cf7	-0.09673493
240	0xbe822ae7	-0.25423357
241	0xbe1d6f2b	-0.15374438
242	0xbe01ae5f	-0.12664174
243	0x3c16f20f	0.009212985
244	0xbe823baa	-0.25436145
245	0xbe24810c	-0.16064852
246	0xbe2e8b3a	-0.17045298
247	0xbdf5ed56	-0.12008159
248	0x3d5ac54d	0.053410817
249	0x3b317bf6	0.0027081943
250	0xbc9dd4b7	-0.01926647
251	0x3e2a6f90	0.1664412
252	0xbda9d433	-0.08292427
253	0xbdb97db4	-0.09057179
254	0x3d91e2ea	0.071233585
255	0x3e0771ec	0.13227051

gnn.gnn_layers.1.graph_conv.bias f4 [64]
0	0x3cf9cbad	0.030492628
1	0x3d7f1852	0.062279053
2	0xbc13bbf6	-0.009016981
3	0xbcb31a86	-0.021863233
4	0xbdb0a766	-0.08625679
5	0x3c4fc3ad	0.01268093
6	0x3d54f9ef	0.051996168
7	0xbcd4474e	-0.025912907
8	0x3c6d6611	0.014489667
9	0xbc7446b1	-0.014909432
10	0xbc2a21bb	-0.0103840185
11	0xbcb51bda	-0.022108007
12	0x3b992442	0.0046735117
13	0xbcdb8816	-0.02679829
14	0xbd8e6ecf	-0.06954729
15	0xbcb81ecd	-0.022475624
16	0xbe00af17	-0.12566791
17	0x3ab89314	0.0014081919
18	0x3d9c8382	0.076422706
19	0xbd10f87b	-0.03539322
20	0xbd44c76a	-0.04804174
21	0xbd3c8d8c	-0.046033427
22	0xbdcb7258	-0.09933919
23	0x3d86e0d1	0.06585849
24	0xbca6c658	-0.02035825
25	0xbc270a12	-0.010195272
26	0xbd2e289b	-0.042519193
27	0xbd1a59cd	-0.037683297
28	0x3db20b1c	0.08693525
29	0xbcc44d22	-0.023962561
30	0x3d94d98e	0.07268058
31	0x3d2e44e6	0.042546175
32	0xbc43b38d	-0.011944664
33	0xba2723ac	-0.000637586
34	0xbda16fc5	-0.078826465
35	0xbc8b3154	-0.016991295
36	0x3c614986	0.0137504395
37	0xbd1a4f63	-0.037673365
38	0xbd12924e	-0.03578406
39	0xbc95b07f	-0.018272636
40	0x3cd6fa7a	0.026242483
41	0x3d407ca6	0.046993874
42	0x3da5b614	0.08091369
43	0xbde2f7fd	-0.11082456
44	0x3cfbd34a	0.030740399
45	0xbd384d74	-0.04499574
46	0x3c1d0e98	0.009585999
47	0xbcc80cf1	-0.024420233
48	0xbd0bb845	-0.03411128
49	0x3d57095f	0.05249917
50	0x3c83cabb	0.01608788
51	0x3d2482cd	0.040163804
52	0x3dbe458b	0.09290608
53	0xbbf0609a	-0.0073357346
54	0x3d55c0b0	0.052185714
55	0x3d989592	0.07450403
56	0x3a83864d	0.0010034532
57	0x3d06db97	0.03292426
58	0xbc95a206	-0.018265735
59	0x3ca80743	0.020511275
60	0x3cce1333	0.02515564
61	0xb9b41dda	-0.00034354517
62	0x3d1443bb	0.036197405
63	0xbd7d31b1	-0.061814968

gnn.gnn_layers.1.res_connection.weight f4 [64, 64]
0	0x3c3d44c6	0.011552041
1	0xbd71d374	-0.059039548
2	0xbdc6da4b	-0.09709605
3	0xbdbca010	-0.09210217
4	0x3cb36b78	0.021901831
5	0xbd9378f7	-0.072008066
6	0x3d9a01e9	0.075198956
7	0x3d99046b	0.07471546
8	0x3dbb621f	0.091495745
9	0xbcfab6c1	-0.030604722
10	0xbda6f4ac	-0.08152136
11	0x3c412929	0.0117895985
12	0x3d071df0	0.032987535
13	0xbc6d8cb2	-0.014498876
14	0xbe110cc2	-0.14165023
15	0xbd4a427c	-0.04937981
16	0x3cc25088	0.02372004
17	0x3df99b78	0.121878564
18	0x3cc22440	0.023698926
19	0xbdd9de4a	-0.106381014
20	0xbd2dee19	-0.042463396
21	0x3d2bc04f	0.041931447
22	0x3e02bcb8	0.12767303
23	0xbd7a3b3e	-0.061091654
24	0x3e026914	0.12735397
25	0x3c273562	0.010205599
26	0x3cc017f8	0.02344893
27	0xbdf0e070	-0.11761558
28	0x3d17c52c	0.037053272
29	0x3d960817	0.07325762
30	0xbcc1a7bf	-0.023639558
31	0xbbd443b9	-0.0064777997
32	0xbcf55e68	-0.029952243
33	0xbddd953d	-0.108194806
34	0xbe98fb7b	-0.29879364
35	0x3d6d5427	0.057941582
36	0xbdc8e98a	-0.09810169
37	0xbe008f52	-0.12554672
38	0x3d53f493	0.051746916
39	0x3d12e4fd	0.03586291
40	0xbe0c67ae	-0.13711426
41	0x3de7d9e5	0.11320857
42	0xbba16b2a	-0.004926105
43	0xbdde9bac	-0.10869536
44	0xbe081251	-0.13288237
45	0xbdcb1c57	-0.09917515
46	0x3c24c210	0.010056034
47	0x3e2a657b	0.16640274
48	0x3e271e88	0.1632024
49	0x3d409536	0.0470173
50	0xbe037f66	-0.12841567
51	0x3e58bef8	0.21166599
52	0x3cd2a874	0.02571509
53	0xbc5819a5	-0.013189708
54	0x3e0a9b55	0.13535817
55	0x3d150fec	0.036392137
56	0xbcb35833	-0.021892643
57	0xbd205c71	-0.03915066
58	0x3bae4158	0.005317848
59	0x3d2b599a	0.041833498
60	0xbdd5547b	-0.10416504
61	0xbe00513e	-0.12530991
62	0xbdae374f	-0.08506643
63	0x3ddb684f	0.10713255
64	0x3dd295f9	0.10282511
65	0xbdb02271	-0.08600319
66	0xbd86e724	-0.06587055
67	0xbd0357b1	-0.03206605
68	0xbe22fcf4	-0.15916806
69	0xbe47f8e1	-0.19528534
70	0x3d52d9cc	0.05147724
71	0xbd2342e3	-0.03985871
72	0x3d578821	0.052620057
73	0xbdac780c	-0.084213346
74	0xbdb89520	-0.09012818
75	0xbd8304e1	-0.06397415
76	0xbce78f0b	-0.02826645
77	0x3bb8cc4f	0.00563959
78	0xbe07fdda	-0.1328043
79	0x3dcb9647	0.099407725
80	0xbd97098a	-0.07374866
81	0x3d833e16	0.06408326
82	0xbcbac095	-0.022796908
83	0x3ce94530	0.028475374
84	0xbdbd1c62	-0.09233929
85	0x3df1f575	0.11814395
86	0xbc263f95	-0.010146995
87	0x3c5337e5	0.012891744
88	0x3e0affb5	0.13574107
89	0x3d2a989c	0.041649446
90	0x3dfab9ef	0.12242495
91	0x3dddc2a2	0.10828139
92	0xbc82ea5d	-0.015980894
93	0x3d01c979	0.03168628
94	0xbb14e369	-0.0022718555
95	0xbbf6d2e0	-0.0075324625
96	0xbdafbacd	-0.08580551
97	0xbd8b8935	-0.068132795
98	0xbc11f4b3	-0.0089084385
99	0x3dbf2783	0.09333708
100	0x3d59b690	0.05315262
101	0x3d30c33c	0.04315494
102	0xbd38dc30	-0.045131862
103	0xbb06a011	-0.0020542184
104	0x3d13cbaa	0.0360829
105	0xbd8f47b1	-0.06996096
106	0x3c876715	0.016528646
107	0xbe112b3d	-0.1417665
108	0xbe86823a	-0.2627123
109	0x3e25637f	0.16151236
110	0xbd9938b4	-0.074815184
111	0x3cdc8b2a	0.026921827
112	0xbdab782d	-0.08372531
113	0xbdf77886	-0.12083535
114	0x3df29b74	0.118460566
115	0x3e1755b3	0.14778785
116	0xbcbdd5e9	-0.02317329
117	0xbc819ac4	-0.015820868
118	0x3e2cb162	0.16864541
119	0x3dfe4850	0.12416136
120	0x3dd16115	0.10223595
121	0x3db6806e	0.08911215
122	0x3ced4c9c	0.028967194
123	0x3c43d1be	0.011951862
124	0xba52c9af	-0.00080409175
125	0xbdb06dfb	-0.08614727
126	0xbe1b851d	-0.15187497
127	0x3da9804c	0.08276424
128	0x3e261916	0.16220507
129	0x3d815f54	0.063170105
130	0x3e24d818	0.16098058
131	0x3e62519c	0.22101444
132	0xbcf1452c	-0.029451929
133	0xbdb55a09	-0.088550635
134	0x3bbcfa96	0.005767177
135	0xbd6a4968	-0.057198912
136	0xbd62eff3	-0.055404615
137	0x3e286317	0.1644405
138	0x3da5493f	0.08070611
139	0x3cbe63aa	0.023240883
140	0xbd41f873	-0.04735608
141	0xbd87de13	-0.06634154
142	0xbd7849b1	-0.060617153
143	0x3e2a7e15	0.16649659
144	0x3deed887	0.11662393
145	0x3d53b395	0.051684935
146	0xbdc45bdb	-0.095878325
147	0x3d70edd3	0.058820557
148	0x3e0796e8	0.1324116
149	0xbd43950c	-0.047749564
150	0xbdc1eda0	-0.094691515
151	0x3c79fbc9	0.015257784
152	0xbcfc5aab	-0.030804953
153	0x3da72375	0.0816106
154	0xbd772d61	-0.06034601
155	0x3c345a60	0.011007875
156	0xbdfb4b3e	-0.12270211
157	0x3d38c457	0.04510912
158	0x3cb32ce5	0.021871993
159	0x3e0287cb	0.12747113
160	0x3c343c65	0.011000727
161	0x3e9062ff	0.28200528
162	0x3eb8dca4	0.36105835
163	0xbd72441e	-0.059146993
164	0xbe4acb64	-0.1980415
165	0xbbd10ffb	-0.006380079
166	0xb948a0d5	-0.00019133401
167	0xbccb9cef	-0.024855105
168	0x3da7c12d	0.08191142
169	0x3dac920c	0.08426294
170	0xbdbb9c36	-0.09160654
171	0xbdb33419	-0.08750171
172	0x3e934221	0.2876139
173	0x3d20b525	0.039235253
174	0x3dc46b1f	0.09590744
175	0x3db90c4d	0.09035549
176	0x3ddac5a5	0.10682229
177	0xbdcd8e20	-0.10036874
178	0xbd0e6b93	-0.03477056
179	0xbdfbcb98	-0.12294692
180	0xbe1cc3fe	-0.1530914
181	0x3e11b6c1	0.14229871
182	0xbd8fe3e0	-0.070258856
183	0xbba273ca	-0.004957651
184	0xbd1d38f7	-0.038384404
185	0x3caa204d	0.020767355
186	0xbd6aa1ad	-0.057283092
187	0x3dd24055	0.102661766
188	0xbd476adc	-0.048685893
189	0x3e3ae208	0.18250287
190	0x3cb5593f	0.022137282
191	0xbb04b9f0	-0.002025243
192	0xbd99db87	-0.07512575
193	0x3cb7894b	0.022404334
194	0x3e1209da	0.1426157
195	0x3d978b56	0.07399623
196	0xbd71f3c9	-0.059070382
197	0xbe01b5db	-0.12667029
198	0xbd89b8d0	-0.06724703
199	0x3da7736f	0.08176314
200	0x3dffd133	0.124910735
201	0x3dc7922e	0.097446784
202	0x3da46ce4	0.08028582
203	0xbd4fe728	-0.050757557
204	0x3d3fcd72	0.046826787
205	0x3e0f1215	0.13971741
206	0xbc93eb9d	-0.018056685
207	0xbd3fa527	-0.04678836
208	0x3da7c00e	0.081909284
209	0xbde94a40	-0.11391115
210	0xbd9b927c	-0.07596299
211	0x3d856252	0.06512894
212	0x3d84ca7b	0.064839326
213	0x3da55b6a	0.080740765
214	0xbd01c206	-0.031679176
215	0xbc8c2c8a	-0.017111082
216	0x3dd0de19	0.10198612
217	0xbd74c1f2	-0.059755273
218	0x3e086b51	0.13322188
219	0x3d68d4da	0.056843616
220	0x3dc2555e	0.09488939
221	0x3dcacc7e	0.09902285
222	0xbc32506b	-0.010883431
223	0x3c81a946	0.015827786
224	0xbc6168c3	-0.013757887
225	0xbd38d74e	-0.045127206
226	0xbd16d9c9	-0.03682879
227	0x3c848036	0.016174417
228	0x3d6a8a48	0.05726078
229	0xbdf3b9b6	-0.11900656
230	0xbb87eaa4	-0.0041478444
231	0xbdc2667f	-0.09492206
232	0xbbdc2724	-0.006718533
233	0xbd4361a1	-0.047700528
234	0x3de7a387	0.11310487
235	0xbdf50933	-0.11964645
236	0xbcf7fade	-0.03027099
237	0x3e541455	0.20710881
238	0xbd8a094c	-0.067400545
239	0x3df78edf	0.120877974
240	0xbcc3ffda	-0.02392571
241	0xbd01cafb	-0.031687718
242	0xbd350a28	-0.04419914
243	0x3cb99708	0.022655025
244	0xbdca5851	-0.09880126
245	0x3e118ceb	0.14213912
246	0x3d830ed4	0.063993126
247	0xbc109b0e	-0.00882603
248	0xbbb0e7f4	-0.0053987447
249	0xbd63a80c	-0.055580184
250	0xbd6344cb	-0.055485528
251	0xbdaa0a23	-0.08302715
252	0x3cace4de	0.021105226
253	0x3e0243b0	0.12721133
254	0x3ca090d2	0.019600306
255	0x3deb9cdc	0.11504528

gnn.gnn_layers.1.res_connection.bias f4 [64]
0	0x3dca2077	0.098694734
1	0x3df197c9	0.11796529
2	0x3dffae02	0.12484361
3	0x3d91ca4c	0.07118663
4	0x3bfba39a	0.007679415
5	0xbc6a3b26	-0.014296329
6	0x3d764e90	0.060133517
7	0x3d9c07f9	0.07618708
8	0x3d38253c	0.044957384
9	0x3d4071eb	0.04698364
10	0xbdd1775e	-0.102278456
11	0xbdee2291	-0.11627687
12	0xbc935613	-0.01798538
13	0x3d018279	0.03161857
14	0x3db5a286	0.088688895
15	0x3e1a51ca	0.15070263
16	0x3c9f4df2	0.019446347
17	0xbd551591	-0.05202252
18	0xbd7e7b37	-0.062129226
19	0x3dd7ee5d	0.10543511
20	0x3d8bb56e	0.06821714
21	0x3e440cc8	0.191455
22	0xbc19b83a	-0.009382302
23	0x3e0faaa2	0.14029935
24	0x3d8756ed	0.06608377
25	0x3dd23865	0.10264663
26	0x3e03aa2c	0.12857884
27	0x3dad68bc	0.08467242
28	0x3d750bb5	0.059825618
29	0xbe00d5ea	-0.12581602
30	0xbd368876	-0.044563733
31	0x3dd5e66b	0.10444339
32	0xbdde9b88	-0.10869509
33	0x3cdf046e	0.027223792
34	0x3df7ec10	0.12105572
35	0x3cce0cec	0.025152646
36	0xbc770c0c	-0.015078556
37	0xbdf51c3e	-0.119682774
38	0xbe207a7d	-0.15671726
39	0xbdae0482	-0.084969535
40	0xbd3c5146	-0.045975946
41	0x3d95ef29	0.07321007
42	0x3c19502d	0.009357494
43	0xbc88c7d5	-0.01669685
44	0xbd546e7c	-0.05186318
45	0xbdd0a793	-0.10188212
46	0x3dee68f4	0.11641112
47	0x3cf5a3af	0.029985277
48	0x3e26f311	0.1630366
49	0xbd657be6	-0.056026362
50	0x3d411a7e	0.047144406
51	0xbccb907b	-0.024849167
52	0x3d3cf332	0.046130367
53	0xbdf36327	-0.11884146
54	0xbc2dbb20	-0.010603696
55	0xbd13aa8c	-0.036051318
56	0x3dc3b186	0.09555344
57	0x3d360e4c	0.04444723
58	0x3d32173e	0.043479197
59	0x3dfab7ad	0.122420646
60	0xbe0069e6	-0.12540397
61	0xbd4903e4	-0.049075976
62	0xbd08d27f	-0.03340387
63	0x3d14fa17	0.036371317

readout.weight_and_sum.atom_weighting.0.weight f4 [1, 64]
0	0xbc227284	-0.009914998
1	0xbce241ea	-0.02761932
2	0xbcfe0073	-0.031006074
3	0xbdcc3376	-0.09970753
4	0xbdce52e1	-0.10074402
5	0xbc8b49db	-0.01700299
6	0xbdc54373	-0.096320055
7	0x3ddfcfce	0.109283075
8	0x3c426dbb	0.011866982
9	0x3d22db53	0.039759945
10	0x3da48b21	0.08034349
11	0x3c263b87	0.010146028
12	0x3d1cbdbc	0.038266882
13	0x3c6c437a	0.014420385
14	0x3d91a24e	0.07111035
15	0xbcf871e5	-0.030327747
16	0xbdf0deb1	-0.11761225
17	0xbccf8aed	-0.0253348
18	0xbd6b9df8	-0.057523698
19	0x3d2f94da	0.042866565
20	0x3db0bcd7	0.08629768
21	0xbe2ec84b	-0.17068593
22	0xbd8c071c	-0.068372935
23	0xbe746801	-0.238678
24	0xbda823ca	-0.08209951
25	0xbdd33f81	-0.10314847
26	0xbe7ad2ea	-0.2449452
27	0xba5f4b0b	-0.0008517957
28	0xbcf94b67	-0.030431462
29	0x3e198fcd	0.14996262
30	0xbe884503	-0.26615152
31	0xbd5a8a5b	-0.053354602
32	0xbcb681a2	-0.02227861
33	0x3cc94e62	0.024573509
34	0xbe2bd713	-0.16781263
35	0xbe24d70c	-0.16097659
36	0xbcb7d8db	-0.022442272
37	0xbd5579e8	-0.052118212
38	0x3e14aad6	0.14518294
39	0x3cbd0b58	0.023076698
40	0xbd664920	-0.05622208
41	0xbd2c344c	-0.04204206
42	0xbcceef8a	-0.025260706
43	0xbea521ae	-0.32252258
44	0xbd8bc847	-0.06825309
45	0x3da0de30	0.07854879
46	0xbd43ba4e	-0.047785096
47	0x3d0df961	0.034661654
48	0xbda03dbb	-0.07824274
49	0xbd8a0906	-0.06740002
50	0xbdbd8948	-0.092547
51	0xbd10eac0	-0.035380125
52	0xbd796cf7	-0.060894933
53	0xbd8961e5	-0.06708125
54	0xbca07737	-0.019588096
55	0xbdb15292	-0.08658327
56	0x3b8d0fe7	0.004304874
57	0xbda7075c	-0.081557006
58	0xbe27430f	-0.16334175
59	0x3ca14d9c	0.019690327
60	0xbd47cd02	-0.048779495
61	0xbdffce44	-0.12490514
62	0xbd964305	-0.07337002
63	0xbdd9e92d	-0.10640178

predict.predict.1.weight f4 [64, 128]
0	0x3a671497	0.0008815019
1	0xbc51331e	-0.012768535
2	0x3d0d60b1	0.03451604
3	0xbcbeb6c1	-0.023280503
4	0xbdc00317	-0.09375589
5	0xbddad102	-0.10684396
6	0xbc0fef48	-0.008785076
7	0xbd96591e	-0.073412165
8	0x3d743d6d	0.059628893
9	0xbc938551	-0.018007906
10	0x3d4c8af3	0.0499372
11	0xbd0fd625	-0.035116334
12	0xbd7d823f	-0.06189179
13	0xbdc83412	-0.097755566
14	0x3d7cfe47	0.061765935
15	0xbd2f689a	-0.042824365
16	0x3d267abc	0.040644392
17	0xbd64d632	-0.055868335
18	0xbdb12431	-0.08649481
19	0xbd54a0f7	-0.05191132
20	0x3cabdb84	0.020978697
21	0x3d395d46	0.045254968
22	0xbdbee9e0	-0.09321952
23	0xbdb11760	-0.086470366
24	0x3bf46989	0.00745887
25	0x3ca7b8cd	0.020473862
26	0xbd9d6307	-0.076849036
27	0x3c6ca57a	0.01444375
28	0xbd061aa9	-0.03274027
29	0xbdc6353c	-0.096781224
30	0x3ce263cc	0.027635477
31	0xbdc27fd2	-0.09497036
32	0xbcd9d0f2	-0.02658889
33	0xbd1f0633	-0.03882427
34	0xbd6fd051	-0.058548275
35	0xbc8c344b	-0.017114779
36	0xbdc6d8f2	-0.09709348
37	0x3d61859d	0.055059064
38	0xbdb25246	-0.08707099
39	0x3d0659d3	0.032800507
40	0xbc97976d	-0.018504823
41	0xbcd0d356	-0.025491398
42	0xbcdee6e8	-0.027209714
43	0xbd6c4182	-0.05767966
44	0xbd13e6e9	-0.036108885
45	0x3d2876d7	0.04112896
46	0xbd80e7c1	-0.062942035
47	0x3c9330bb	0.017967572
48	0xb5f9e66f	-1.8619011e-06
49	0xbd83c8c5	-0.06434778
50	0x3d2093a0	0.039203286
51	0x3c2f8701	0.01071334
52	0xbdcee675	-0.1010255
53	0xbcf32eec	-0.02968546
54	0x3d10517f	0.03523397
55	0xbcdd507b	-0.027015915
56	0x3d7710f1	0.06031889
57	0xbddae93c	-0.10689017
58	0x3adeb4de	0.0016991158
59	0xbddd357d	-0.10801218
60	0x3c74b40d	0.014935506
61	0xbd45de5c	-0.04830776
62	0xbcfdd501	-0.030985357
63	0xbd0513a5	-0.032489438
64	0xbc26b5c6	-0.010175174
65	0xbd908856	-0.07057254
66	0xbd5549f3	-0.052072477
67	0x3c79aa61	0.015238375
68	0xbd8693cf	-0.06571161
69	0x3b3ab24b	0.0028487619
70	0xbcfaf037	-0.030632121
71	0x3d05471d	0.032538522
72	0xbd29b8ec	-0.04143612
73	0x3ccf1bfd	0.0252819
74	0xbcaead7b	-0.021322956
75	0xbd856e3b	-0.065151654
76	0xbb96c5b6	-0.0046012057
77	0xbd84a6f9	-0.0647716
78	0xb9ae3cd8	-0.00033233198
79	0xbd080a59	-0.033212993
80	0xbc2b926a	-0.01047192
81	0xbd1a983d	-0.037742842
82	0xbd30b991	-0.04314572
83	0xbdc3d995	-0.09562985
84	0xbd4a8907	-0.049447086
85	0x3d4be45c	0.049778327
86	0x3cdd80cb	0.027038952
87	0xbd673752	-0.056449242
88	0xbc128ab5	-0.008944203
89	0x3a129ebf	0.0005593113
90	0x3cfee805	0.031116495
91	0x3d0e398d	0.034722853
92	0xbd83e6e6	-0.06440525
93	0xbd2280a4	-0.039673463
94	0x3d496f2c	0.049178287
95	0xbc491bf0	-0.012274727
96	0xbd8d2996	-0.068926975
97	0xbd6ce91f	-0.05783951
98	0xbd6946c7	-0.056952264
99	0xbd5036a1	-0.05083335
100	0xbd9d5941	-0.076830395
101	0x3d7f5c5f	0.06234395
102	0xbd00ad44	-0.03141524
103	0x3d163ea1	0.03668082
104	0xbdcdb8b0	-0.10044992
105	0x3ca20d8b	0.019781848
106	0x3c2d6ffd	0.010585782
107	0xbdbf674f	-0.093458764
108	0xbd1f751f	-0.038930055
109	0x3af89d47	0.0018967771
110	0xbdaeba94	-0.08531681
111	0x3c340560	0.01098761
112	0x39de794c	0.00042433513
113	0xbdc88380	-0.09790707
114	0xbd5ca0d3	-0.05386431
115	0x3d22cb18	0.039744467
116	0xbce7b8a8	-0.028286293
117	0xbd104f1d	-0.0352317
118	0x39f1a645	0.00046090983
119	0xbdae0f0d	-0.084989645
120	0x3c018015	0.007904072
121	0xbd8eb71b	-0.06968518
122	0x3c171de5	0.009223436
123	0xbd85c78e	-0.06532203
124	0xbd3c55c1	-0.04598022
125	0xbd5acbe3	-0.053417098
126	0x3cc74a22	0.024327341
127	0xbdce12f9	-0.100622125
128	0x3cc2a158	0.023758575
129	0x3c47aa1d	0.012186554
130	0x3c456f34	0.012050439
131	0x3d4c515a	0.04988227
132	0x3d9fceff	0.07803153
133	0xbbc520e0	-0.006015882
134	0x3d14de06	0.03634455
135	0x3d5880a2	0.05285705
136	0x3cd918e4	0.026501127
137	0x3dc4ed80	0.09615612
138	0x3c58bc7a	0.01322853
139	0x3de6e8ed	0.11274896
140	0x3d03bf64	0.032164946
141	0x3d1a33bc	0.037646994
142	0xbd60dcfc	-0.054898247
143	0x3b1a9827	0.0023589225
144	0xbdd1d4fe	-0.10245703
145	0xbbfd6777	-0.0077332812
146	0xbcc96f6e	-0.024589267
147	0x3c22bcfc	0.009932753
148	0x3cb9efde	0.022697385
149	0x3de5f8fe	0.11229132
150	0x3c04ee4b	0.008113454
151	0xb9065dcf	-0.00012814182
152	0x3d448864	0.047981635
153	0x3d83db61	0.064383276
154	0x3d2a2673	0.041540574
155	0x3d5af0fe	0.053452484
156	0x3ca4937f	0.020089863
157	0xbd68a016	-0.056793295
158	0x3d77667e	0.06040048
159	0x3c6ccbdd	0.014452902
160	0x3d778e5e	0.060438506
161	0x3c31ae92	0.010844843
162	0x3d20fb33	0.039302062
163	0x3d8ee4c3	0.069772266
164	0xbba95edc	-0.005168779
165	0x3d8c247d	0.06842897
166	0xbcfa5398	-0.030557439
167	0x3cef884c	0.029239796
168	0x3c8ee6fe	0.01744413
169	0x3c29fe55	0.010375579
170	0xbbacc0fa	-0.005272028
171	0xbee3c00b	-0.44482455
172	0x3cb68f7f	0.022285221
173	0x3d5cded1	0.05392343
174	0x3b156c35	0.0022800092
175	0x3e08ad65	0.13347395
176	0x3eaf56ba	0.34245855
177	0x3c9304f7	0.017946703
178	0x3d009343	0.03139044
179	0x3c28d01a	0.0103035215
180	0x3c9d9b96	0.019239228
181	0xbd1b0121	-0.037842873
182	0x3d562110	0.052277625
183	0x3c81fa1b	0.01586633
184	0xbc9b9e8f	-0.018996505
185	0x3cb6164a	0.022227425
186	0x3d3d35f7	0.046194043
187	0xbc11c98e	-0.008898152
188	0xbca1e985	-0.019764671
189	0x3d65115f	0.05592477
190	0x3d2f7da6	0.042844437
191	0xbce97d8d	-0.02850225
192	0xbcaf2b3e	-0.021382924
193	0xbd7444e3	-0.059636008
194	0x3ab47254	0.0013766983
195	0x3a7c8fbd	0.0009634456
196	0x3c314fc7	0.010822243
197	0x3c1de0bb	0.009636099
198	0xbd1b27da	-0.037879802
199	0x3d4a211b	0.049347978
200	0xbcef541c	-0.029214911
201	0x3cc0be2b	0.02352818
202	0x3d6d3b95	0.05791815
203	0x3e9a94f6	0.30191773
204	0x3dca9b5f	0.09892916
205	0x3d418d77	0.047254052
206	0x3ba95678	0.0051677786
207	0x3b888f79	0.004167494
208	0xbdf43ed7	-0.11926048
209	0x3cbbdaa8	0.022931412
210	0x3ce9043d	0.028444404
211	0xbdb6c706	-0.089246795
212	0xbdd10f99	-0.10208053
213	0x3cef7b27	0.029233528
214	0x3d80e0ac	0.06292853
215	0x3de6f50f	0.1127721
216	0x3da4a885	0.08039955
217	0x3d60d791	0.05489308
218	0x3e047d43	0.12938409
219	0x3d100a8c	0.03516631
220	0xbd59d411	-0.053180758
221	0xbf2f3b96	-0.68450296
222	0x3c52d9f1	0.012869344
223	0xbd97ebcc	-0.074180216
224	0xbbad6783	-0.0052918806
225	0xbd98abce	-0.07454644
226	0x3b4de1c3	0.0031415082
227	0x3d0d5e3b	0.034513693
228	0x3cebf88f	0.028805045
229	0xbd84922e	-0.06473194
230	0x3d62c329	0.0553619
231	0x3e1ea3b9	0.15492143
232	0x3c9ee268	0.019395068
233	0xbc93fefc	-0.018065922
234	0xbca6fb30	-0.020383447
235	0x3cbed031	0.023292633
236	0xbd3fdfc2	-0.04684425
237	0xbde3efe4	-0.1112974
238	0xbcc14218	-0.023591086
239	0x3d8cb0aa	0.068696335
240	0x3e172b07	0.14762507
241	0xbc58379a	-0.01319685
242	0x3de6527e	0.11246203
243	0xbb98acbd	-0.004659264
244	0xbb64cdf4	-0.0034912797
245	0x3bf3ae13	0.0074365227
246	0xbc599522	-0.013280185
247	0xbde48322	-0.11157824
248	0x3d1b13b1	0.037860576
249	0x3dbef4e4	0.09324053
250	0x3d251499	0.040302847
251	0x3d32c21b	0.043642145
252	0x3d1ba32f	0.03799742
253	0x3df79e35	0.120907225
254	0x3a172e5d	0.00057671015
255	0xbd48cabf	-0.04902148

predict.predict.1.bias f4 [64]
0	0xbd3df9e8	-0.046380907
1	0xbeca9a5d	-0.39570895
2	0xbdb58bcf	-0.08864557
3	0xbc8c07b6	-0.01709352
4	0xbcad6fe6	-0.021171521
5	0xbd870f73	-0.065947436
6	0xbefdf98f	-0.4960446
7	0x3f5d25f4	0.86386037
8	0xbd6c9f1c	-0.057768926
9	0x3d9f5296	0.07779424
10	0xbef6f072	-0.4823032
11	0xbdd9b097	-0.10629385
12	0xba37c930	-0.0007010875
13	0xbec60f18	-0.3868339
14	0xbeec462b	-0.46147284
15	0xbb8e6149	-0.0043450934
16	0xbefa47d9	-0.4888294
17	0xbf089f34	-0.53367925
18	0x3d564c96	0.05231913
19	0xbd59daaf	-0.05318707
20	0x3e9ecb23	0.31014356
21	0xbd87d3e3	-0.06632211
22	0x3c1033d0	0.008801416
23	0xbefe2c8c	-0.49643362
24	0xbd296cbc	-0.041363463
25	0xbedb0041	-0.4277363
26	0x3d6f199b	0.05837403
27	0x3eb0a50e	0.34500927
28	0xbeff2082	-0.4982949
29	0x3efa9bb8	0.4894693
30	0xbf0b1020	-0.5432148
31	0x3f554639	0.83310276
32	0xbdb0f542	-0.08640529
33	0xbf12c6ab	-0.57334393
34	0x3f515c51	0.8178149
35	0xbf0c0e93	-0.5470974
36	0xbeeb0119	-0.45899275
37	0xbe800787	-0.25005743
38	0xbedc6754	-0.43047583
39	0x3ee83e4c	0.4536003
40	0xbea4293c	-0.3206271
41	0xbefa59ca	-0.4889663
42	0xbec5c3e6	-0.3862602
43	0xbe26986e	-0.16269085
44	0xbed6a513	-0.41922817
45	0x3c1ed894	0.009695191
46	0xbdd286e9	-0.10279638
47	0x3b2095b9	0.0024503304
48	0xbf1461d6	-0.57961786
49	0xbd9c08b3	-0.07618847
50	0xbede0b25	-0.43367878
51	0xbbda064a	-0.0066535817
52	0xbd4c41eb	-0.04986755
53	0xbd45d25d	-0.04829632
54	0x3d1c9c44	0.038234964
55	0xbcacc804	-0.021091469
56	0xbdc4599d	-0.09587405
57	0x3e18e78b	0.14932077
58	0xbdc0a0b4	-0.09405652
59	0xbee65e7f	-0.4499397
60	0xbb81936e	-0.0039543426
61	0xbeb3b965	-0.35102382
62	0xbf07c8c5	-0.53040725
63	0xbea0c0a4	-0.31396973

predict.predict.3.weight f4 [64]
0	0x3fbd764b	1.4801725
1	0x3fa15faa	1.2607319
2	0x3fb4eebd	1.4135357
3	0x3fad93f2	1.3560774
4	0x3fb61a95	1.4226862
5	0x3fbc3ecb	1.4706663
6	0x3faa9ff2	1.3330061
7	0x3fc7322a	1.5562184
8	0x3fb46d1b	1.4095796
9	0x3fa73674	1.3063493
10	0x3fad3af0	1.3533611
11	0x3fb2fde7	1.3983735
12	0x3fbc8c47	1.4730309
13	0x3fa8ec0c	1.3197036
14	0x3fac23d4	1.3448434
15	0x3fbe0124	1.4844098
16	0x3fb30823	1.3986858
17	0x3faf9fcf	1.3720645
18	0x3fc0418f	1.5020007
19	0x3fb491c4	1.4106984
20	0x3fc62c92	1.5482352
21	0x3fbdf291	1.483965
22	0x3f7b1139	0.98073155
23	0x3fc5c4bd	1.5450665
24	0x3fb38242	1.4024127
25	0x3fad7a31	1.3552915
26	0x3fb3e235	1.4053408
27	0x3fb71fbe	1.4306562
28	0x3fadc95f	1.3577079
29	0x3f83861d	1.0275303
30	0x3fb03348	1.376565
31	0x3fcb1aa7	1.5867509
32	0x3fae3b81	1.3611909
33	0x3fa90d12	1.3207114
34	0x3fc2d61b	1.522159
35	0x3fb04efa	1.3774102
36	0x3fa9dc98	1.3270445
37	0x3fba8e47	1.457467
38	0x3fb22554	1.3917642
39	0x3fce3451	1.6109716
40	0x3faf291c	1.368442
41	0x3fae8842	1.3635333
42	0x3fa5e73f	1.2961196
43	0x3fb3a38c	1.4034286
44	0x3fba0c29	1.4534961
45	0x3fbb4b9f	1.4632453
46	0x3fb86b04	1.4407659
47	0x3fb2ecc7	1.3978509
48	0x3fb13b60	1.3846245
49	0x3faced70	1.350996
50	0x3fabc430	1.3419247
51	0x3fbe4ec4	1.4867787
52	0x3fb98cf7	1.4496144
53	0x3fb41333	1.4068359
54	0x3fbbb609	1.4664928
55	0x3fa58c71	1.2933484
56	0x3fb93172	1.4468215
57	0x3fc02704	1.5011907
58	0x3fb0f59e	1.3824956
59	0x3fa95f29	1.3232166
60	0x3fb5f661	1.4215814
61	0x3faac1e2	1.3340418
62	0x3faba3a8	1.3409319
63	0x3fadccaa	1.3578084

predict.predict.3.bias f4 [64]
0	0xbee6e643	-0.4509755
1	0x3ea9394b	0.33051524
2	0xbec543ec	-0.38528383
3	0xbea9bc31	-0.3315139
4	0xbec99c95	-0.39377275
5	0xbee2a313	-0.4426504
6	0x3eb0babb	0.34517464
7	0xbedb9856	-0.4288966
8	0xbec3db6d	-0.38253346
9	0x3ebcfa51	0.36909726
10	0x3eac22ee	0.336204
11	0xbebc9b67	-0.36837313
12	0xbeea6c9b	-0.45785984
13	0x3ea4f87d	0.32220832
14	0x3ead7174	0.3387562
15	0xbee9aab5	-0.45638052
16	0x3eb74e66	0.35802
17	0x3eb45eb6	0.3522851
18	0xbef7b6ad	-0.48381558
19	0xbec39a56	-0.38203686
20	0xbef18534	-0.47171938
21	0xbee5cc35	-0.4488236
22	0x3cfb344e	0.03066459
23	0x3ed4c909	0.41559628
24	0xbebfc720	-0.37456608
25	0x3ead5c3e	0.33859438
26	0xbece9ba4	-0.4035312
27	0xbec526a1	-0.38506034
28	0x3eb06d96	0.34458607
29	0x3e93c2b6	0.2885949
30	0x3eb60c59	0.35556296
31	0xbefac640	-0.48979378
32	0xbeaf8f4c	-0.34289014
33	0x3ea808db	0.32819256
34	0xbee759e6	-0.45185775
35	0x3eb6acf0	0.35678816
36	0x3ead6e77	0.3387334
37	0x3ef36138	0.4753511
38	0x3eba8d83	0.3643609
39	0xbeeaf75b	-0.45891842
40	0x3eaecc3c	0.34140193
41	0x3eb13b18	0.34615397
42	0x3ea3c81c	0.3198861
43	0x3ecfaa64	0.40559685
44	0x3ebf7c3e	0.37399477
45	0xbedeee8c	-0.43541372
46	0xbedcf22e	-0.43153518
47	0xbec2582b	-0.37957892
48	0x3eb693a0	0.35659504
49	0xbee46ec1	-0.4461575
50	0x3eaf9e31	0.34300378
51	0xbed0c17e	-0.40772623
52	0xbedf5b11	-0.43624166
53	0xbec2b07f	-0.3802528
54	0xbee4cf0f	-0.44689223
55	0xbebbec8f	-0.36703917
56	0xbeed4d21	-0.46347907
57	0xbecf7a1b	-0.40522847
58	0xbeb5c684	-0.35503018
59	0x3eacc3cc	0.3374313
60	0xbeca413a	-0.3950289
61	0x3eab7b56	0.33492535
62	0x3eac0824	0.3359996
63	0x3eb761fa	0.35816938

predict.predict.4.weight f4 [1, 64]
0	0xbe9950e6	-0.29944533
1	0x3e911556	0.2833659
2	0xbeb3b94a	-0.35102302
3	0xbed1eb72	-0.40999943
4	0xbeb1f493	-0.34756908
5	0xbea14784	-0.31499875
6	0x3eb352e8	0.3502419
7	0xbeaa3c4b	-0.33249125
8	0xbeb32bef	-0.34994456
9	0x3ea0195e	0.31269354
10	0x3ec3c09d	0.3823289
11	0xbebe4606	-0.371628
12	0xbea4f1cc	-0.32215726
13	0x3ec4bd79	0.38425806
14	0x3ec55353	0.38540134
15	0xbea158e4	-0.3151313
16	0x3eb88b7e	0.36043924
17	0x3eab0cea	0.3340829
18	0xbe9cd46a	-0.3063081
19	0xbeb5c11a	-0.35498887
20	0xbea96333	-0.33083495
21	0xbe9d0bcd	-0.30673066
22	0xbdfbafac	-0.12289366
23	0x3ed32ffa	0.4124754
24	0xbeb823ed	-0.3596491
25	0x3ec54768	0.3853104
26	0xbea55f3e	-0.32299227
27	0xbeba2c87	-0.36362097
28	0x3eb90213	0.36134395
29	0x3e076a4f	0.13224147
30	0x3eb4366a	0.35197765
31	0xbec3ca83	-0.38240442
32	0xbecb1325	-0.39663044
33	0x3eaf4788	0.34234262
34	0xbeb2ebbf	-0.34945485
35	0x3ea6a872	0.3255039
36	0x3ebc9a60	0.3683653
37	0x3ecfac86	0.40561312
38	0x3eb4de4d	0.35325852
39	0xbeb0de2d	-0.34544507
40	0x3ec621d0	0.38697672
41	0x3eb4fa4b	0.35347208
42	0x3eb214ca	0.34781486
43	0x3eb9220b	0.36158785
44	0x3eb7d630	0.359056
45	0xbea297a3	-0.31756315
46	0xbea32f30	-0.3187194
47	0xbeb67923	-0.35639295
48	0x3eb11a9c	0.34590614
49	0xbe5d6505	-0.21620567
50	0x3eb06c97	0.34457847
51	0xbe77917b	-0.2417659
52	0xbea45076	-0.32092637
53	0xbeb391a2	-0.35072047
54	0xbea4bc6a	-0.32175
55	0xbe899f1d	-0.26879206
56	0xbe8fee00	-0.28111267
57	0xbeba0d14	-0.36338103
58	0xbec221b0	-0.37916327
59	0x3eba1711	0.36345723
60	0xbeadf540	-0.33976173
61	0x3ec0adab	0.37632498
62	0x3ebd152c	0.36930215
63	0x3e9edc30	0.31027365
