Models/Graphsage/acute_oral_toxicity.pt (torch, 245147 bytes, 10 tensors)

gnn.gnn_layers.0.bias f4 [128]
0.11177519 -0.029011684 0.05997495 -0.10777065 -0.11555815 -0.0026766763 -0.10554282 0.0542125
-0.034873106 0.033808287 -0.05209171 -0.041672047 0.08980797 0.043347534 0.15954234 -0.018498423
-0.04627731 -0.10919701 0.13392575 -0.07443783 -0.019118395 -0.038311966 -0.029917398 0.06128941
-0.07963206 -0.030092431 0.050023552 -0.13487634 -0.014705389 -0.01184686 0.006856003 -0.09425582
0.0026590596 -0.08135457 0.0245758 0.053681713 -0.049577687 0.1599324 0.018506868 -0.011661219
0.04959716 0.13880415 0.037795294 0.017459115 -0.10476181 0.00828824 -0.0046813604 0.18313621
0.024375256 0.069354564 0.044918258 0.08286447 -0.009862742 -0.076804966 0.040349413 0.14254315
0.037308067 -0.050042614 -0.014553677 -0.062420797 0.045131247 -0.05532778 -0.08589724 -0.13420157
-0.04250206 -0.03286284 -0.12071955 -0.055983096 0.06814861 0.19242308 0.006770435 -0.057193853
0.021049034 -0.14591238 -0.034807988 0.007192431 0.028339736 0.009354515 0.07245383 -0.07440242
-0.00637225 -0.037581455 -0.039700042 -0.046018496 0.08048815 -0.008388923 0.06666707 0.1277225
-0.0971061 -0.023704378 -0.0038061154 -0.12691547 -0.0223234 -0.102060825 0.04517622 0.022942247
-0.09305639 -0.044739064 -0.09303383 0.13038538 -0.022506796 -0.03462833 0.080610566 0.08879798
-0.035970576 -0.09667718 0.031905096 0.04887289 0.08625733 0.04439343 0.038279895 0.07259972
0.030193567 -0.1539489 0.025354449 -0.009718604 0.028748926 0.055508047 0.057824936 0.038177196
0.04680782 0.036507424 -0.08238302 -0.08146479 0.012942934 0.038829647 -0.046371635 0.0070938584
00000000: 64ea e43d e9a9 edbc 4ba8 753d dcb6 dcbd
00000010: c0a9 ecbd 2d6b 2fbb d626 d8bd ed0d 5e3d
00000020: 1ad7 0ebd 8f7a 0a3d 1e5e 55bd 4fb0 2abd
00000030: 3eed b73d 2f8d 313d 115f 233e 018a 97bc
00000040: 478d 3dbd afa2 dfbd d523 093e dc72 98bd
00000050: 2e9e 9cbc 02ed 1cbd 5515 f5bc 9b0a 7b3d
00000060: 2216 a3bd 6784 f6bc 7fe5 4c3d 061d 0abe
00000070: dfee 70bc 5519 42bc 52a8 e03b 3209 c1bd
00000080: 9e43 2e3b 3a9d a6bd 3053 c93c 5be1 5b3d
00000090: f911 4bbd 52c5 233e b79b 973c b30e 3fbc
000000a0: 6426 4b3d ad22 0e3e 3dcf 1a3d 6b06 8f3c
000000b0: 5c8d d6bd 66cb 073c 1966 99bb 0f88 3b3e
000000c0: 9eae c73c c409 8e3d 35fc 373d d9b4 a93d
000000d0: 5797 21bc ec4b 9dbd 6d45 253d d5f6 113e
000000e0: 58d0 183d 7cf9 4cbd 8c72 6ebc f3ac 7fbd
000000f0: 8bdb 383d 629f 62bd e4ea afbd 236c 09be
00000100: a416 2ebd 2f9b 06bd d03b f7bd 884e 65bd
00000110: 8091 8b3d 8e0a 453e 86da dd3b 1a44 6abd
00000120: 066f ac3c 0e6a 15be d292 0ebd 7cae eb3b
00000130: bc28 e83c ae43 193c ac62 943d 4c60 98bd
00000140: 4fce d0bb 03ef 19bd 839c 22bd e47d 3cbd
00000150: f9d6 a43d b171 09bc bf88 883d b0c9 023e
00000160: 90df c6bd af2f c2bc 0570 79bb 21f6 01be
00000170: 90df b6bc 4405 d1bd b30a 393d 61f1 bb3c
00000180: 5994 bebd 4f40 37bd 8588 bebd bf83 053e
00000190: 2c60 b8bc 70d6 0dbd 2717 a53d b7db b53d
000001a0: e255 13bd affe c5bd ebae 023d f12e 483d
000001b0: afa7 b03d e3d5 353d 61cb 1c3d 29af 943d
000001c0: 8058 f73c c8a4 1dbe 22b4 cf3c c83a 1fbc
000001d0: de82 eb3c 685c 633d d7d9 6c3d b15f 1c3d
000001e0: 8fb9 3f3d cf88 153d 6eb8 a8bd 03d7 a6bd
000001f0: 9a0e 543c d60b 1f3d 2ff0 3dbd 9973 e83b

gnn.gnn_layers.0.fc_neigh.weight f4 [128, 78]
0.14585045 -1.5372062 -0.45519298 -0.16811563 -1.6655338 9.093508e-39 -0.60078603 1.206946
0.8416809 3.429635e-39 1.68552e-39 2.586573e-39 -1.3603148e-38 5.402949e-39 1.78509e-39 0.7381278
1.198776e-38 -1.4124929e-38 5.977939e-39 1.0457086e-38 -4.23643e-40 4.484686e-39 -9.872197e-39 -1.2287877e-38
-5.454416e-39 5.759442e-39 -1.2940635e-38 -9.035001e-39 -1.1258679e-38 -1.0108419e-38 -5.47615e-39 8.317809e-39
-1.0027787e-38 -3.851392e-39 1.2767117e-38 1.188506e-38 7.897313e-39 -6.812949e-39 -6.867161e-39 -8.694673e-39
7.902345e-39 -2.911031e-39 1.1557729e-38 1.2138011e-38 0.059715692 0.1467703 -0.37830567 -0.016009621
7.486384e-39 7.394253e-39 -1.0678036e-38 3.181462e-39 1.2327116e-38 3.2286e-39 -0.17890145 0.07117214
0.120488584 0.33443722 9.506201e-39 -1.251443e-38 -9.34388e-39 -0.8165917 -0.11558989 -0.39306462
0.7641762 0.20978582 -0.011993725 -1.0292834e-38 -1.634863e-39 0.041150924 0.056649037 -0.1694369
-0.23855603 0.041514106 6.418562e-39 -0.54006016 -0.9450527 0.7287578 -0.16681899 1.3973774
-0.38603622 0.52588785 0.4554966 -1.4199062e-38 -0.1113741 0.5526342 1.583442 7.97988e-39
-1.1464459e-38 1.129524e-38 -9.381382e-39 1.1157094e-38 1.1014349e-38 1.0582206 1.0505097e-38 -1.2699131e-38
-6.924717e-39 4.982682e-39 -4.43672e-39 -1.0066142e-38 -1.2752938e-38 1.0172293e-38 -5.10599e-39 5.833855e-39
-3.777231e-39 1.1534651e-38 -4.048783e-39 -1.3976676e-38 7.171934e-39 3.878564e-39 -4.477207e-39 1.1821078e-38
4.436165e-39 3.567349e-39 1.2226766e-38 -2.675805e-39 -9.433948e-39 -1.3701744e-38 -9.560975e-39 1.07157e-38
-1.1359718e-38 -6.171457e-39 -0.012378522 0.02708478 -0.3764844 0.57290334 8.1527e-40 -1.3257758e-38
-8.818262e-39 3.052981e-39 2.135736e-39 -1.1887194e-38 -0.051902346 0.1966688 -0.04490364 0.16273616
9.261598e-39 9.565272e-39 -4.093683e-39 0.37662208 0.05105473 -0.857896 -0.14264952 0.043537747
0.10717109 1.2222969e-38 -3.431835e-39 0.060339667 -0.057368953 0.20291427 0.03458824 0.08777866
-1.11718e-39 0.25425693 -0.28645402 0.9037478 0.023209097 -1.2670846 -0.31133178 -0.04524721
0.47581315 1.317503e-38 0.15035424 0.3026556 -0.01568208 8.232229e-39 4.529802e-39 -1.2728917e-38
1.4389938e-38 -1.186223e-38 6.063536e-39 0.5217186 -1.0397848e-38 -8.294057e-39 1.766428e-39 -5.28467e-39
1.719483e-39 9.448321e-39 -2.681735e-39 -9.249598e-39 -3.284272e-39 1.5432601e-38 -8.255254e-39 -2.452321e-39
1.366117e-38 1.1179626e-38 1.1690862e-38 8.568593e-39 -8.723157e-39 1.2252242e-38 7.126673e-39 -1.2905213e-38
7.56809e-39 -8.864831e-39 1.2690312e-38 9.833316e-39 9.656643e-39 -9.135967e-39 -1.533302e-38 -5.705317e-39
0.01847641 0.21637276 -0.03972055 -0.10826199 2.501587e-39 -7.281075e-39 -9.934389e-39 -1.4403417e-38
4.653428e-39 3.496548e-39 0.25470454 -0.2847064 -0.11095484 0.37072486 -1.0441878e-38 -6.449887e-39
9.468592e-39 0.39548677 -0.33341315 -0.22869697 1.3351711 -0.1450384 -0.119096614 8.174078e-39
6.284129e-39 -0.30254996 0.039899684 -0.05568731 -0.25620654 0.4897748 -1.1624166e-38 0.29965615
-1.0405686 1.0437657 0.050374452 1.6607722 0.26471975 -1.2955633 -0.71420276 -1.3449056e-38
2.0791624 -1.4695811 -1.2604169 -9.115913e-39 4.218961e-39 -6.330356e-39 -9.115309e-39 8.075111e-39
-9.278625e-39 -0.15995193 9.363559e-39 -8.10291e-39 1.1354267e-38 5.001873e-39 -5.5625e-40 -1.0140367e-38
00000000: d259 153e 2cc3 c4bf 0e0f e9be 8126 2cbe
00000010: 3630 d5bf 0005 6300 1dcd 19bf 357d 9a3f
00000020: 6678 573f 6d58 2500 8b5a 1200 502a 1c00
00000030: 0b20 9480 39d5 3a00 1b70 1300 f2f5 3c3f
00000040: ff88 8200 8ece 9980 1018 4100 1ade 7100
00000050: f29c 0480 7bd5 3000 ab7f 6b80 9acd 8580
00000060: b164 3b80 fbb6 3e00 3ae9 8c80 e861 6280
00000070: 9e98 7a80 2912 6e80 47a1 3b80 ab92 5a00
00000080: 6431 6d80 1df0 2980 8705 8b00 b66a 8100
00000090: 7ffe 5500 bb2f 4a80 dac6 4a80 36ad 5e80
000000a0: 860c 5600 c5b2 1f80 3fda 7d00 d62b 8400
000000b0: 7198 743d f44a 163e 48b1 c1be 9c26 83bc
000000c0: fe84 5100 2b84 5000 0546 7480 9fa4 2200
000000d0: fc3a 8600 0628 2300 f131 37be b3c2 913d
000000e0: b8c2 f63d 5b3b ab3e 6c83 6700 2445 8880
000000f0: f0be 6580 270c 51bf 64ba ecbd c43f c9be
00000100: 0da1 433f 18d2 563e 5481 44bc 3c14 7080
00000110: 55cd 1180 df8d 283d d208 683d de80 2dbe
00000120: 0848 74be b20a 2a3d 57e4 4500 6241 0abf
00000130: f9ee 71bf df8f 3a3f 99d2 2abe 43dd b23f
00000140: 8aa6 c5be 96a0 063f da36 e93e 359d 9a80
00000150: 1b18 e4bd 6f79 0d3f 3aae ca3f a9e4 5600
00000160: 3fd6 7c80 89fe 7a00 7a27 6680 707d 7900
00000170: 86ef 7700 c673 873f f063 7200 0348 8a80
00000180: 4b67 4b80 b141 3600 c54f 3080 4f9c 6d80
00000190: 01de 8a80 37c4 6e00 6c99 3780 6a86 3f00
000001a0: 6221 2980 ea99 7d00 5c16 2c80 4931 9880
000001b0: 6f18 4e00 dc3b 2a00 a2c0 3080 5bb8 8000
000001c0: 394e 3000 51d8 2600 4023 8500 0e23 1d80
000001d0: 02ba 6680 e332 9580 1c1c 6880 03af 7400
000001e0: 46b2 7b80 8333 4380 49cf 4abc e7e0 dd3c
000001f0: 90c2 c0be cba9 123f a4e0 0800 3c5d 9080
00000200: ba05 6080 783e 2100 9041 1700 a970 8180
00000210: 8e97 54bd 8c63 493e e1ec 37bd 4fa4 263e
00000220: 91d9 6400 1628 6800 8693 2c80 9cd4 c03e
00000230: c41e 513d 129f 5bbf b712 12be a354 323d
00000240: 847c db3d aa18 8500 8f5e 2580 ba26 773d
00000250: b5fb 6abd c2c8 4f3e 66ac 0d3d 4cc5 b33d
00000260: 3e2a 0c80 f72d 823e 1aaa 92be 045c 673f
00000270: 0121 be3c d42f a2bf e166 9fbe 2355 39bd
00000280: c89d f33e a076 8f00 76f6 193e adf5 9a3e
00000290: b577 80bc 1ba4 5900 3f53 3100 0b9b 8a80
000002a0: 4bb1 9c00 122b 8180 ac06 4200 5a8f 053f
000002b0: f838 7180 7550 5a80 153c 1300 838b 3980
000002c0: 38b9 1200 13e2 6600 9633 1d80 1eb8 6480
000002d0: 37c3 2380 d00b a800 4ae4 5980 13b4 1a80
000002e0: c9c1 9400 40bc 7900 5e4d 7f00 c04d 5d00
000002f0: 9dfc 5e80 446a 8500 449a 4d00 7c86 8c80
00000300: c168 5200 8b87 6080 6d2f 8a00 4913 6b00
00000310: cb26 6900 5c7b 6380 39f6 a680 1a20 3e80
00000320: d75b 973c d290 5d3e 04b2 22bd 76b8 ddbd
00000330: 683d 1b00 ad48 4f80 092d 6c80 ded6 9c80
00000340: ddab 3200 f412 2600 a268 823e 0ac5 91be
00000350: 4b3c e3bd a6cf bd3e b5b3 7180 a93b 4680
00000360: 951a 6700 3e7d ca3e 21b5 aabe 8a2f 6abe
00000370: e3e6 aa3f f284 14be ede8 f3bd 0102 5900
00000380: 986d 4400 d4e7 9abe da6d 233d 6018 64bd
00000390: 812d 83be c3c3 fa3e 7293 7e80 886c 993e
000003a0: 5a31 85bf 1d9a 853f 7155 4e3d 2f94 d43f
000003b0: 5989 873e 05d5 a5bf fed5 36bf 7f72 9280
000003c0: ff10 0540 3c1b bcbf 5755 a1bf 7543 6380
000003d0: bff0 2d00 75ee 4480 c641 6380 20ee 5700
000003e0: 0809 6580 70ca 23be cbf5 6500 9e3b 5880
000003f0: 14a3 7b00 3077 3600 990e 0680 386b 6e80

gnn.gnn_layers.1.bias f4 [128]
-0.17675707 -0.11839526 -0.12389093 0.14272518 0.1354615 0.109729156 -0.27688843 -0.56284606
-0.38856226 0.15835562 -0.14592087 -0.4369464 -0.18628122 -0.06479996 0.16716637 -0.8054544
-0.034694985 -0.07994312 -0.056323577 -0.84571296 -0.30395007 0.08594857 -0.5808141 -0.052686837
-0.22869894 -1.2031745 -0.03089018 0.33318818 -0.22643659 -0.048756175 0.030123616 -0.6415288
0.19680962 -0.099860445 -0.13375546 0.11980292 0.4003954 -0.066955365 -0.059023704 -0.14785735
-0.48728934 0.0053854613 -0.83020014 -0.24068414 -0.6002542 -0.2924959 -0.13320713 -0.2816956
0.04938331 -0.31136057 0.2566315 -0.117744036 -0.16616853 0.07703832 0.3547662 -0.07626119
0.07878766 0.3369484 -0.070513785 -0.37412262 -0.085601754 -0.5789106 -0.28427675 -0.5540033
0.3003225 -0.09374053 -0.01999583 0.014058934 -0.098393224 -0.4964225 -0.24422152 0.13705726
-0.093183465 -0.10510347 -0.1673897 -0.6530467 0.16090876 -0.6251785 0.12593357 -0.06882013
-0.08945283 -0.17683354 -0.27518472 -1.1724719 0.2029743 0.20765872 -0.03838297 -0.02289873
0.33955845 -0.20277368 0.28327796 -0.16592795 -0.050539687 0.12462004 -0.3344269 0.12618189
0.0068376865 -0.6230752 -0.09339275 0.23339052 0.09636557 -0.031193897 -0.78829193 -0.08037245
-0.1240572 -0.38269523 0.27668056 0.060006734 -0.052186824 0.1803389 0.19954619 0.2021262
0.006692826 -0.27333674 0.24078897 -0.023118459 -0.21641128 0.0742223 -0.15687668 -0.11931215
0.14161502 0.08064369 0.029332364 0.18399984 0.11942268 0.07042864 0.063746296 0.2671004
00000000: ceff 34be 3779 f2bd 87ba fdbd 8d26 123e
00000010: 6bb6 0a3e aeb9 e03d 52c4 8dbe ae16 10bf
00000020: a2f1 c6be fa27 223e 486c 15be 70b7 dfbe
00000030: 81c0 3ebe d7b5 84bd a92d 2b3e 4232 4ebf
00000040: 541c 0ebd 38b9 a3bd 8db3 66bd a580 58bf
00000050: 589f 9bbe ce05 b03d 3cb0 14bf 27ce 57bd
00000060: 0e30 6abe 9f01 9abf 670d fdbc a497 aa3e
00000070: fede 67be 8eb4 47bd cdc5 f63c 3b3b 24bf
00000080: 7688 493e a283 ccbd 31f7 08be 3c5b f53d
00000090: a000 cd3e e51f 89bd d7c2 71bd eb67 17be
000000a0: fd7d f9be 8678 b03b ff87 54bf e775 76be
000000b0: 42aa 19bf 06c2 95be 7367 08be 683a 90be
000000c0: 2746 4a3d a76a 9fbe 3465 833e c923 f1bd
000000d0: 1528 2abe 44c6 9d3d eaa3 b53e d42e 9cbd
000000e0: 6d5b a13d 8084 ac3e 8869 90bd 008d bfbe
000000f0: f94f afbd 7c33 14bf b98c 91be 29d3 0dbf
00000100: dfc3 993e 09fb bfbd 4bce a3bc 7157 663c
00000110: 6382 c9bd 172b febe 3515 7abe bd58 0c3e
00000120: f9d6 bebd 7d40 d7bd 3568 2bbe 122e 27bf
00000130: 44c5 243e b30b 20bf bbf4 003e 91f1 8cbd
00000140: 0c33 b7bd da13 35be 03e5 8cbe 8f13 96bf
00000150: 7fd8 4f3e 7da4 543e 7637 1dbd 1e96 bbbc
00000160: 9bda ad3e e7a3 4fbe cf09 913e 04e9 29be
00000170: b402 4fbd cb38 ff3d 013a abbe d335 013e
00000180: ac0e e03b db81 1fbf b344 bfbd edfd 6e3e
00000190: 505b c53d 588a ffbc 80cd 49bf 509a a4bd
000001a0: b411 febd a1f0 c3be 13a9 8d3e 9fc9 753d
000001b0: dac1 55bd c3aa 383e d655 4c3e 2cfa 4e3e
000001c0: 7e4f db3b cbf2 8bbe 6291 763e ec62 bdbc
000001d0: eb9a 5dbe dc01 983d 48a4 20be ee59 f4bd
000001e0: 8703 113e 8528 a53d 6d4a f03c 746a 3c3e
000001f0: e193 f43d e43c 903d 6b8d 823d 62c1 883e

gnn.gnn_layers.1.fc_neigh.weight f4 [128, 128]
0.09450074 -0.20075914 0.40428504 -0.44904703 0.4271361 0.2726585 0.27050385 -0.1269575
-0.16468148 -0.037701346 -0.027264016 -0.4271596 0.10560397 0.034584194 -0.0074868654 0.104143806
0.038346887 0.057377886 -0.39609748 -0.12894142 0.18144763 -0.017630812 0.195823 0.08021855
0.513565 0.017502697 -0.017469155 -0.34750837 -0.37274635 -0.4257867 0.26935378 -0.1884073
-0.10192676 -0.04284342 0.10477138 -0.2243581 -0.22753653 -0.009822365 0.36742005 0.31124243
-0.03741238 -0.19890624 0.3099476 -0.08809559 -0.6147726 -0.028942825 -0.06110483 -0.29014257
0.20784101 0.068606175 0.04178897 -0.29193074 -0.28047058 -0.18326238 0.051156964 -0.68152106
0.5511586 -0.16225532 -0.014255667 -0.26606378 -0.31263566 0.14144413 0.14995304 -0.15943676
-0.3448041 0.22457892 0.21237561 0.00684285 0.31749973 0.13640858 0.53428316 -0.31311032
-0.18804514 -0.015162705 0.12582792 -0.27000904 0.52040935 -0.030219274 0.34636116 0.3636225
-0.05078141 -0.0055945124 -0.007498381 -0.2527406 -0.007610204 0.22107507 0.2585568 0.0779635
-0.26911256 -0.0021131323 -0.1828123 0.053610295 0.019304529 -0.5199591 -0.06710988 0.12603207
-0.071382664 -0.13830206 0.13528642 -0.028526679 0.009503762 0.38504955 0.08343054 0.11694396
0.35469234 0.039991178 -0.46417195 0.94571966 -0.09598613 0.074739166 0.039368004 0.13227956
0.17458247 0.044221677 -0.093125835 0.2253075 -0.036399677 -0.0380148 0.094185114 -0.07726641
0.23424277 0.04045918 -0.46299624 -0.27393007 -0.09622395 0.0039516017 -0.47769392 0.19802992
0.08660854 0.16156529 0.16426913 0.010197678 0.011961982 -0.046202675 -0.5253371 -0.14270131
-0.19077873 0.011184077 -0.1654455 -0.09796734 0.11830718 -0.5745854 0.3407395 0.1146632
-0.07603506 0.030941708 -0.094699375 0.039721735 -0.22400823 -0.36674327 0.09906927 0.22159263
-0.1676916 0.18731943 0.2753428 0.2029462 -0.009842274 -0.086755015 -0.025577407 -0.35916254
-0.049536824 0.18033566 -0.25149766 -0.18277083 0.050494604 0.25848952 0.063844584 0.17632455
0.060806833 -0.014766585 0.34068286 0.1914251 -0.19506843 -0.19202499 -0.048003063 0.122675166
0.36803472 0.20927069 0.001376962 0.07124135 -0.42268354 -0.15901107 0.39574224 0.12731567
0.009860151 -0.25838864 -0.07968823 -0.266252 -0.029381592 -0.2454942 -0.2904474 -0.18125054
-0.19223088 0.018117856 -0.29676333 -0.20593101 0.087910704 0.4681265 -0.052810907 -0.37609258
-0.2909782 -0.101551495 -0.3205289 0.030549314 -0.024161637 -0.06635816 0.34209514 -0.11934444
-0.09689054 -0.2105613 0.08048664 -0.0129499165 -0.07465843 -0.018251011 0.07605044 -0.23766954
0.2722964 0.13934474 -0.18081738 -0.19135687 -0.2623714 0.48202193 -0.045171432 -0.15333831
0.0819513 -0.33508253 -0.1407349 0.0031618879 -0.14139819 0.18460932 -0.63551927 -0.13384287
0.38533616 -0.30758774 -0.11334159 0.19641437 0.2222574 -0.23770244 0.31849992 -0.48443195
-0.017960595 0.2685833 0.19025582 0.1834246 0.07160864 0.04578992 -0.049529415 -0.11459258
0.0443813 -0.28188697 -0.35112688 0.17643273 -0.38432875 0.25669843 -0.37004066 0.09393281
00000000: 9b89 c13d ce93 4dbe 73fe ce3e 7ee9 e5be
00000010: 95b1 da3e e599 8b3e 7b7f 8a3e 2601 02be
00000020: 43a2 28be ba6c 1abd c958 dfbc aab4 dabe
00000030: e546 d83d 28a8 0d3d 6154 f5bb 5949 d53d
00000040: a011 1d3d 1305 6b3d 4acd cabe 3809 04be
00000050: 68cd 393e 7e6e 90bc d385 483e a049 a43d
00000060: ff78 033f d161 8f3c 791b 8fbc 9eec b1be
00000070: 9cd8 bebe b700 dabe bde8 893e d8ed 40be
00000080: fabe d0bd 957c 2fbd 6192 d63d 21be 65be
00000090: 56ff 68be fced 20bc 7b1e bc3e 2b5b 9f3e
000000a0: b93d 19bd 14ae 4bbe 74b1 9e3e 766b b4bd
000000b0: bd61 1dbf 8119 edbc 0f49 7abd 918d 94be
000000c0: 46d4 543e 6581 8c3d e92a 2b3d f277 95be
000000d0: d799 8fbe 22a9 3bbe f789 513d 2a78 2ebf
000000e0: bb18 0d3f 4226 26be 9a90 69bc 8339 88be
000000f0: c811 a0be bbd6 103e 4a8d 193e 6443 23be
00000100: 2a8a b0be 04f8 653e fe78 593e fc39 e03b
00000110: 538f a23e b1ae 0b3e c8c6 083f ff4f a0be
00000120: e88e 40be ff6c 78bc 09d9 003e a03e 8abe
00000130: 8c39 053f 698e f7bc 4056 b13e ba2c ba3e
00000140: 2b00 50bd 2c52 b7bb fbb4 f5bb 3767 81be
00000150: 055f f9bb 8161 623e 8f61 843e 54ab 9f3d
00000160: 1fc9 89be 7a7c 0abb 2633 3bbe 7896 5b3d
00000170: 8824 9e3c 0a1c 05bf e870 89bd 8d0e 013e
00000180: 1331 92bd 0e9f 0dbe 8688 0a3e c8b0 e9bc
00000190: abb5 1b3c 3725 c53e a2dd aa3d 5180 ef3d
000001a0: 3c9a b53e cacd 233d f2a7 edbe af1a 723f
000001b0: 6094 c4bd d910 993d 5840 213d 4b74 073e
000001c0: bfc5 323e ca21 353d c2b8 bebd 02b7 663e
000001d0: d417 15bd 68b5 1bbd 20e4 c03d da3d 9ebd
000001e0: 56dd 6f3e 86b8 253d d80d edbe 9040 8cbe
000001f0: 1011 c5bd 707c 813b 4c94 f4be 5bc8 4a3e
00000200: d15f b13d 5f71 253e 2b36 283e 2914 273c
00000210: 30fc 433c 043f 3dbd 7e7c 06bf 4b20 12be
00000220: 805b 43be 6b3d 373c 8c6a 29be 1aa3 c8bd
00000230: 094b f23d 0718 13bf 6875 ae3e 8ad4 ea3d
00000240: 45b8 9bbd 7779 fd3c bff1 c1bd 42b3 223d
00000250: 6a62 65be c6c5 bbbe d4e4 ca3d 2ee9 623e
00000260: 59b7 2bbe aad0 3f3e bbf9 8c3e 21d1 4f3e
00000270: 7d41 21bc 9dac b1bd b687 d1bc 27e4 b7be
00000280: 20e7 4abd e9a9 383e 4dc4 80be 4728 3bbe
00000290: 6ed3 4e3d bd58 843e f3c0 823d 6c8e 343e
000002a0: 9610 793d 8cef 71bc fc6d ae3e f104 443e
000002b0: 05c0 47be 33a2 44be dc9e 44bd 1e3d fb3d
000002c0: 0c6f bc3e 0e4b 563e 2e7b b43a fce6 913d
000002d0: fa69 d8be ccd3 22be ba9e ca3e 0a5f 023e
000002e0: 798c 213c 844b 84be 9533 a3bd 2f52 88be
000002f0: aab1 f0bc d562 7bbe 86b5 94be be99 39be
00000300: 2cd8 44be e66b 943c 5df1 97be 94df 52be
00000310: 870a b43d 47ae ef3e 4050 58bd 358f c0be
00000320: 18fb 94be 3bfa cfbd 5d1c a4be 8e42 fa3c
00000330: a0ee c5bc c9e6 87bd 1827 af3e dc6a f4bd
00000340: 8c6e c6bd 629d 57be 2ed6 a43d e32b 54bc
00000350: 85e6 98bd 2583 95bc 55c0 9b3d a55f 73be
00000360: 6f6a 8b3e 63b0 0e3e 3128 39be 0ef3 43be
00000370: 8b55 86be 94cb f63e ae05 39bd b804 1dbe
00000380: 15d6 a73d f08f abbe cf1c 10be ad37 4f3b
00000390: b0ca 10be 3a0a 3d3e 64b1 22bf 1b0e 09be
000003a0: c84a c53e 247c 9dbe a31f e8bd d920 493e
000003b0: 7297 633e 4568 73be 6c12 a33e 7707 f8be
000003c0: 1922 93bc c083 893e 6cd2 423e a9d3 3b3e
000003d0: 8da7 923d 368e 3b3d 5bdf 4abd 84af eabd
000003e0: 2bc9 353d 7d53 90be e7c6 b3be c8aa 343e
000003f0: bdc6 c4be fa6d 833e f875 bdbe d85f c03d

readout.weight_and_sum.atom_weighting.0.weight f4 [1, 128]
0.0100776525 0.039589897 -0.05175388 0.04147927 0.050694972 0.10073528 -0.07223978 0.026137363
0.010367845 0.042014286 -0.011807322 0.0005171883 0.0037474555 -0.063786685 0.034292642 -0.10025474
-0.003497286 -0.026666889 -0.02070927 -0.06897159 -0.04740052 0.02569575 -0.093992405 -0.0013893843
0.047999404 -0.111814685 0.03944063 0.30819306 -0.038827784 -0.03743156 0.049118705 -0.05918107
0.046090577 0.059406407 0.01653606 0.08441175 0.036176793 -0.041656587 0.0154904565 0.007141453
0.023745406 0.03214367 -0.09636278 -0.00058533024 -0.055377077 -0.074791335 0.025441026 0.0031401808
0.008931422 0.02854223 0.009154197 -0.02071265 -0.10214089 -0.057059586 0.014960562 -0.0415629
-0.011154421 0.07056959 0.01432781 -0.02350536 0.04380968 -0.05303566 -0.13116951 0.0063880603
0.09318461 -0.0047518658 0.0033046054 -0.03124603 0.016270688 0.001668692 -0.03999626 0.09044714
-0.06403744 -0.059515703 0.011978233 -0.061637443 0.07185763 0.014941403 0.04900719 0.017665226
0.023759475 0.010710858 -0.032877374 -0.10201827 -0.007211911 0.07140553 0.03626817 -0.028542414
-0.005072075 -0.101012334 0.03424146 -0.023790756 0.059312887 0.079567 0.018566674 -0.028964346
-0.020356847 -0.047458705 0.028620008 0.038044546 0.0015171192 -0.011254323 -0.10402883 0.016410405
0.037016988 -0.12990266 0.07029451 -0.011912127 0.023373926 0.030921176 -0.034812573 0.015726672
-0.013511965 -0.007714619 0.017214106 -0.059797924 -0.008981495 -0.035423916 0.0005269862 0.0026378336
0.030096972 0.03257332 0.018550588 -0.055224523 0.06436609 -0.0114969425 -0.022206053 0.056085564
00000000: bd1c 253c 0429 223d e0fb 53bd 2be6 293d
00000010: 88a5 4f3d 4c4e ce3d 73f2 93bd 061e d63c
00000020: e5dd 293c 2c17 2c3d 7f73 41bc eb93 073a
00000030: df97 753b 98a2 82bd 7176 0c3d 5b52 cdbd
00000040: b932 65bb 8574 dabc 7da6 a9bc fa40 8dbd
00000050: 0c27 42bd e57f d23c 177f c0bd 001c b6ba
00000060: 069b 443d 19ff e4bd 7f8c 213d 7bcb 9d3e
00000070: e209 1fbd d651 19bd b230 493d da67 72bd
00000080: 79c9 3c3d 2254 733d a276 873c 11e0 ac3d
00000090: 1e2e 143d 19a0 2abd afcb 7d3c da02 ea3b
000000a0: ba85 c23c 15a9 033d d959 c5bd d970 19ba
000000b0: 13d3 62bd 332c 99bd b369 d03c 7ecb 4d3b
000000c0: 1955 123c 65d1 e93c 7cfb 153c 93ad a9bc
000000d0: 3e2f d1bd 50b7 69bd 251d 753c dc3d 2abd
000000e0: 08c1 36bc ca86 903d 31bf 6a3c 508e c0bc
000000f0: c771 333d ec3b 59bd 4d51 06be ef52 d13b
00000100: 93d7 be3d 8ab5 9bbb 1492 583b adf7 ffbc
00000110: 1b4a 853c 03b8 da3a 1ed3 23bd 5a3c b93d
00000120: 1026 83bd bdc6 73bd 5a40 443c 8b77 7cbd
00000130: 182a 933d c9cc 743c c3bb 483d aab6 903c
00000140: 3ba3 c23c 987c 2f3c 6daa 06bd f4ee d0bd
00000150: e551 ecbb 103d 923d ef8d 143d c8d1 e9bc
00000160: a633 a6bb 8edf cebd c640 0c3d d5e4 c2bc
00000170: 12f2 723d 06f4 a23d 2319 983c a346 edbc
00000180: 67c3 a6bc 0f64 42bd 8274 ea3c 99d4 1b3d
00000190: 13da c63a 0d64 38bc 110d d5bd 1d6f 863c
000001a0: 209f 173d 3405 05be 91f6 8f3d 152b 43bc
000001b0: ad7a bf3c 684e fd3c a197 0ebd 39d5 803c
000001c0: 4a61 5dbc eaca fcbb 9904 8d3c abee 74bd
000001d0: 1f27 13bc ab18 11bd 7225 0a3a 81df 2c3b
000001e0: ed8d f63c 9a6b 053d 67f7 973c 1c33 62bd
000001f0: 5ed2 833d ac5d 3cbc 78e9 b5bc fab9 653d

predict.predict.1.weight f4 [128, 256]
-0.15595748 -0.020206505 -0.120180786 -0.14112152 -0.1900071 -0.20079142 0.24817535 -0.14992796
0.08260491 0.09396408 0.057532396 0.26105022 0.048731707 0.13137998 0.15604647 0.36958006
-0.026955985 0.1290584 0.14301479 0.04804208 0.021443212 0.050098285 0.15516281 -0.035495635
-0.33567005 0.376723 -0.1547648 -0.24956816 -0.07490772 -0.03722588 -0.13805866 0.3041542
0.052635174 0.29654208 -0.120594814 -0.0499126 0.06819488 0.1262267 -0.2388603 0.15570992
0.14099258 -0.12587805 0.30408344 -0.106726155 0.062445406 -0.035880927 -0.29076374 0.3621465
-0.13087529 -0.07636435 -0.0074801124 -0.06717223 0.24082482 -0.020291334 -0.048061006 0.12263861
-0.075527646 -0.13026112 -0.08513163 -0.07266091 0.008877743 0.038794253 0.10480986 0.07837935
-0.07744464 0.13110189 -0.21362802 -0.024306247 -0.35582006 -0.36660722 -0.3417217 0.038715918
-0.044044655 -0.15800318 -0.00079638365 0.034017194 -0.14980039 0.01998691 0.06849135 0.035540942
-0.053285208 0.06262029 -0.032623984 0.14787352 -0.060622443 -0.14234397 -0.2314052 -0.29336494
-0.11969315 -0.09535697 0.2657893 0.00059814955 -0.3002044 -0.010078255 0.39111194 0.120527305
-0.016586054 0.1147789 0.17386925 0.03839754 -0.080743834 0.09687201 0.15939967 0.17350698
0.020400748 0.2536275 -0.062090695 0.03320465 -0.15934938 0.19652142 -0.025335893 0.21541971
0.27134886 0.14784463 0.20060165 -0.0889747 -0.030212522 -0.37999442 -0.026719075 0.023600698
0.012943458 0.1593569 0.30723312 0.034666207 0.04319789 0.1674559 0.029863978 0.037726395
-0.25097233 -0.123062104 -0.33877078 -0.45041138 -0.099060826 0.09463135 -0.26625022 -0.07797396
-0.02463863 -0.090081416 -0.20121145 0.05073442 -0.23068304 -0.5077601 -0.34671184 -0.13038231
-0.09215496 -0.47431186 -0.14234354 -0.13630049 -0.3424755 -0.20332767 -0.3134159 -0.48061925
-0.23966983 0.05611694 -0.14414155 -0.20973054 -0.041689567 -0.3230158 -0.16463812 -0.13792978
-0.020086583 -0.306454 -0.23652245 -0.30607998 -0.46985716 -0.17920232 -0.17063998 -0.37985083
-0.12722236 -0.06279151 0.28463215 -0.26515397 -0.13697979 -0.24667835 -0.4493763 -0.17119454
-0.2764584 -0.019393928 -0.21777709 -0.17658912 -0.15633522 -0.008596379 -0.23439258 -0.1925842
-0.2971066 -0.022674086 -0.15571958 -0.097325385 -0.1891767 -0.56008863 -0.3826045 -0.2016084
-0.0020623787 -0.26129517 -0.27597508 -0.20964007 -0.1758155 -0.2835509 -0.15258934 -0.24632934
-0.41564462 -0.27115017 -0.21872412 -0.17270699 -0.11546336 -0.18425451 -0.10372036 -0.34440842
-0.38400018 -0.10432576 -0.1238534 0.24898784 -0.30974758 -0.182052 -0.3050737 -0.41337618
-0.023020437 -0.24994722 -0.25541288 -0.58994865 -0.36179197 -0.19457498 0.10417686 -0.099007204
-0.4702011 -0.4068443 -0.34094125 -0.23715572 -0.16874264 -0.21947308 -0.24110977 -0.10621728
-0.5381671 -0.15658924 -0.15358415 0.031515945 -0.27026048 0.037524793 -0.42964596 -0.0825151
-0.22097422 -0.24124008 -0.2881369 -0.4503716 -0.070138104 -0.29767728 -0.12781692 -0.25948143
0.02230749 -0.24406914 -0.08324122 -0.5005641 -0.19403985 -0.080306746 -0.16612674 -0.4050053
00000000: 51b3 1fbe 1d88 a5bc 5821 f6bd 2982 10be
00000010: 3991 42be 449c 4dbe ae21 7e3e b786 19be
00000020: c32c a93d 3d70 c03d 17a7 6b3d 60a8 853e
00000030: e69a 473d 7988 063e a5ca 1f3e 9939 bd3e
00000040: ccd2 dcbc e327 043e 7872 123e c6c7 443d
00000050: ada9 af3c dc33 4d3d 00e3 1e3e df63 11bd
00000060: f2dc abbe d6e1 c03e aa7a 1ebe cc8e 7fbe
00000070: 3869 99bd 2a7a 18bd 405f 0dbe 19ba 9b3e
00000080: fb97 573d 5dd4 973e 6afa f6bd 2871 4cbd
00000090: c2a9 8b3d 9241 013e cb97 74be 6c72 1f3e
000000a0: 5c60 103e 2de6 00be d3b0 9b3e 3e93 dabd
000000b0: c1c6 7f3d e1f7 12bd fcde 94be 446b b93e
000000c0: 2c04 06be ea64 9cbd bb1b f5bb 9891 89bd
000000d0: c89a 763e 033a a6bc 9edb 44bd f429 fb3d
000000e0: 3dae 9abd 2c63 05be 7e59 aebd 3ecf 94bd
000000f0: f473 113c b9e6 1e3d 8da6 d63d 5a85 a03d
00000100: 4c9b 9ebd 933f 063e 4ec1 5abe e51d c7bc
00000110: 0c2e b6be f1b3 bbbe 26f6 aebe 9594 1e3d
00000120: 2b68 34bd 96cb 21be 67c4 50ba 9d55 0b3d
00000130: 4665 19be 97bb a33c 3145 8c3d 6193 113d
00000140: 9741 5abd 113f 803d baa0 05bd 286c 173e
00000150: 3d4f 78bd 9ec2 11be 7cf5 6cbe ee33 96be
00000160: af21 f5bd 844a c3bd 8915 883e 23cd 1c3a
00000170: 64b4 99be 441f 25bc d33f c83e 05d7 f63d
00000180: 7adf 87bc 3311 eb3d c80a 323e bd46 1d3d
00000190: 065d a5bd d564 c63d ab39 233e d0ab 313e
000001a0: 781f a73c 77db 813e d052 7ebd 9901 083d
000001b0: 7c2c 23be e93c 493e 388d cfbc fc96 5c3e
000001c0: 3dee 8a3e 9564 173e 856a 4d3e 5e38 b6bd
000001d0: 4080 f7bc a18e c2be f6e1 dabc 4056 c13c
000001e0: cc10 543c 752e 233e a94d 9d3e 27fe 0d3d
000001f0: 45f0 303d 8f79 2b3e 4da5 f43c fe86 1a3d
00000200: 727f 80be fc07 fcbd 5d73 adbe 529c e6be
00000210: 67e0 cabd 15ce c13d f351 88be d0b0 9fbd
00000220: f4d6 c9bc 9b7c b8bd 600a 4ebe e5ce 4f3d
00000230: 2d38 6cbe 91fc 01bf 3784 b1be f182 05be
00000240: bdbb bcbd 01d9 f2be 81c2 11be 5b92 0bbe
00000250: f358 afbe 2135 50be 0d78 a0be ba13 f6be
00000260: 026c 75be e0da 653d d899 13be 9ac3 56be
00000270: aec2 2abd 5462 a5be e596 28be 773d 0dbe
00000280: 9e8c a4bc 8ae7 9cbe f132 72be 84b6 9cbe
00000290: 1e91 f0be d080 37be 3fbc 2ebe cf7b c2be
000002a0: 9446 02be d698 80bd 4ebb 913e 43c2 87be
000002b0: 6e44 0cbe 4099 7cbe a714 e6be 9f4d 2fbe
000002c0: f58b 8dbe 04e0 9ebc f500 5fbe c7d3 34be
000002d0: 5716 20be d4d7 0cbc 9c04 70be cb34 45be
000002e0: 5b1e 98be 01bf b9bc f474 1fbe 8852 c7bd
000002f0: 89b7 41be f861 0fbf bde4 c3be 6f72 4ebe
00000300: f928 07bb 7bc8 85be 9b4c 8dbe e3ab 56be
00000310: fa08 34be 952d 91be 6140 1cbe c23d 7cbe
00000320: 5fcf d4be 32d4 8abe 37f9 5fbe 1ada 30be
00000330: 0e78 ecbd 37ad 3cbe 576b d4bd 4d56 b0be
00000340: ac9b c4be bea8 d5bd daa6 fdbd abf6 7e3e
00000350: 3c97 9ebe d76b 3abe 9f32 9cbe 0ba6 d3be
00000360: 5b95 bcbc 2af2 7fbe 7ac5 82be e006 17bf
00000370: cc3c b9be aa3e 47be ad5a d53d 4ac4 cabd
00000380: 33be f0be e54d d0be da8f aebe f3d8 72be
00000390: dfca 2cbe 8dbd 60be 7be5 76be 7288 d9bd
000003a0: 52c5 09bf ee58 20be 2a45 1dbe dd16 013d
000003b0: 955f 8abe 99b3 193d 8efa dbbe adfd a8bd
000003c0: 1147 62be a407 77be ae86 93be 1b97 e6be
000003d0: 91a4 8fbd 2869 98be 70e2 02be c0da 84be
000003e0: 33be b63c 43ed 79be 5f7a aabd f824 00bf
000003f0: 62b2 46be dd77 a4bd 211d 2abe db5c cfbe

predict.predict.1.bias f4 [128]
-0.0712071 0.14068438 -0.26464397 -0.31351954 -0.07307591 -0.06401204 -0.07736876 -0.37458304
-0.29397509 -0.044753414 -0.40284985 -0.060432833 -0.19321428 0.1689692 0.060199548 -0.065546684
-0.60191345 0.17713642 -0.19604056 -0.001564963 -0.25655478 -0.06427933 -0.4687171 -0.07959625
-0.54634213 0.30435672 -0.3887303 -0.1469895 -0.53443587 -0.033423662 0.34023795 -0.08158296
0.13814084 -0.15904875 0.058263436 -0.06393433 -0.57807523 -0.27645868 -0.06723511 -0.4120351
-0.010222052 -0.45267853 -0.62664896 -0.010669772 -0.51743776 -0.2787186 -0.1339176 -0.04699112
0.3264175 -0.16911192 0.046579003 -0.48442763 -0.27991825 -0.22470845 -0.04040271 -0.07186805
-0.036056947 0.6505095 -0.06770098 -0.7972075 0.05223027 -0.07571688 -0.43552747 -0.22882295
0.060957685 -0.059758782 -0.33206412 -0.29240745 -0.10019031 -0.33730984 0.09067444 -0.049996372
0.056059476 0.4596962 -0.014797967 -0.15165164 -0.070075065 0.0015364611 -0.09379817 0.035485808
0.26919568 0.0059142914 0.20372444 -0.07505853 -0.01261139 0.1307629 -0.34092277 -0.12717961
-0.006429682 -0.01942775 -0.024099197 0.0921335 -0.0922955 0.36719656 0.13684155 -0.22293775
-0.113795444 -0.009801748 0.064046726 -0.1454585 0.025648972 0.13125345 0.37598783 -0.061783567
-0.58167785 -0.13039665 0.23063484 -0.14658089 -0.6077299 -0.026573995 0.26540664 -0.31329298
0.27788317 0.27385983 0.77981144 -0.31346968 0.23943105 -0.23065886 0.054914832 -0.18677042
-0.08966268 -0.547467 -0.25994867 -0.94796187 -0.268096 0.7980795 0.08231166 -0.31363434
00000000: 07d5 91bd 910f 103e 6a7f 87be a285 a0be
00000010: d3a8 95bd bf18 83bd 8373 9ebd 59c9 bfbe
00000020: e783 96be 5b4f 37bd 5642 cebe 6b88 77bd
00000030: f7d9 45be 4306 2d3e cd93 763d 573d 86bd
00000040: 0017 1abf 4063 353e dbbe 48be 721f cdba
00000050: 265b 83be e2a4 83bd b0fb efbe 5c03 a3bd
00000060: 14dd 0bbf a5d4 9b3e a807 c7be 6a84 16be
00000070: cad0 08bf 40e7 08bd ab33 ae3e f814 a7bd
00000080: cb74 0d3e addd 22be a4a5 6e3d 01f0 82bd
00000090: bdfc 13bf fe8b 8dbe 90b2 89bd 44f6 d2be
000000a0: 657a 27bc 7bc5 e7be 116c 20bf 44d0 2ebc
000000b0: cd76 04bf 34b4 8ebe b221 09be c379 40bd
000000c0: 3220 a73e ad2b 2dbe a0c9 3e3d e606 f8be
000000d0: 7251 8fbe f919 66be 507d 25bd 8e2f 93bd
000000e0: 73b0 13bd ca87 263f d0a6 8abd ca15 4cbf
000000f0: 68ef 553d 7411 9bbd 75fd debe 9050 6abe
00000100: c4ae 793d a0c5 74bd 4f04 aabe 6eb6 95be
00000110: 9430 cdbd e0b3 acbe 85b3 b93d ffc8 4cbd
00000120: 9f9e 653d 4d5d eb3e 2c73 72bc 914a 1bbe
00000130: 8483 8fbd 1463 c93a 4119 c0bd 9159 113d
00000140: 04d4 893e accc c13b 249d 503e 49b8 99bd
00000150: 01a0 4ebc b6e6 053e 6e8d aebe 5f3b 02be
00000160: 15b0 d2bb f226 9fbc ae6b c5bc 7db0 bc3d
00000170: 6c05 bdbd 3001 bc3e 3120 0c3e cb49 64be
00000180: 960d e9bd 8397 20bc ee2a 833d 13f3 14be
00000190: cb1d d23c 4e67 063e 7a81 c03e c410 7dbd
000001a0: d7e8 14bf b386 05be 8a2b 6c3e 4d19 16be
000001b0: 3094 1bbf b5b1 d9bc 61e3 873e f067 a0be
000001c0: b446 8e3e 5b37 8c3e b9a1 473f 197f a0be
000001d0: 6a2d 753e d631 6cbe 60ee 603d bf40 3fbe
000001e0: 11a1 b7bd cc26 0cbf fe17 85be a1ad 72bf
000001f0: e143 89be f04e 4c3f 0493 a83d ae94 a0be

predict.predict.3.weight f4 [128]
0.79679614 0.45167127 1.0145917 1.0755055 0.77853006 0.69290113 1.1903138 0.89077705
0.89822364 0.63870937 0.99256325 0.99150085 0.9418376 1.0463713 1.372849 0.92688715
1.0390911 0.23501778 1.2748388 0.7691401 0.8857195 0.60955703 1.0883664 0.2728429
1.3421962 1.0488504 1.3709717 0.25810263 1.7855476 0.8766842 0.00010206737 0.91846853
1.177967 0.36463615 0.7562519 0.46901226 1.2325257 0.66994005 0.77445316 1.2161822
0.71806425 1.2154698 1.5370389 0.038877595 0.80612165 0.07406788 1.1321745 0.19177662
1.1505855 0.9394775 1.9712777 1.1388575 1.2745779 1.3263181 0.66285723 1.0834023
0.8362169 0.25387344 0.74729854 1.4191719 1.2913581 0.6803695 1.5384331 0.8648934
0.4242925 0.49428627 1.0014222 1.2626834 0.56228846 1.421418 0.49485126 0.87986505
0.89294416 0.5040373 0.8015673 0.669143 0.7196998 0.2729927 1.0468861 0.6318758
0.6267565 0.6163309 0.3545218 0.7366136 1.2257936 0.5688394 1.0523431 0.89029187
0.20102184 0.90124327 0.02435733 1.4175395 0.13716342 0.590391 0.85384935 1.1138706
0.98319185 0.94754404 0.75419563 1.0775495 0.7570002 1.2051351 1.0422344 1.468019
1.0754163 1.2019396 0.77424306 0.72178173 1.2881254 0.74008405 0.36713356 0.94080853
0.7166937 0.77130413 0.13435698 1.0697159 0.78974426 0.9315651 1.3197228 0.8302363
1.0261718 1.1506745 0.87265784 1.248073 1.1767294 0.80122936 1.6470131 0.98147184
00000000: d5fa 4b3f 7541 e73e 24de 813f 2aaa 893f
00000010: bf4d 473f f861 313f 345c 983f f709 643f
00000020: fcf1 653f 7582 233f a018 7e3f 00d3 7d3f
00000030: 451c 713f 7fef 853f 84b9 af3f 7a48 6d3f
00000040: f000 853f 80a8 703e eb2d a33f 5ee6 443f
00000050: 83be 623f ee0b 1c3f 974f 8b3f 11b2 8b3e
00000060: 16cd ab3f bb40 863f 007c af3f 0726 843e
00000070: d38c e43f 606e 603f 010d d638 c120 6b3f
00000080: 9fc7 963f 97b1 ba3e b999 413f 6022 f03e
00000090: 67c3 9d3f 3181 2b3f 9042 463f dcab 9b3f
000000a0: 0fd3 373f 8494 9b3f b1bd c43f 1d3e 1f3d
000000b0: fd5d 4e3f e7b0 973d 18eb 903f 1761 443e
000000c0: 6346 933f 9981 703f d452 fc3f 15c6 913f
000000d0: 5e25 a33f cbc4 a93f 03b1 293f edac 8a3f
000000e0: 5012 563f b3fb 813e f54e 3f3f 6da7 b53f
000000f0: 394b a53f b22c 2e3f 60eb c43f a769 5d3f
00000100: de3c d93e 1713 fd3e 9a2e 803f 9c9f a13f
00000110: 23f2 0f3f 06f1 b53f 255d fd3e d63e 613f
00000120: fd97 643f 9708 013f 8433 4d3f f54c 2b3f
00000130: 3f3e 383f b3c5 8b3e 5d00 863f 9dc2 213f
00000140: 1d73 203f ddc7 1d3f e283 b53e b592 3c3f
00000150: cee6 9c3f 759f 113f 2eb3 863f 2bea 633f
00000160: abd8 4d3e e1b7 663f 0689 c73c ef71 b53f
00000170: 9174 0c3e dd23 173f df95 5a3f 5093 8e3f
00000180: 76b2 7b3f 3f92 723f f712 413f 24ed 893f
00000190: c4ca 413f de41 9a3f f067 853f 0ce8 bb3f
000001a0: 3ea7 893f 28d9 993f cb34 463f b0c6 383f
000001b0: 4be1 a43f 2676 3d3f eef8 bb3e d4d8 703f
000001c0: 3d79 373f 3074 453f e094 093e 73ec 883f
000001d0: ae2c 4a3f 0d7b 6e3f adec a83f 5e8a 543f
000001e0: 9959 833f 4d49 933f 8166 5f3f dbc0 9f3f
000001f0: 129f 963f 5e1d 4d3f 53d1 d23f bd41 7b3f

predict.predict.3.bias f4 [128]
0.2572181 -0.14165236 0.10324048 0.053300127 0.027929414 0.09223875 0.048364773 0.06242911
0.098356806 0.19385028 0.061217945 0.18636183 0.029792408 -0.1296331 0.23632605 0.27590355
0.033002615 -0.12824543 0.24707809 0.20549293 0.2157479 0.029320432 0.19998547 0.079460666
0.15278062 -0.013467802 0.19395933 -0.28567404 0.020415276 0.17580919 -0.00025360394 0.28173605
0.16768391 0.119834386 0.19493438 0.05408127 0.18510239 0.18812172 0.15822753 0.08766757
0.21453755 0.21550038 0.22966994 -0.081662 0.12021497 -0.11316954 0.0918631 0.061902195
-0.015722597 0.1800138 0.25191596 0.15203649 0.25825852 0.19297661 -0.06990888 0.049964286
-0.06536317 -0.38859954 0.14429237 0.089876115 0.1966272 0.20729965 0.22992747 -0.021745348
-0.08134257 0.14797565 0.13476811 -0.011707107 0.14545773 0.21162447 -0.055236124 0.27354467
-0.109148465 -0.26112542 -0.15490358 0.19833994 0.07292443 0.049112804 0.31964338 0.03036258
-0.27044898 0.19232303 -0.1590744 0.20974274 0.27991125 -0.32273585 0.21528248 0.17209797
-0.051125396 0.27421832 -0.0501924 0.15818143 0.04831228 0.067398176 -0.17215443 0.12074196
0.22530703 0.29838696 0.07381814 0.27175254 -0.06683489 0.28491172 0.11644064 0.27072152
0.09126243 0.09401349 -0.1717146 0.14682858 0.16418344 0.23022695 -0.4042561 0.018754993
-0.29174984 -0.277575 -0.31542718 0.089848325 -0.24746975 0.19878247 0.2546161 0.09042962
0.2678888 0.20133686 0.023359763 0.11058167 -0.045918923 -0.39849922 0.17668737 0.15376969
00000000: 17b2 833e 510d 11be bf6f d33d 3c51 5a3d
00000010: 3acc e43c abe7 bc3d 241a 463d abb5 7f3d
00000020: 4b6f c93d b080 463e abbf 7a3d a3d5 3e3e
00000030: 350f f43c 8abe 04be 75ff 713e 3b43 8d3e
00000040: c02d 073d c552 03be 0a02 7d3e bd6c 523e
00000050: 04ed 5c3e 6731 f03c fec8 4c3e 46bc a23d
00000060: 8672 1c3e 0ea8 5cbc 469d 463e de43 92be
00000070: f03d a73c 5307 343e 25f6 84b9 b53f 903e
00000080: 55b5 2b3e bb6b f53d e19c 473e 5284 5d3d
00000090: 7b8b 3d3e fba2 403e 6606 223e 0e8b b33d
000000a0: bbaf 5b3e 22ac 5c3e 992e 6b3e 683e a7bd
000000b0: 4433 f63d 6fc5 e7bd b922 bc3d 288d 7d3d
000000c0: adcc 80bc 8a55 383e 21fb 803e 74af 1b3e
000000d0: 763a 843e a99b 453e 632c 8fbd 5aa7 4c3d
000000e0: 20dd 85bd 85f6 c6be 61c1 133e f810 b83d
000000f0: a458 493e 5c46 543e 1b72 6b3e 4d23 b2bc
00000100: ef96 a6bd ee86 173e a700 0a3e 2acf 3fbc
00000110: dff2 143e 16b4 583e 463f 62bd 0c0e 8c3e
00000120: 3b89 dfbd 3bb2 85be 0b9f 1ebe a019 4b3e
00000130: 6759 953d 822a 493d 4ca8 a33e f2ba f83c
00000140: 4a78 8abe 54f0 443e 66e4 22be cdc6 563e
00000150: 8750 8f3e a23d a5be 0373 5c3e 733a 303e
00000160: dd68 51bd 5866 8c3e 8c96 4dbd 50fa 213e
00000170: 19e3 453d 0e08 8a3d 4049 30be 9047 f73d
00000180: e3b6 663e 2dc6 983e f72d 973d 2623 8b3e
00000190: bbe0 88bd f3df 913e 6e78 ee3d 039c 8a3e
000001a0: cce7 ba3d 258a c03d f4d5 2fbe 3b5a 163e
000001b0: b41f 283e 9dc0 6b3e a8fa cebe 12a4 993c
000001c0: 3c60 95be 4f1e 8ebe ac7f a1be 6602 b83d
000001d0: b668 7dbe a28d 4b3e 0b5d 823e 2a33 b93d
000001e0: b928 893e 402b 4e3e f95c bf3c a578 e23d
000001f0: 7b15 3cbd 1708 ccbe 89ed 343e cd75 1d3e

predict.predict.4.weight f4 [1, 128]
-0.05569541 0.02835217 0.24568798 0.22657827 0.16580912 0.114456594 0.2971657 0.18801825
0.25192463 0.018079784 -0.28956825 0.18757112 0.27126953 0.3022898 -0.50633836 -0.10667007
-0.24845761 0.024241751 -0.3888238 0.041179683 -0.17028587 0.056544114 -0.28501895 0.012364593
-0.36873716 0.23751606 -0.4189349 -0.06275251 0.5341083 -0.17540526 -1.1336356e-05 -0.10555714
0.2904763 -0.024122637 0.09924772 0.053666256 -0.35907555 0.042184968 0.12227874 -0.3471728
-0.017238526 -0.41528895 -0.6276803 0.005211486 -0.23679262 -0.012850599 0.27615646 0.004385945
0.2957117 -0.23198582 -0.8604985 -0.30624542 -0.36941278 -0.3920191 0.122476116 -0.2353131
0.20883444 0.077408694 0.07456388 0.3543859 -0.39703628 -0.023863979 -0.5649682 0.20865752
0.058553915 0.010774719 -0.24882276 0.32172465 0.046498325 -0.47939914 0.034082297 -0.088309176
0.18063727 0.109024055 0.10987521 -0.007992369 -0.17114364 0.05861463 -0.2151819 0.17195746
0.037653733 0.0011369626 0.055551317 -0.048239622 -0.34573758 0.03672496 -0.24296145 0.21656528
0.006501931 -0.12341838 -0.0038603754 -0.45427617 0.010228374 0.13552512 0.16088487 0.20806856
-0.2669881 -0.11843416 0.08395275 -0.2540075 0.18143065 -0.39800018 -0.27114886 -0.5102959
-0.25962692 -0.33088264 0.19054905 -0.19085585 -0.40751737 -0.03995473 0.053379294 -0.227702
0.08808061 0.11906575 0.037728813 0.21773823 0.11925569 -0.19008106 -0.44870138 0.15503593
-0.25092784 0.39485946 0.15765895 -0.29903755 0.2997162 0.2504386 -0.60274947 -0.20603043
00000000: df20 64bd cf42 e83c a195 7b3e 2204 683e
00000010: dec9 293e 3868 ea3d 1a26 983e db87 403e
00000020: 44fc 803e 0e1c 943c 4a42 94be a512 403e
00000030: d7e3 8a3e bbc5 9a3e 649f 01bf d675 dabd
00000040: ac6b 7ebe a396 c63c ea13 c7be 07ac 283d
00000050: 6b5f 2ebe cd9a 673d 01ee 91be dd94 4a3c
00000060: 1ecb bcbe 6937 733e a37e d6be 6384 80bd
00000070: 52bb 083f 709d 33be 4731 3eb7 582e d8bd
00000080: 4fb9 943e d69c c5bc 6342 cb3d 26d1 5b3d
00000090: c0d8 b7be 25ca 2c3d 476d fa3d a2c0 b1be
000000a0: cf37 8dbc c1a0 d4be a8af 20bf 1dc5 aa3b
000000b0: c479 72be 528b 52bc 6164 8d3e f9b7 8f3b
000000c0: 8667 973e b18d 6dbe a149 5cbf 33cc 9cbe
000000d0: ac23 bdbe bab6 c8be c2d4 fa3d ebf5 70be
000000e0: b2d8 553e 7388 9e3d f3b4 983d 1272 b53e
000000f0: 5748 cbbe 647e c3bc c2a1 10bf 51aa 553e
00000100: 3bd6 6f3d 7288 303c 65cb 7ebe 18b9 a43e
00000110: 0775 3e3d ce73 f5be e199 0b3d 71db b4bd
00000120: faf8 383e 0148 df3d 4106 e13d 6df2 02bc
00000130: 4740 2fbe e515 703d a558 5cbe 9e15 303e
00000140: cd3a 1a3d 2206 953a c789 633d e996 45bd
00000150: 8404 b1be e96c 163d e3ca 78be 4ac3 5d3e
00000160: 270e d53b c7c2 fcbd 5afe 7cbb e396 e8be
00000170: e994 273c 19c7 0a3e 01bf 243e ed0f 553e
00000180: aab2 88be 9c8d f2bd 6bef ab3d 450d 82be
00000190: f5c8 393e aec6 cbbe 06d4 8abe c1a2 02bf
000001a0: d2ed 84be 7369 a9be 4a1f 433e b76f 43be
000001b0: 1ea6 d0be 92a7 23bd 3fa4 5a3d b72a 69be
000001c0: 9b63 b43d bed8 f33d 8789 1a3d c5f6 5e3e
000001d0: 543c f43d 9ca4 42be 30bc e5be bdc1 1e3e
000001e0: 9d79 80be 052b ca3e 5971 213e 731b 99be
000001f0: 6774 993e 7d39 803e ca4d 1abf a4f9 52be
