Models/AttentiveFP/acute_oral_toxicity.pt (torch, 477985 bytes, 30 tensors)

gnn.init_context.project_node.0.weight f4 [64, 78]
0	0xbc0b0746	-0.008485621
1	0xbd38fbad	-0.04516189
2	0x3e2470f2	0.1605871
3	0xbbda4d4c	-0.0066620465
4	0x3e021121	0.12701847
5	0x80046737	-4.04368e-40
6	0x3c9f44b1	0.019441934
7	0xbceb9ac1	-0.028760316
8	0xbcaa4062	-0.020782653
9	0x000062a5	3.5387e-41
10	0x8002bfb1	-2.52437e-40
11	0x80048b76	-4.17371e-40
12	0x8002a5fd	-2.43216e-40
13	0x8001989a	-1.46579e-40
14	0x80009031	-5.1726e-41
15	0x3b009d29	0.0019624925
16	0x80006b5c	-3.8513e-41
17	0x00041fb9	3.78722e-40
18	0x0001b447	1.56507e-40
19	0x8000fef2	-9.1457e-41
20	0x00012452	1.04865e-40
21	0x00006b52	3.8499e-41
22	0x80042c11	-3.8315e-40
23	0x80013205	-1.09779e-40
24	0x0004420f	3.9104e-40
25	0x8004074f	-3.69964e-40
26	0x800254c8	-2.14085e-40
27	0x000165b2	1.28317e-40
28	0x8000fa2d	-8.9746e-41
29	0x00014709	1.17318e-40
30	0x00083d66	7.5671e-40
31	0x00006c65	3.8885e-41
32	0x8002230e	-1.96246e-40
33	0x000061bf	3.5065e-41
34	0x80007022	-4.0226e-41
35	0x0000e4fb	8.2143e-41
36	0x0000955e	5.3583e-41
37	0x800298a3	-2.38427e-40
38	0x8000093f	-3.317e-42
39	0x000089f2	4.9485e-41
40	0x8001e98f	-1.7562e-40
41	0x0000742b	4.1673e-41
42	0x0000ae1d	6.246e-41
43	0x000172f1	1.33069e-40
44	0xbd3c8982	-0.046029575
45	0xbcc05833	-0.023479557
46	0xbdd4fdcc	-0.103999704
47	0x3e430cb5	0.19047816
48	0x80048e95	-4.18491e-40
49	0x80012ce8	-1.07945e-40
50	0x8005c202	-5.28774e-40
51	0x8006641a	-5.86923e-40
52	0x00021000	1.89411e-40
53	0x80010fb5	-9.747e-41
54	0xbdb3c941	-0.087786205
55	0x3b235664	0.002492332
56	0xbd6f5f9b	-0.058440786
57	0xbd060e41	-0.032728437
58	0x000374ac	3.1736e-40
59	0x0003ad17	3.376e-40
60	0x00039615	3.29346e-40
61	0x3e5049c0	0.20340633
62	0x3dc86ab9	0.09785981
63	0x38b6ded5	8.719942e-05
64	0x3da44373	0.080206774
65	0xbc40d4fd	-0.01176953
66	0x3db087c0	0.08619642
67	0x8001bb7e	-1.59095e-40
68	0x000267af	2.20866e-40
69	0x3d82d8f1	0.063890345
70	0x3ced11eb	0.028939208
71	0xbc32c3d0	-0.010910943
72	0x3dd15c37	0.10222667
73	0xbd12b4c2	-0.035816915
74	0x0000fe01	9.112e-41
75	0x3dc58514	0.09644523
76	0xbe050488	-0.1299001
77	0x3d75ffbc	0.06005834
78	0xbe43e3a9	-0.19129814
79	0x3e45848d	0.19288845
80	0xbe19e79f	-0.15029763
81	0xbc7555c9	-0.014974066
82	0xbd1a0595	-0.03760298
83	0x8000885a	-4.8914e-41
84	0xbc9cbb21	-0.019132199
85	0x3de8fa0d	0.113758184
86	0x3d649e71	0.055815164
87	0x80028e1c	-2.3465e-40
88	0x8001c8d5	-1.6388e-40
89	0x80030795	-2.78226e-40
90	0x0000070e	2.531e-42
91	0x8003e960	-3.59226e-40
92	0x80037a54	-3.1939e-40
93	0x3daa6ce3	0.0832155
94	0x80014d1d	-1.19499e-40
95	0x8000d23d	-7.5419e-41
96	0x0001456b	1.16738e-40
97	0x800098a6	-5.476e-41
98	0x000263de	2.19497e-40
99	0x0000688d	3.7506e-41
100	0x8001c6be	-1.63131e-40
101	0x80015e30	-1.25624e-40
102	0x0000dd96	7.949e-41
103	0x800368d2	-3.13109e-40
104	0x8000ec49	-8.4763e-41
105	0x8000bd40	-6.789e-41
106	0x00031f81	2.86808e-40
107	0x800192bd	-1.44475e-40
108	0x8002b3ab	-2.48124e-40
109	0x00010b6c	9.5933e-41
110	0x00021fbc	1.95055e-40
111	0x00006c6b	3.8893e-41
112	0x000083bd	4.7259e-41
113	0x00027b49	2.27897e-40
114	0x00018ae0	1.41654e-40
115	0x80047055	-4.07639e-40
116	0x00002cfc	1.6137e-41
117	0x800152ca	-1.21535e-40
118	0x8005ac70	-5.21036e-40
119	0x800245b6	-2.08679e-40
120	0x8002952e	-2.37187e-40
121	0x00009d36	5.6397e-41
122	0x3e38adb2	0.1803501
123	0x3dcd60d2	0.10028233
124	0xbe3b1055	-0.18267949
125	0x3d81f9fb	0.06346508
126	0x8000c10c	-6.9252e-41
127	0x00025da9	2.1727e-40
128	0x0002e68a	2.66373e-40
129	0x0006f758	6.39743e-40
130	0x800226ab	-1.97542e-40
131	0x8001bc73	-1.59438e-40
132	0xbc23d0ae	-0.009998484
133	0xbe11e357	-0.1424688
134	0x3e357d4e	0.17723581
135	0x3c7f2f18	0.015575193
136	0x00004b8d	2.7103e-41
137	0x00027669	2.26149e-40
138	0x8002090e	-1.86919e-40
139	0x3d138858	0.0360187
140	0x3c8aea59	0.016957449
141	0xbbac438d	-0.005257076
142	0xbd586416	-0.052829824
143	0x3d8208cc	0.06349334
144	0xbde13d6c	-0.109980434
145	0x000201ea	1.84358e-40
146	0x8002848b	-2.31218e-40
147	0x3dc113aa	0.09427579
148	0x3d8363cf	0.06415521
149	0xbeb790fe	-0.35852808
150	0x3e04d45b	0.12971632
151	0x3be5d319	0.00701369
152	0x8001c5d0	-1.62797e-40
153	0xbc391869	-0.011297324
154	0xbc5ba947	-0.013407058
155	0x3b0ebbf1	0.0021779502
156	0x3dd5c327	0.10437613
157	0xbe090443	-0.13380532
158	0x3dab5671	0.08366097
159	0xbd7f7e84	-0.062376514
160	0xb9ded8dd	-0.00042504715
161	0x000192f6	1.44555e-40
162	0xbd722fb3	-0.05912752
163	0x3a565d94	0.00081773964
164	0xbbaf6460	-0.005352542
165	0x80002062	-1.1617e-41
166	0x00001d1c	1.0442e-41
167	0x8003abe2	-3.37166e-40
168	0x0001b68f	1.57325e-40
169	0x8002478d	-2.09339e-40
170	0x80001fb1	-1.1369e-41
171	0xb9ad4307	-0.0003304707
172	0x80019745	-1.46101e-40
173	0x0000795c	4.3536e-41
174	0x0000cb27	7.2877e-41
175	0x80022f36	-2.00607e-40
176	0x80023c2a	-2.05254e-40
177	0x000278a4	2.26949e-40
178	0x0002b11c	2.47206e-40
179	0x80001eeb	-1.1091e-41
180	0x80021bfc	-1.9371e-40
181	0x80011c56	-1.02e-40
182	0x80017702	-1.34527e-40
183	0x800133cf	-1.10421e-40
184	0x0001e3ae	1.73512e-40
185	0x00026363	2.19324e-40
186	0x8006e6dc	-6.3383e-40
187	0x8002e9ce	-2.67544e-40
188	0x00027e01	2.28873e-40
189	0x8000f794	-8.8814e-41
190	0x80026c1a	-2.2245e-40
191	0x80000114	-3.87e-43
192	0x80017330	-1.33157e-40
193	0x0004234e	3.80007e-40
194	0x80010782	-9.4529e-41
195	0x00041914	3.76338e-40
196	0x0000b127	6.355e-41
197	0x80032f22	-2.92415e-40
198	0x8000fe83	-9.1302e-41
199	0x800084d0	-4.7644e-41
200	0xbdebcc69	-0.115135975
201	0x3d7c7e2d	0.061643768
202	0xbd0ef3cd	-0.034900475
203	0x3ec687f2	0.38775593
204	0x8000bc1a	-6.7478e-41
205	0x8004c536	-4.38088e-40
206	0x8001d72b	-1.69023e-40
207	0x00025d5c	2.17162e-40
208	0x00066dbb	5.90377e-40
209	0x80000dd0	-4.955e-42
210	0xbc40049b	-0.011719848
211	0x3d9b32a5	0.07578019
212	0x3cb12cba	0.021627773
213	0xbda80e52	-0.082058564
214	0x8005930f	-5.11932e-40
215	0x000200a2	1.83898e-40
216	0x80029f72	-2.40869e-40
217	0xbde78422	-0.11304499
218	0x3d1b3bc1	0.037898783
219	0x39a96dc1	0.00032315965
220	0x3c3dad5a	0.011576975
221	0x3d108118	0.035279363
222	0xbe253e29	-0.16136993
223	0x00008ffc	5.1652e-41
224	0x80004253	-2.3793e-41
225	0x3b152d88	0.0022762734
226	0xbd1f455d	-0.03888451
227	0x3cc23ada	0.023709703
228	0xbe1f0fa7	-0.15533315
229	0xbd1f9aa5	-0.03896584
230	0x80006654	-3.6708e-41
231	0xbdf2e5b2	-0.11860217
232	0x3d5b9b52	0.053614922
233	0x3e06631b	0.13123743
234	0xbe4eae75	-0.20183738
235	0xbc4e2a86	-0.012583381
236	0x3d4b2b51	0.049601857
237	0xbcfe43cf	-0.031038193
238	0x3e36cd06	0.17851648
239	0x0001ba7c	1.58733e-40
240	0xbd0873fe	-0.033313744
241	0xbd671cdc	-0.056424007
242	0x3e57ff30	0.2109344
243	0x00025bb7	2.16572e-40
244	0x8000e787	-8.3056e-41
245	0x80001cc1	-1.0315e-41
246	0x00003257	1.8059e-41
247	0x0003950d	3.28976e-40
248	0x000212ac	1.90369e-40
249	0xbe01c6ad	-0.12673445
250	0x0000e59e	8.2371e-41
251	0x8001cd1b	-1.65413e-40
252	0x80018a05	-1.41348e-40
253	0x80030d6f	-2.80326e-40
254	0x8002a590	-2.43064e-40
255	0x800207bc	-1.86446e-40

gnn.init_context.project_node.0.bias f4 [64]
0	0x3c5e2f76	0.01356112
1	0xbb88e5b9	-0.0041777757
2	0x3ddbc7fc	0.10731503
3	0x3d0e6434	0.03476353
4	0x3dbcd871	0.092209704
5	0x3d227592	0.039662905
6	0xbd02fce2	-0.03197945
7	0x3cde9296	0.027169507
8	0x3d8dd25a	0.06924887
9	0x3dd17485	0.102273025
10	0x3d47b1ca	0.048753537
11	0x3da80b4f	0.08205282
12	0x3d88d33f	0.06680917
13	0x3d6fedfa	0.05857656
14	0x3dc93ff7	0.098266535
15	0xbcbc86e2	-0.023013536
16	0x3d9fd6ba	0.07804628
17	0xbd3947c0	-0.04523444
18	0x3d2255e1	0.03963268
19	0x3d9bead5	0.0761315
20	0x3d801fad	0.06256042
21	0x3c12130b	0.008915673
22	0xbbf746b9	-0.0075462726
23	0xbd91a48d	-0.07111464
24	0x3c6dc775	0.014512886
25	0xbdb0a3bc	-0.0862498
26	0xbdd83637	-0.10557216
27	0xbd0c232c	-0.03421323
28	0x3d8f2553	0.06989541
29	0xbb39fb9c	-0.002837873
30	0x3d79b6d3	0.06096537
31	0x3ddeac86	0.1087275
32	0xbda4ffda	-0.08056612
33	0x3df26737	0.11836093
34	0x3e0167e6	0.1263729
35	0xbd07689d	-0.03305875
36	0xbcb4f00c	-0.02208712
37	0xbd8eec05	-0.06978611
38	0x3d76df74	0.060271695
39	0x3dc6d7aa	0.097091034
40	0x3d9dd9ba	0.07707544
41	0xbb640993	-0.0034795746
42	0x3dbb193a	0.09135671
43	0xbb8e5cb8	-0.004344549
44	0x3b5ac880	0.0033383667
45	0x3dd5de73	0.104428194
46	0x3dc5b0a3	0.096528314
47	0x3d76b56b	0.060231607
48	0x3d40a34f	0.047030743
49	0xbd0f8d47	-0.035046842
50	0xbdaf1bcc	-0.08550224
51	0xbbfe1261	-0.007753656
52	0xbccdab34	-0.02510605
53	0xbd9e369f	-0.07725262
54	0x3d281408	0.04103473
55	0x3d571605	0.052511234
56	0xbbe9b77b	-0.0071324683
57	0x3d070e7b	0.032972794
58	0xbd05b420	-0.032642484
59	0xbd3bc807	-0.045845058
60	0xbcec21bb	-0.028824678
61	0x3c53e151	0.012932138
62	0xbbfbff70	-0.0076903626
63	0xbd19f569	-0.037587557

gnn.init_context.project_edge1.0.weight f4 [64, 90]
0	0x3d2dd4c3	0.042439234
1	0xbe07856c	-0.1323449
2	0x3d62612c	0.05526845
3	0x3d947e10	0.07250607
4	0xbd8699ec	-0.06572327
5	0x00010aff	9.578e-41
6	0x3c4bdd32	0.012442874
7	0xbd8d58b3	-0.06901684
8	0xbd8d4dfe	-0.068996415
9	0x00024f8c	2.12207e-40
10	0x80005bcc	-3.293e-41
11	0x00004424	2.4444e-41
12	0x0001e79a	1.74918e-40
13	0x0002afb8	2.46707e-40
14	0x8001756e	-1.33961e-40
15	0x3d9781bd	0.073977925
16	0x0000acc5	6.1978e-41
17	0x0001e2e6	1.73231e-40
18	0x8003a9fd	-3.36487e-40
19	0x8003b7e0	-3.41468e-40
20	0x8000b96c	-6.6517e-41
21	0x000025f0	1.361e-41
22	0x00037523	3.17527e-40
23	0x00056a03	4.97207e-40
24	0x000019ab	9.208e-42
25	0x8004b31a	-4.31592e-40
26	0x0001daa6	1.70272e-40
27	0x800274d1	-2.25577e-40
28	0x0001d527	1.683e-40
29	0x0000d2c5	7.561e-41
30	0x0001fbaa	1.82116e-40
31	0x8002457e	-2.086e-40
32	0x80002d51	-1.6256e-41
33	0x0001ca32	1.6437e-40
34	0x0002ddae	2.63195e-40
35	0x00002432	1.2984e-41
36	0x80031926	-2.84528e-40
37	0x00023781	2.03582e-40
38	0x0002397f	2.04297e-40
39	0x000008de	3.181e-42
40	0x0000d57c	7.6584e-41
41	0x0000ca01	7.2465e-41
42	0x00069fee	6.08385e-40
43	0x00026f6e	2.23644e-40
44	0x3dc141cf	0.0943638
45	0xbd7337bf	-0.059379335
46	0x3dd61e71	0.10455025
47	0x3d95789b	0.07298394
48	0x8000f7c3	-8.888e-41
49	0x000893a8	7.87653e-40
50	0x0001cc67	1.65161e-40
51	0x8001d47f	-1.68065e-40
52	0x0001e347	1.73367e-40
53	0x800165ee	-1.28401e-40
54	0xbd010d5b	-0.031506877
55	0x3d35176c	0.04421179
56	0x3d58202a	0.05276505
57	0xbd700622	-0.0585996
58	0x80003013	-1.7246e-41
59	0x8001d258	-1.67293e-40
60	0x000085c3	4.7985e-41
61	0x3cdf6ff6	0.027275067
62	0x3e3ab1e1	0.18231918
63	0x36d4d2cb	6.342632e-06
64	0xbda787ef	-0.08180224
65	0xbce93d9b	-0.028471759
66	0x3d9b1e93	0.07574191
67	0x800002cf	-1.008e-42
68	0x000067b3	3.72e-41
69	0x3d8e6d1f	0.06954407
70	0xbd16747c	-0.036732182
71	0x3d8a8dfb	0.06765362
72	0x3daddb2e	0.08489071
73	0xbe0896b6	-0.13338742
74	0x8001109d	-9.7795e-41
75	0xbde8f6be	-0.11375187
76	0xbde9ff4c	-0.11425647
77	0x3df87e9b	0.12133523
78	0x3ce215df	0.02759832
79	0x3c571f81	0.01313007
80	0xbdb23692	-0.08701815
81	0xbe3e3bc5	-0.18577488
82	0x3e0dd049	0.13848986
83	0xbd308878	-0.043098897
84	0xbd734598	-0.05939254
85	0x0000d70e	7.7147e-41
86	0x3e494d21	0.19658329
87	0xbe4aa757	-0.19790398
88	0x00033581	2.947e-40
89	0x800526d6	-4.73109e-40
90	0x3de516ba	0.111859754
91	0xbe17f136	-0.14838108
92	0xbd8ae30d	-0.06781588
93	0xbc9da2ab	-0.019242605
94	0xbc1f20e0	-0.009712428
95	0x00025d67	2.17177e-40
96	0xbdfa504f	-0.12222349
97	0xbc9097fe	-0.0176506
98	0x3cc647b6	0.024204116
99	0x80007687	-4.252e-41
100	0x80010785	-9.4533e-41
101	0x80007aa6	-4.3998e-41
102	0x800096e2	-5.4127e-41
103	0x00009987	5.5075e-41
104	0x80020677	-1.8599e-40
105	0xbc21123f	-0.00983101
106	0x0001791e	1.35284e-40
107	0x80026954	-2.21456e-40
108	0x00020079	1.8384e-40
109	0x80025e8c	-2.17588e-40
110	0x0001edc2	1.77127e-40
111	0x00011015	9.7605e-41
112	0x80009056	-5.1778e-41
113	0x000290a6	2.35561e-40
114	0x80021145	-1.89866e-40
115	0x0002928f	2.36246e-40
116	0x00023ba7	2.0507e-40
117	0x80052e8d	-4.75877e-40
118	0x0000f723	8.8656e-41
119	0x00010de7	9.6823e-41
120	0x00007a9d	4.3985e-41
121	0x0000aafd	6.1339e-41
122	0x80035ded	-3.09201e-40
123	0x0001d03b	1.66535e-40
124	0x0002a4a5	2.42734e-40
125	0x0001512e	1.20957e-40
126	0x000239a2	2.04346e-40
127	0x80022260	-1.96002e-40
128	0x00018c51	1.42172e-40
129	0x0000b299	6.4069e-41
130	0x8001ae7d	-1.5443e-40
131	0x0006db12	6.296e-40
132	0x80014c25	-1.19151e-40
133	0x8004223d	-3.79624e-40
134	0xbdc646ba	-0.09681459
135	0xbdf13b0c	-0.117788404
136	0x3d90c566	0.07068901
137	0x3d7e7ce6	0.06213083
138	0x8001cf49	-1.66195e-40
139	0x8001cd1a	-1.65412e-40
140	0x000078b8	4.3306e-41
141	0x8006e6cf	-6.33811e-40
142	0x00014c74	1.19262e-40
143	0x80018dab	-1.42656e-40
144	0x396b46f3	0.00022437777
145	0xbdeae9c7	-0.11470371
146	0xbd74ba96	-0.059748255
147	0x3d46c79e	0.048530214
148	0x00015d73	1.25359e-40
149	0x00035351	3.05395e-40
150	0x00017222	1.32779e-40
151	0x3d7fb274	0.062426046
152	0x3e36a3ad	0.17835875
153	0x39acbed2	0.0003294857
154	0x3dfad3a9	0.12247402
155	0xbd9756d3	-0.07389607
156	0xbdf175b0	-0.11790025
157	0x8001b377	-1.56215e-40
158	0x800602ef	-5.52065e-40
159	0x3e4c5095	0.19952615
160	0xbd58471e	-0.052802198
161	0xbe0d7416	-0.13813815
162	0xbdd1bb11	-0.10240758
163	0xbde507c3	-0.11183121
164	0x0000759f	4.2194e-41
165	0x3cc99bfb	0.02461051
166	0xbd3ebde1	-0.0465678
167	0xbd836083	-0.064148925
168	0x3d83d2ac	0.06436667
169	0xbe0879a7	-0.13327657
170	0xbcdef709	-0.027217405
171	0xbe1e0ed3	-0.15435342
172	0xbdf72619	-0.120678134
173	0x3dbfb71a	0.09361096
174	0x3d1381aa	0.03601233
175	0x8001f224	-1.78699e-40
176	0xbc2d6494	-0.010583062
177	0xbd1f1e57	-0.038847294
178	0x80005f92	-3.4284e-41
179	0x0002e8f9	2.67246e-40
180	0xbd57bda3	-0.052671086
181	0x3de7502b	0.11294588
182	0x3e4bdb2a	0.19907823
183	0xbd9380ae	-0.07202278
184	0x3dd3c68c	0.10340604
185	0x80011f33	-1.03028e-40
186	0x3dff631d	0.12470076
187	0xbd8af10a	-0.06784256
188	0x3d08c0bc	0.03338693
189	0x0001615c	1.26761e-40
190	0x0003c510	3.46199e-40
191	0x00010546	9.3727e-41
192	0x8002057f	-1.85643e-40
193	0x8000f8d9	-8.927e-41
194	0x80003dae	-2.2127e-41
195	0xbce80743	-0.028323775
196	0x00018155	1.38231e-40
197	0x00018a45	1.41437e-40
198	0x0001d11c	1.6685e-40
199	0x000290a7	2.35562e-40
200	0x00037ca0	3.20214e-40
201	0x80076df1	-6.82288e-40
202	0x80022760	-1.97796e-40
203	0x00021649	1.91665e-40
204	0x80018233	-1.38542e-40
205	0x8000b888	-6.6197e-41
206	0x0001e698	1.74557e-40
207	0x00028c3d	2.33979e-40
208	0x0000ff0b	9.1492e-41
209	0x80043eff	-3.89941e-40
210	0x0005703b	4.99438e-40
211	0x800686d1	-5.99376e-40
212	0x0000fa71	8.9841e-41
213	0x8001c7a4	-1.63453e-40
214	0x00024b6e	2.1073e-40
215	0x800000b3	-2.51e-43
216	0x0002ae16	2.46121e-40
217	0x00026700	2.2062e-40
218	0x8001b3b9	-1.56308e-40
219	0x8000af75	-6.2942e-41
220	0x8001eec6	-1.77491e-40
221	0x0001b362	1.56186e-40
222	0x0001794b	1.35347e-40
223	0x800658a6	-5.82814e-40
224	0xbd0d779e	-0.034537904
225	0x3e060972	0.1308954
226	0xbe326b95	-0.17423852
227	0xbd55650f	-0.05209833
228	0x0002f77e	2.72454e-40
229	0x00030fcc	2.81173e-40
230	0x0003a780	3.35594e-40
231	0x8000e1cd	-8.1002e-41
232	0x800147e2	-1.17622e-40
233	0x0002d432	2.59792e-40
234	0x3c860701	0.016360762
235	0x3dee45a7	0.11634379
236	0xbdf20eb9	-0.118192144
237	0xbd0b4b9b	-0.03400765
238	0x0000a9d4	6.0923e-41
239	0x8000a680	-5.9729e-41
240	0x80022c71	-1.99614e-40
241	0x3d8a76e1	0.067609556
242	0xbe07da9c	-0.13266987
243	0xb8727733	-5.780831e-05
244	0xbd12cf36	-0.035842143
245	0xbdaf60fe	-0.08563422
246	0xbd89fe59	-0.06737966
247	0x0001faff	1.81876e-40
248	0x0001a610	1.51407e-40
249	0xbe0035b4	-0.12520486
250	0xbc68ed2c	-0.014216702
251	0x3d8a09f4	0.0674018
252	0xbdf46dec	-0.119350284
253	0xbd0b2a57	-0.033975925
254	0x80099722	-8.80736e-40
255	0x3df54a8a	0.11977108

gnn.init_context.project_edge1.0.bias f4 [64]
0	0xbce2704b	-0.027641436
1	0x3c30dd36	0.010794928
2	0x3dd4f581	0.10398389
3	0x3dd0f7a0	0.10203481
4	0x3cbc5b35	0.02299271
5	0xbd86c195	-0.065798916
6	0x3b59afc3	0.0033216334
7	0x3d704c92	0.058666773
8	0xbc98ce54	-0.018653072
9	0x3cc2309d	0.023704821
10	0xbdda1b1b	-0.10649701
11	0x3daf1809	0.08549506
12	0x3db97dbe	0.090571865
13	0xbd540bbe	-0.05176901
14	0xbcc9fab3	-0.024655676
15	0xbdb151f9	-0.08658213
16	0xbcb762ee	-0.02238604
17	0xbcae4e70	-0.021277636
18	0xbcb017e0	-0.02149576
19	0x3ba6b3b3	0.00508734
20	0xbd6d3531	-0.057912055
21	0xbcd99abe	-0.026563045
22	0xbd2956ca	-0.041342534
23	0x3d2ac524	0.041691914
24	0x3d74749b	0.059681516
25	0xbd155350	-0.036456406
26	0xbc588012	-0.013214128
27	0xbc9eefa0	-0.019401371
28	0x3ad7f7c1	0.0016477035
29	0x3d585338	0.05281374
30	0xbb8c90fb	-0.004289744
31	0x3d2ed5d2	0.042684384
32	0xbd106805	-0.03525545
33	0x3d74e2d1	0.05978662
34	0xbd2151af	-0.03938454
35	0xbda75f11	-0.08172429
36	0x3d3fcfca	0.046829022
37	0x3dd04e7f	0.10171222
38	0xbd0f2ed5	-0.034956772
39	0x3d2916d3	0.041281532
40	0xbd7a2cbb	-0.061077815
41	0x3d365a76	0.044519864
42	0xbc822993	-0.015888965
43	0x3d384801	0.044990543
44	0xbdf784eb	-0.12085899
45	0x3cdec485	0.027193317
46	0x3b1c6138	0.0023861658
47	0x3d268ec8	0.04066351
48	0xbd3b6cf9	-0.04575822
49	0x3cd6320e	0.026146915
50	0xbd831585	-0.06400589
51	0x3d4e917b	0.05043171
52	0xbd0b9e04	-0.034086242
53	0x3d4c980d	0.049949694
54	0x3d8060d3	0.06268468
55	0x3ba01ade	0.0048860153
56	0xbd0f8c85	-0.03504612
57	0xbd08ca90	-0.033396304
58	0x3db7f92d	0.089830734
59	0xbcfe972d	-0.031077946
60	0xbda20e9d	-0.079129435
61	0x3de6892a	0.11256631
62	0xbd500efc	-0.05079554
63	0x3d818f8e	0.06326209

gnn.init_context.project_edge2.1.weight f4 [1, 128]
0	0x3d0c705d	0.034286845
1	0xbbe4dd51	-0.006984391
2	0xbd42aa96	-0.047525965
3	0x3d087607	0.033315685
4	0x3d6d8d93	0.057996344
5	0x3d6a9adf	0.057276603
6	0x3cb50557	0.022097273
7	0xbc9ea919	-0.019367741
8	0x3d7b163f	0.061300512
9	0x3d752945	0.05985381
10	0x3adcf378	0.0016857227
11	0xbe6083d8	-0.21925294
12	0xbda544c7	-0.08069759
13	0x3d825ff7	0.0636596
14	0x3d2e9821	0.04262555
15	0x3d2fe5db	0.042943817
16	0x3682efca	3.902217e-06
17	0x3b76db76	0.003766743
18	0x3d3a5958	0.04549536
19	0x3d2cfc7e	0.042232983
20	0x3d8074e7	0.06272297
21	0x3d66bb40	0.05633092
22	0x3d015842	0.03157831
23	0xbba1c636	-0.0049369587
24	0x3d9de1fb	0.07709118
25	0x3e136b88	0.14396489
26	0x3cf72243	0.030167704
27	0x3d1cae22	0.038252003
28	0x3c0a8d61	0.008456559
29	0xbe20c907	-0.15701686
30	0xbc529688	-0.012853272
31	0x3d349775	0.044089753
32	0x3befb773	0.00731557
33	0xbcb1c252	-0.021699104
34	0xbc9847ad	-0.018588865
35	0x3dc94539	0.09827656
36	0xbdc9af68	-0.09847909
37	0x3d6a0e94	0.05714281
38	0xbc846dcd	-0.016165638
39	0xbdd01aa9	-0.10161335
40	0x3c6a5bb5	0.014304091
41	0x3c3ff504	0.011716131
42	0x3d11c7fd	0.035591114
43	0x3d93202c	0.07183871
44	0x3d0adf0d	0.033904124
45	0xbd3e373c	-0.046439394
46	0xbcd3883e	-0.025821801
47	0x3d90bd94	0.07067409
48	0x3d8547a0	0.06507802
49	0xbbe81885	-0.007083001
50	0x3dceb45b	0.10092994
51	0x3c015546	0.007893866
52	0x3c96c1f4	0.018403031
53	0x3d0a7ab1	0.033808414
54	0x3dc9e832	0.09858741
55	0x3c5417b3	0.012945103
56	0xbd42aa5c	-0.04752575
57	0xbc31e22a	-0.010857144
58	0x3d0c37c8	0.034232885
59	0x3d8d09d5	0.06886641
60	0x3d22b649	0.039724622
61	0x3dc7dddd	0.09759114
62	0x3cb423e7	0.021989776
63	0xbd307b98	-0.04308662
64	0x3db1e62a	0.086864784
65	0x3bf5c6fd	0.007500528
66	0x3de66276	0.11249249
67	0xbc29274b	-0.01032431
68	0x3e989548	0.29801393
69	0xbde7d320	-0.11319566
70	0xbe01acd3	-0.12663583
71	0xbce8dc02	-0.02842522
72	0xbe88c50c	-0.26712835
73	0xbc7ecdd2	-0.015552001
74	0xbe398158	-0.18115747
75	0x3ec975df	0.3934774
76	0x3d43cd94	0.047803476
77	0x3dd4711f	0.10373139
78	0xbcc08939	-0.023502933
79	0xbc9209cc	-0.017826937
80	0x3e1ee7c0	0.15518093
81	0x3e0329f1	0.12808968
82	0x3e63d4c8	0.22249138
83	0x3e1605e1	0.1465068
84	0x3da88d12	0.08230032
85	0xbda4d3fe	-0.08048247
86	0xbdd86a73	-0.105671786
87	0x3e028024	0.12744194
88	0xbe4d82c6	-0.20069417
89	0x3e861f48	0.2619574
90	0x3cd8869a	0.02643137
91	0xbd6e099c	-0.058114633
92	0x3d17b1d6	0.037034832
93	0xbea95bdd	-0.330779
94	0xbe32945d	-0.17439409
95	0xbbba53f7	-0.005686279
96	0x3d5a2e71	0.053266946
97	0xbe428ee8	-0.18999827
98	0xbc590cfb	-0.013247724
99	0x3e3cbe17	0.18431889
100	0x3e752174	0.23938543
101	0x3e225117	0.15851246
102	0x3eaff6d4	0.34368002
103	0x3e6005c2	0.21877196
104	0xbda45de7	-0.08025723
105	0x3d93c44d	0.07215176
106	0xbea0156a	-0.31266338
107	0x3e3992d1	0.18122412
108	0xbe51c90c	-0.2048685
109	0x3d9dbe9d	0.07702372
110	0xbba27b57	-0.004958551
111	0xbd4a41f9	-0.049379323
112	0xbeb27ce5	-0.34860912
113	0xbdb02422	-0.08600642
114	0x3e505cef	0.20347951
115	0xbe81c349	-0.25344303
116	0x3e7b5de8	0.24547541
117	0xbe974874	-0.29547465
118	0x3d8877f3	0.066635035
119	0x3e9b53fc	0.30337512
120	0x3dba2d0c	0.09090623
121	0xbde88b0f	-0.11354648
122	0x3e9119c8	0.28339982
123	0x3df04efe	0.117338166
124	0xbc2838ce	-0.01026745
125	0xbe0ef52f	-0.13960718
126	0xbdfa2042	-0.12213184
127	0x3cd3b43b	0.025842777

gnn.init_context.attentive_gru.edge_transform.1.weight f4 [64, 64]
0	0x3e2f71da	0.17133275
1	0xbd115b90	-0.03548771
2	0xbd4e7d93	-0.050412726
3	0x3d4dbdfa	0.050230004
4	0xbdfe77c0	-0.12425184
5	0xbe02163f	-0.12703799
6	0x3df008b1	0.11720408
7	0x3cec52bb	0.028848043
8	0xbe23b5b2	-0.1598728
9	0xbc21d44d	-0.009877277
10	0x3c858a0d	0.01630118
11	0xbd915d78	-0.07097906
12	0xbd4b8c53	-0.04969437
13	0x3d23e45a	0.040012695
14	0x3e1a9cbe	0.15098855
15	0xbe01ea6f	-0.12687086
16	0x3dcead92	0.100917
17	0xbe4437fa	-0.19161978
18	0x3c8504a1	0.016237559
19	0xbe1a6d06	-0.15080652
20	0xbe081edf	-0.13293026
21	0x3cd9092b	0.02649363
22	0x3c467e6f	0.012115105
23	0x3c1997b0	0.009374544
24	0x3d682994	0.056680277
25	0x3daa8534	0.08326188
26	0xbe08502c	-0.13311833
27	0xbcbbb607	-0.022913946
28	0x3d8cf126	0.06881933
29	0x3daadb63	0.08342626
30	0x3cfed391	0.031106742
31	0xbdff5813	-0.12467971
32	0x3d56de36	0.05245801
33	0xbdb6760c	-0.089092344
34	0xbd6af8b5	-0.05736609
35	0xbe09a439	-0.13441552
36	0x3d375561	0.044759158
37	0x3dd4271b	0.10359021
38	0xbdacac71	-0.08431328
39	0xbd80c395	-0.06287304
40	0xbe48bb7b	-0.19602768
41	0xbdca089f	-0.098649256
42	0x3dce0646	0.1005979
43	0xbde6150e	-0.112344846
44	0x3e273415	0.16328461
45	0xbc7fb083	-0.0156060485
46	0x3ceba0e4	0.028763242
47	0x3e1f992b	0.15585773
48	0xbc4ba04a	-0.012428353
49	0xbd64a4e1	-0.055821303
50	0xbd8513cc	-0.064979166
51	0x3bb7e0fe	0.005611538
52	0xbb83d8ac	-0.004023632
53	0xbc3a0f9f	-0.011356263
54	0xbe3ff5a5	-0.1874605
55	0x3dc28979	0.09498877
56	0xbe99e31f	-0.30056092
57	0x3d9a26f1	0.07526959
58	0xbe1066f1	-0.14101769
59	0x3ce6154c	0.028086327
60	0x3e088e1c	0.1333546
61	0x3b590344	0.0033113519
62	0x3d22a3cf	0.039707
63	0xbdf37bd5	-0.118888535
64	0x3d89bdfc	0.0672569
65	0xbd1bbd5f	-0.038022395
66	0x3c086803	0.00832558
67	0xbc317068	-0.010830022
68	0xbd83ef34	-0.06442109
69	0xbc2d836f	-0.010590418
70	0x3cd14166	0.02554388
71	0x3d75cf3c	0.060012087
72	0x3eb07fc3	0.34472474
73	0xbd2474f0	-0.040150583
74	0x3bb23ade	0.0054391464
75	0x3cf80a51	0.030278357
76	0x3dd87cb2	0.10570659
77	0xbe56a117	-0.20959888
78	0xbe3fe68a	-0.18740287
79	0x3d147d09	0.036252055
80	0xbdb58df9	-0.0886497
81	0x3bce851a	0.006302488
82	0xbe3920b8	-0.18078887
83	0x3d72827a	0.059206463
84	0x3e022a67	0.12711488
85	0x3dcd56d1	0.100263245
86	0x3da7df7b	0.081969224
87	0xbc0f05f7	-0.0087294495
88	0x3d8612aa	0.06546529
89	0xbd5a0f0c	-0.053237006
90	0xbd17d4e5	-0.037068266
91	0x3e0fe5eb	0.1405255
92	0xbda753ca	-0.08170278
93	0x3c7785f6	0.015107622
94	0x3e43b7c0	0.19113064
95	0x3d94b13c	0.07260367
96	0x3db2c39a	0.08728714
97	0x3df4b953	0.1194941
98	0x3dbc8bba	0.09206338
99	0xbd6a8025	-0.057251114
100	0x3daaa1a9	0.083316155
101	0x3d6ac0c9	0.05731276
102	0xbab2caf0	-0.0013640802
103	0x3bcbc338	0.0062183402
104	0x3c65e5b9	0.014031821
105	0x3cd5300c	0.026023887
106	0xbd6d89cd	-0.057992745
107	0xbdd06c85	-0.101769485
108	0x3d863e4c	0.06554851
109	0xbda6c821	-0.0814364
110	0xbddfa118	-0.10919398
111	0xbcfd8041	-0.030944945
112	0xbceb490f	-0.02872136
113	0xbbd2184e	-0.0064115888
114	0xbcfba087	-0.030716194
115	0xbd83cc97	-0.06435507
116	0xbdb99fc6	-0.090636775
117	0x3e01125b	0.12604658
118	0x3d7713df	0.060321685
119	0x3d84dd04	0.06487468
120	0x3d169668	0.036764532
121	0x3d887966	0.0666378
122	0x3d6d6860	0.057960868
123	0xbd4f408e	-0.050598674
124	0x3cbc173f	0.022960303
125	0xbcc0c439	-0.023531066
126	0xbe025832	-0.12728956
127	0x3b4d3e20	0.0031317547
128	0x3d101eb2	0.035185523
129	0x3d8d24a8	0.06891757
130	0xbc9e6251	-0.01933399
131	0xbb3dfd9f	-0.0028990281
132	0x3db47eb6	0.08813231
133	0xbddda447	-0.10822349
134	0xbd6fdc51	-0.05855972
135	0xbd94812c	-0.072512
136	0x3d88fa0b	0.06688317
137	0x3dcf3906	0.10118298
138	0x3b906e81	0.0044077043
139	0x3dd99061	0.10623241
140	0xbdddc7da	-0.10829134
141	0xbce72f5a	-0.028220821
142	0x3d7b5fc3	0.061370622
143	0x3db70ba4	0.08937767
144	0x3d8963e0	0.06708503
145	0xbe4e7efc	-0.20165628
146	0x3e2adc1f	0.16685532
147	0x3e50c9a2	0.20389417
148	0xbdc31eda	-0.09527369
149	0x3dbd5f27	0.092466645
150	0xbea5170c	-0.32244146
151	0xbd639476	-0.055561505
152	0x3c0965c8	0.008386083
153	0x3d69aa52	0.057047196
154	0x3c9320ce	0.017959978
155	0x3dad6ee4	0.08468416
156	0x3c8e49da	0.0173692
157	0xbe47c516	-0.19508776
158	0xbdf54ffd	-0.11978147
159	0xbe314655	-0.17311986
160	0x3e4feb66	0.20304641
161	0xbdf7c2a9	-0.12097675
162	0x3d00f123	0.031479966
163	0x3c8d4f71	0.017249795
164	0x3d1a9141	0.03773618
165	0xbe621bf4	-0.22080976
166	0x3e33d511	0.17561747
167	0x3e0c5d99	0.1370758
168	0xbe213f0e	-0.1574671
169	0x3d03c1b7	0.032167163
170	0xbe1634fd	-0.14668651
171	0xbcb2c6c2	-0.02182329
172	0xba5bc8fd	-0.00083841366
173	0x3dc9f229	0.098606415
174	0x3d22d554	0.039754227
175	0x3de3d86b	0.11125263
176	0x3d961928	0.07329017
177	0xbd9ed865	-0.07756118
178	0x3e070aa9	0.1318766
179	0xbdc500bc	-0.09619281
180	0x3dcec15c	0.10095474
181	0x3de378f4	0.11107054
182	0xbdfcefd5	-0.12350432
183	0x3e9d4e48	0.30723786
184	0x3e230c6d	0.15922709
185	0x3d7436b9	0.0596225
186	0x3e4b6308	0.19861996
187	0xbc829272	-0.015938971
188	0xbe4ac3b2	-0.19801214
189	0xbdf1bd99	-0.11803741
190	0xbdbe1da8	-0.09283
191	0xbe03a5e6	-0.12856254
192	0xbe48675f	-0.19570683
193	0xbdcc632e	-0.099798545
194	0xbc77572b	-0.015096466
195	0xbbdbc169	-0.006706406
196	0xbd0fa857	-0.03507265
197	0xbe390356	-0.18067679
198	0x3c9973b0	0.018731922
199	0x3e25c273	0.16187458
200	0x3e78ef3f	0.24310015
201	0xbd6ba0e4	-0.057526484
202	0x3d03c322	0.032168515
203	0x3e29c510	0.1657908
204	0xbdc5d13d	-0.0965905
205	0x3d6df15a	0.0580915
206	0x3db390c5	0.08767847
207	0x3d70dc9c	0.05880414
208	0xbd464705	-0.048407573
209	0xbdb1db04	-0.08684352
210	0xbd24dad2	-0.040247746
211	0x3cfbb323	0.030725067
212	0xbbd529a6	-0.006505209
213	0x3d9b3e86	0.07580285
214	0xbd83ae2f	-0.06429707
215	0x3db64ecf	0.0890175
216	0xbda563ea	-0.08075698
217	0xbd67719b	-0.056504827
218	0x3da368ce	0.07978974
219	0xbd1034e9	-0.03520671
220	0xbd50810a	-0.05090431
221	0xbbf459d7	-0.007456999
222	0xbdafb36f	-0.08579146
223	0xbd229c2b	-0.039699715
224	0xbe3282c0	-0.1743269
225	0x3c093684	0.008374814
226	0xbda30d07	-0.07961469
227	0x3db5bd86	0.08874039
228	0x3d70f82c	0.058830425
229	0x3bbfb53c	0.0058504622
230	0x3cc13697	0.0235856
231	0x3e3b1eec	0.18273515
232	0xbd7dee6c	-0.061994955
233	0x3e4c8680	0.19973183
234	0xbd014d19	-0.031567667
235	0x3d0f0b2e	0.03492277
236	0xbdf52d47	-0.119715266
237	0x3d10ae44	0.035322443
238	0xbde13f80	-0.1099844
239	0xbe39d1a4	-0.18146378
240	0x3d143ceb	0.03619091
241	0x3d888fef	0.06668078
242	0x3e0a183a	0.13485804
243	0x3d65c30b	0.05609421
244	0x3e174ae0	0.14774656
245	0xbd1e548d	-0.038654853
246	0x3d90892b	0.07057413
247	0xbe53d084	-0.20685011
248	0x3ea59b94	0.3234526
249	0x3dacbfb0	0.08434999
250	0x3e2686fe	0.16262433
251	0xbdf7b245	-0.12094549
252	0x3e08d52c	0.13362569
253	0x3d519616	0.051168524
254	0xbd23c495	-0.039982397
255	0xbce7ad1b	-0.028280785

gnn.init_context.attentive_gru.edge_transform.1.bias f4 [64]
0	0x3df2105a	0.11819525
1	0x3d53ea47	0.051737096
2	0xbd8c46dd	-0.068494536
3	0xbd6f252d	-0.058385063
4	0xbc1edc20	-0.009696037
5	0xbd7bb4f2	-0.06145186
6	0x3d02b399	0.03190956
7	0x3dbbd934	0.091722876
8	0xbdac8604	-0.08423999
9	0x3db41475	0.08792964
10	0xbd811d57	-0.06304424
11	0xbd1180ff	-0.03552341
12	0xbdf2474f	-0.11830007
13	0xbba69f52	-0.0050849104
14	0x3dbe887b	0.09303375
15	0x3ccc80cd	0.02496376
16	0xbd3604cd	-0.044438172
17	0x3ce0dd50	0.02744928
18	0xbd2230cd	-0.03959732
19	0xbd5674eb	-0.052357595
20	0x3db44f17	0.08804148
21	0xbda51424	-0.08060482
22	0xbd45d79f	-0.048301335
23	0x3c604de3	0.013690445
24	0x3d3bf19c	0.045884714
25	0xbd140386	-0.036136173
26	0xbd99e426	-0.07514219
27	0xbd4be074	-0.049774602
28	0xbd5c3e4a	-0.05377034
29	0x3ccfb244	0.025353558
30	0xbcb02d7d	-0.021506066
31	0x3da837a0	0.082137346
32	0x3c52dbac	0.012869757
33	0xbd10c479	-0.03534362
34	0xbda98c2a	-0.08278687
35	0xbdd9be2a	-0.10631974
36	0x3d5f8fbe	0.054580443
37	0xbc8a42b6	-0.016877513
38	0xbd45704a	-0.04820279
39	0xbd59f2fb	-0.05321024
40	0xbd87fca5	-0.06639985
41	0xbdc8a5e0	-0.09797263
42	0xbdc9b673	-0.098492526
43	0x3dafcb25	0.085836686
44	0xbd812f3b	-0.063078366
45	0xbd316dd2	-0.043317623
46	0xbdd2bddd	-0.1029012
47	0xbcd4deca	-0.02598514
48	0xbb97d3e6	-0.0046334146
49	0x3ce16b6b	0.027517041
50	0xbcf7df8c	-0.030257963
51	0xbd1ede03	-0.038785946
52	0x3c131072	0.008976089
53	0xbd92cee2	-0.07168366
54	0x3dea36ac	0.11436209
55	0x3d7ac07b	0.06121872
56	0x3dae0a5b	0.08498069
57	0xbc1e4fd7	-0.00966259
58	0x3d0f3144	0.034959093
59	0x3d97d301	0.07413293
60	0xbdadb2e9	-0.0848139
61	0xbdac8e46	-0.08425574
62	0xbb7db56a	-0.0038712868
63	0xbd8bef90	-0.06832802

gnn.init_context.attentive_gru.gru.weight_ih f4 [192, 64]
0	0x3e29493f	0.16531847
1	0xbc6d4448	-0.014481612
2	0x3df1f69a	0.11814614
3	0xbdf1f4f6	-0.11814301
4	0xbe34da3b	-0.17661373
5	0xbdd3765a	-0.10325308
6	0xbdbb40ae	-0.09143196
7	0xbe1e647b	-0.15468018
8	0xbe336a12	-0.17520931
9	0x3d612fc6	0.0549772
10	0x3e498748	0.19680512
11	0xbd1f4d05	-0.03889181
12	0x3d3b28ab	0.04569308
13	0xbd08f1b6	-0.03343364
14	0x3e120dda	0.14263096
15	0xbd9b8cee	-0.075952396
16	0xbe024ad8	-0.12723863
17	0x3db56788	0.08857638
18	0xbced4790	-0.028964788
19	0xbda22280	-0.079167366
20	0x3e556f01	0.20843126
21	0xbde2bfce	-0.1107174
22	0x3d8fd9a3	0.07023933
23	0xbb239bab	-0.0024964612
24	0x3e51e3ac	0.20497006
25	0xbd9e3118	-0.07724208
26	0x3e271e24	0.16320091
27	0x3daaa5e3	0.08332422
28	0x3d4e56d6	0.050375782
29	0xbcbd79c4	-0.023129351
30	0x3df60ca4	0.1201413
31	0xbdad14c7	-0.084512286
32	0x3e27127c	0.16315645
33	0xbbc9f07d	-0.0061627016
34	0xbe340a93	-0.17582159
35	0xbd05beca	-0.032652654
36	0xbe63085f	-0.22171162
37	0x3df16995	0.11787716
38	0xbc9de0f4	-0.019272305
39	0xbdabc85d	-0.08387826
40	0x3d8d2011	0.06890882
41	0x3e36cf72	0.17852572
42	0xbccd607f	-0.025070427
43	0x3e0ddf98	0.13854825
44	0xbe2e9574	-0.170492
45	0x3e30e3ad	0.17274351
46	0xbbf965f3	-0.0076110302
47	0xbe3df504	-0.18550497
48	0x3d011bb1	0.03152055
49	0x3dafc2fa	0.08582111
50	0xbe2e9763	-0.17049937
51	0x3d9fb2b9	0.077977605
52	0x3df93c5f	0.12169718
53	0x3d2ba110	0.041901648
54	0x3db92c59	0.09041662
55	0xbc385662	-0.011251064
56	0x3d9a0cfc	0.07522008
57	0x3a47b8b7	0.0007618772
58	0xbe2dcc54	-0.16972476
59	0x3deab712	0.11460699
60	0x3d3990e8	0.04530421
61	0xbc44359e	-0.011975674
62	0xbe15ef64	-0.14642102
63	0xbe1d1e04	-0.15343481
64	0xbd9c3bdc	-0.07628605
65	0xbc1c63ab	-0.009545247
66	0x3c115eb0	0.008872673
67	0x3d21a5b8	0.039464682
68	0x3d654a9d	0.05597936
69	0x3ccd8ce1	0.02509159
70	0x3d6ce7e5	0.05783834
71	0x3d485959	0.048913334
72	0x3c84b39a	0.016198922
73	0xbc356ad5	-0.011072834
74	0xbcfd44a9	-0.030916529
75	0x3a94a167	0.0011339606
76	0x3dde71db	0.1086156
77	0x3df1ad1d	0.11800597
78	0xbc4d4274	-0.012528051
79	0x3d7f767f	0.062368866
80	0x3d02878c	0.03186755
81	0xbd057297	-0.032579985
82	0x3c8f06da	0.017459322
83	0x3d537f63	0.051635157
84	0x3bd18ec9	0.006395195
85	0x3d476ee2	0.04868973
86	0xbd85b95d	-0.06529496
87	0x3c6c5c09	0.01442624
88	0x39a77fe5	0.0003194801
89	0x3dad61bb	0.08465906
90	0xbd11131a	-0.035418607
91	0x3be24102	0.006904722
92	0xbd9b49a4	-0.07582405
93	0x3d756baf	0.05991715
94	0xbc6fced5	-0.014636715
95	0x3ced5604	0.02897168
96	0xbd5e215d	-0.054231036
97	0xbcb4198e	-0.021984842
98	0x3d3f8e34	0.046766475
99	0x3c3b0eed	0.011417133
100	0x3da1a28e	0.07892333
101	0xbcecd7ab	-0.028911432
102	0x3d230ffc	0.039810166
103	0x3d04c71c	0.032416448
104	0xbd9137c3	-0.07090714
105	0xbd68349d	-0.0566908
106	0x3c33ae0e	0.010966791
107	0xbdb0a1b8	-0.086245954
108	0x3d302be7	0.04301062
109	0xbd359a55	-0.044336636
110	0x3d4c8b14	0.049937323
111	0x3d0d2f89	0.03446916
112	0x3ca8009b	0.020508101
113	0xbd417954	-0.04723485
114	0x3dae9e93	0.085263394
115	0x3cee8f02	0.029120926
116	0xbd66dbb8	-0.056361884
117	0x3be8ef95	0.0071086385
118	0xbd7dd4c7	-0.0619705
119	0x3d2a9930	0.041649997
120	0x3c60568f	0.013692512
121	0x3c16df46	0.009208506
122	0x3d1c3db5	0.038144786
123	0x3c585fe3	0.013206455
124	0xbd9d4b3f	-0.07680368
125	0xbd498714	-0.049201086
126	0x3d306b87	0.043071296
127	0xbb4d2720	-0.0031303838
128	0x3ceaeb67	0.028676702
129	0x3d07d4cc	0.033161923
130	0x3cc94fbf	0.024574159
131	0xbd2791a9	-0.040910397
132	0xbda0ac73	-0.07845392
133	0x3ce9131f	0.0284515
134	0x3ce36918	0.027760074
135	0xbc066583	-0.008202913
136	0xba43726d	-0.00074557104
137	0x3cd27a14	0.025692977
138	0x3d806190	0.062686086
139	0xbb813cff	-0.003944039
140	0x3c62c1b3	0.013840127
141	0xbcf9c7a0	-0.030490696
142	0x3d69813c	0.057008013
143	0xbd8e91f4	-0.06961432
144	0x3d110d92	0.035413332
145	0x3c468c2c	0.0121183805
146	0x3c13cc75	0.009020914
147	0xbca04860	-0.019565761
148	0x3d01800c	0.031616256
149	0x3c2acc64	0.010424707
150	0xbb6b837b	-0.0035936523
151	0xbd8cf37a	-0.06882377
152	0xbc968420	-0.018373549
153	0xbdaf5cbe	-0.08562611
154	0x3d7daf33	0.06193466
155	0xbd49d77b	-0.049277764
156	0x3d1ecd8c	0.038770244
157	0xbd7d8459	-0.061893795
158	0x3cb264f2	0.02177665
159	0x3c5e3dd9	0.01356455
160	0x3cd1a36e	0.025590625
161	0xbd109f4a	-0.03530816
162	0xbb71c00a	-0.0036888146
163	0x3d5f4259	0.054506633
164	0xbd3d3cf3	-0.046200704
165	0x3cec4764	0.028842635
166	0xbd21c196	-0.03949126
167	0xbb4164d2	-0.0029509556
168	0x3c286403	0.010277751
169	0x3d806be6	0.0627058
170	0xbd8d29f9	-0.06892771
171	0x3d85d1ad	0.06534133
172	0xbb8d75e7	-0.0043170336
173	0x3d6ec1e4	0.058290377
174	0xbaff0372	-0.0019455983
175	0x3c9a7c17	0.018857999
176	0xbd854926	-0.065080926
177	0x3c122a59	0.008921229
178	0xbceea571	-0.029131623
179	0xbc40d5c3	-0.011769715
180	0x3d7a7049	0.06114224
181	0x3d79876f	0.060920175
182	0xbc9b687d	-0.018970722
183	0xbcf0f635	-0.029414276
184	0xbca12e4e	-0.0196754
185	0xbc1a4a27	-0.009417093
186	0xbcaf9fa4	-0.021438427
187	0x3d9ec6d2	0.07752766
188	0xbc6f6752	-0.014612036
189	0x3d61b350	0.055102646
190	0xbc8a82d6	-0.01690809
191	0xbbebc8ac	-0.007195553
192	0x3cbebad8	0.023282453
193	0x3c10a5ca	0.00882859
194	0x3d5cf190	0.05394131
195	0x3ce8db02	0.028424744
196	0xbade1bde	-0.0016945561
197	0xbc40aa03	-0.011759284
198	0x3d781e68	0.060575873
199	0x3b858634	0.004074836
200	0x3b8888b0	0.004166685
201	0x3cfa2524	0.030535288
202	0x3d0a97d0	0.033836186
203	0x3d03794d	0.032098103
204	0x3ccd478b	0.025058528
205	0xbcb3c710	-0.021945506
206	0xbb79c24e	-0.00381102
207	0xbcfef562	-0.031122867
208	0x3d0408c3	0.03223492
209	0xbbc75738	-0.0060833953
210	0xbbb460dc	-0.0055047106
211	0x3dbeb9b3	0.09312763
212	0x3c0b78b7	0.008512667
213	0xbabf4e1e	-0.0014595424
214	0x3d2bcc4c	0.04194288
215	0xbd8835b3	-0.06650867
216	0x3d752062	0.059845336
217	0x3d25ec28	0.04050842
218	0xbc4a27c7	-0.012338585
219	0x3da79eaf	0.08184563
220	0xbcffa878	-0.031208262
221	0x3d8d2aeb	0.068929516
222	0xbd21a3d1	-0.039462868
223	0x3cfeb804	0.031093605
224	0x3d077433	0.0330698
225	0x3dd0c245	0.10193304
226	0x3c84381f	0.016140042
227	0x3d41f64a	0.04735402
228	0xbcdaa54d	-0.02669015
229	0x3ab57a23	0.0013845604
230	0x3d3908b0	0.0451743
231	0xbc61dddf	-0.013785808
232	0x3db4ad67	0.08822136
233	0xbc945636	-0.018107515
234	0xbc110e9c	-0.008853581
235	0xbcb62ad9	-0.022237228
236	0x3d66652c	0.05624883
237	0x3d0fd31c	0.03511344
238	0xbd09ab76	-0.033610784
239	0xbda24830	-0.07923925
240	0x3c4bd564	0.012441013
241	0x3d83ab12	0.064291134
242	0xbd322997	-0.043496694
243	0x3d2331de	0.03984248
244	0xbb3701e9	-0.0027924723
245	0xbcb80bb2	-0.022466514
246	0x3d991872	0.07475366
247	0x3d00be49	0.03143147
248	0x3cac688f	0.021045951
249	0x3d18fed7	0.03735241
250	0x3ce73a6d	0.028226102
251	0x3c8f172b	0.017467102
252	0xbc4c0ce5	-0.012454246
253	0xbbc57062	-0.00602536
254	0x3d5d17a1	0.053977612
255	0x3c4be59b	0.012444879

gnn.init_context.attentive_gru.gru.weight_hh f4 [192, 64]
0	0x3d963897	0.073350124
1	0x3d1434f2	0.036183305
2	0x3e0fbf55	0.14037831
3	0x3e65aaeb	0.22428481
4	0x3e46490f	0.19363807
5	0x3dfbe8fe	0.12300299
6	0x3e17f02b	0.1483771
7	0x3dc69a6e	0.09697424
8	0x3e0a93e1	0.13532974
9	0x3e39e97c	0.18155473
10	0x3e28151f	0.16414307
11	0x3d97825c	0.07397911
12	0x3e281c59	0.16417064
13	0x3d0669f4	0.03281589
14	0x3c746548	0.014916725
15	0x3dbea089	0.093079634
16	0x3e8866a8	0.2664082
17	0x3e1b86cb	0.15188138
18	0x3dfffc1d	0.12499259
19	0x3e0a6964	0.13516766
20	0x3d050bc5	0.032481927
21	0x3dadb091	0.08480943
22	0x3df7fad8	0.121083915
23	0x3da85c28	0.082207024
24	0x3e4705df	0.19435833
25	0x3dc443d5	0.095832504
26	0x3e4d5ecf	0.20055698
27	0x3dc7cb04	0.09755519
28	0x3dc85261	0.097813375
29	0x3decb9c4	0.115588695
30	0x3e0af3fe	0.13569638
31	0x3cb14184	0.021637686
32	0x3d7b54ae	0.061360054
33	0x3da905de	0.08253072
34	0x3dc886a9	0.097913094
35	0x3e0b5b6e	0.13609096
36	0x3e48e296	0.19617686
37	0x3e0a5979	0.13510694
38	0x3dc0f97e	0.09422587
39	0x3e1c1048	0.15240586
40	0x3dda41a4	0.10657051
41	0x3decae55	0.11556689
42	0x3e10f23c	0.14154905
43	0x3db9c751	0.0907122
44	0x3e01c1ea	0.12671629
45	0x3dda0d47	0.10647064
46	0x3d954f0f	0.0729047
47	0xbd2534c6	-0.04033353
48	0x3e14d62f	0.1453483
49	0x3e033788	0.12814152
50	0x3d879690	0.066205144
51	0x3dd8c07b	0.10583588
52	0x3e5d7ca3	0.21629576
53	0x3e177ed5	0.14794476
54	0x3e0e4fba	0.13897601
55	0x3e25f08d	0.16205044
56	0x3e6d034a	0.23145786
57	0x3d87f9e6	0.06639461
58	0x3e2297b1	0.15878178
59	0x3d9d0768	0.07667428
60	0xbdad8103	-0.08471873
61	0x3d29e0e4	0.041474238
62	0x3d891ea8	0.066953
63	0x3e489183	0.19586758
64	0xbc05f6ea	-0.008176545
65	0x3c85784c	0.016292714
66	0xbcb7dcbb	-0.02244412
67	0xbc7d55dc	-0.015462365
68	0x3c3b9726	0.011449611
69	0x3ca526f2	0.020160172
70	0xbc95564a	-0.018229622
71	0xbc25eb3a	-0.010126883
72	0xbd0db313	-0.034594607
73	0xbd16f208	-0.036851913
74	0x3d09c498	0.033634752
75	0x3c8ed88f	0.017437248
76	0xbd643fe3	-0.05572499
77	0xbce4621c	-0.027878813
78	0xbd0acc61	-0.033886317
79	0xbb05b48e	-0.0020401808
80	0x3cda0c28	0.026617125
81	0xbb92e988	-0.0044834055
82	0xbb0b23b2	-0.0021230993
83	0xbc76f0c0	-0.015072048
84	0xbdb24bc5	-0.08705858
85	0xbb4debfc	-0.0031421175
86	0xbd73ee28	-0.059553295
87	0xbc470be1	-0.012148828
88	0x3c9c7944	0.019100793
89	0xbd375569	-0.044759188
90	0xbc0d1b2b	-0.008612434
91	0xbc326ee9	-0.010890701
92	0xbd245bd0	-0.04012662
93	0x3ba8e1ea	0.005153884
94	0xbca198ff	-0.019726275
95	0xbd642ac5	-0.05570485
96	0xbc409cbe	-0.01175612
97	0xbd84d315	-0.06485573
98	0x3a58e841	0.00082743546
99	0xbbd5f17c	-0.0065290313
100	0xbbbd54f8	-0.0057779513
101	0xbc8cd565	-0.017191598
102	0x3cb6ddb9	0.022322522
103	0x3d69f617	0.057119455
104	0x3d32ff39	0.04370043
105	0xbca8dc68	-0.02061291
106	0xbc10c0d2	-0.008835034
107	0xbc0751d9	-0.00825926
108	0x3b8560d3	0.0040703802
109	0x3c437860	0.011930555
110	0xbd1d526d	-0.038408685
111	0xbd087241	-0.033312086
112	0xbd639ea7	-0.055571225
113	0xbd55f669	-0.05223695
114	0x3cdc6174	0.026901938
115	0xbcbf7497	-0.023371024
116	0xbd693310	-0.056933463
117	0x3c983c31	0.018583389
118	0x3d56fe8c	0.05248885
119	0xbcc15079	-0.023597943
120	0xbba3c46d	-0.004997781
121	0xbd57250d	-0.05252557
122	0xbbdb2ebe	-0.0066889217
123	0xbc5a3d8e	-0.01332034
124	0xbd7efa87	-0.06225064
125	0xbcb3dd0d	-0.021955991
126	0xbb63f0c0	-0.003478095
127	0x3b2b5fc7	0.0026149617
128	0x3bb7f993	0.0056144684
129	0xbdade5af	-0.08491074
130	0xbd8a529d	-0.067540385
131	0x3cef65ff	0.02922344
132	0xbd053d89	-0.032529388
133	0xbcccecc8	-0.02501525
134	0x3daa159d	0.08304904
135	0x3d5dddd4	0.05416663
136	0xbc9ce200	-0.019150734
137	0xbe0d48f2	-0.13797358
138	0x3c92eba1	0.017934622
139	0x3b1ea8a1	0.0024209397
140	0xbd560942	-0.052254923
141	0xbc2815a0	-0.010259062
142	0x3d832b43	0.06404736
143	0x3d86c354	0.06580225
144	0x3c9f8947	0.019474639
145	0x3cc37574	0.023859717
146	0xbdb6cb80	-0.08925533
147	0x3d1922e6	0.037386797
148	0x3b9b23d3	0.004734495
149	0x3e0e8e84	0.13921553
150	0x3cc5280d	0.02406695
151	0x3dac5e94	0.08416477
152	0xbd79457f	-0.060857292
153	0xbb6bf42a	-0.0036003687
154	0xbca887e7	-0.020572616
155	0x3e03029a	0.12793961
156	0x3dd595cf	0.10428964
157	0x3c210375	0.009827484
158	0x3deb01f1	0.1147498
159	0xbd37ae41	-0.044843916
160	0x3dafb082	0.08578588
161	0x3dd56db6	0.10421316
162	0x3d531e65	0.05154266
163	0x3ca8ab78	0.020589575
164	0x3de173be	0.11008404
165	0xbd9af1c9	-0.07565648
166	0xbc9316fd	-0.017955298
167	0x3d5f7551	0.05455524
168	0x3d65a6e6	0.05606737
169	0x3ccdc05b	0.025116136
170	0xbd01e24c	-0.031709954
171	0xbc903ed3	-0.017608082
172	0xbd23a806	-0.03995516
173	0xbc6c2ac5	-0.014414494
174	0xbb1564e3	-0.002279573
175	0x3d108cfd	0.035290707
176	0xbc62c874	-0.013841737
177	0x3d004396	0.031314455
178	0xbd1925a2	-0.037389405
179	0x3dc03466	0.09384994
180	0x3d1365bc	0.035985693
181	0xbe37a6ed	-0.17934771
182	0x3c2f4bf5	0.010699262
183	0xbd4a8415	-0.04944237
184	0xbc444596	-0.011979481
185	0x3e0674d7	0.13130508
186	0x3b88dc21	0.004176632
187	0x3d004eed	0.03132527
188	0xbb50cd4e	-0.0031860652
189	0x3cbbda8f	0.022931365
190	0x3d542c18	0.051799864
191	0x3d825743	0.063643
192	0x3c97bedb	0.018523624
193	0xbc64f9f7	-0.013975612
194	0x3c8d8c21	0.017278733
195	0xbbd159ea	-0.0063888924
196	0xbcadf43e	-0.021234628
197	0x3d018719	0.03162298
198	0x3ccd0880	0.025028467
199	0x3d4798f7	0.048729863
200	0xbb93b44a	-0.004507576
201	0x3d1c9c9d	0.038235296
202	0x3c1f5d96	0.0097269025
203	0x3ce9c440	0.028535962
204	0x3d01efd4	0.03172286
205	0x3c85e500	0.016344547
206	0x3bba98cc	0.0056944843
207	0x3955ca8e	0.0002038872
208	0x3cc29f28	0.023757532
209	0x3d9aae08	0.07552725
210	0xbc54c716	-0.012986919
211	0x3cf1cc15	0.02951626
212	0x3ca4c720	0.020114481
213	0x3b9312a6	0.004488307
214	0xbcfb4724	-0.03067357
215	0x3c907daa	0.017638046
216	0x3cd1f78e	0.025630739
217	0xbd13faef	-0.03612798
218	0x3c5d36af	0.013501807
219	0x3c89374a	0.016749997
220	0x3d315758	0.043296188
221	0x3cf848c5	0.030308137
222	0x3c8562d9	0.016282486
223	0x3c92d432	0.017923448
224	0x3d0ac486	0.033878826
225	0x3c4f285e	0.012643902
226	0x3d67e3c2	0.05661369
227	0x3cb6b912	0.022305045
228	0x3d6206ca	0.055182256
229	0xbbd0b492	-0.006369182
230	0x3d09c5ba	0.033635832
231	0x3d59c107	0.0531626
232	0x3d011743	0.031516325
233	0xbb2c3b87	-0.0026280598
234	0xbc58babe	-0.013228117
235	0x3ba6d75d	0.0050915913
236	0xbc861d9c	-0.01637154
237	0x3cc15522	0.023600165
238	0x3d2c04b6	0.04199668
239	0x3cc797d1	0.024364384
240	0xbbb3eb2f	-0.0054906826
241	0xbbe55510	-0.0069986656
242	0xbc2ca297	-0.010536811
243	0x3d59a377	0.053134408
244	0x3ad36ea3	0.0016130995
245	0xb744a6ed	-1.1721376e-05
246	0x3bafa22b	0.005359908
247	0x3a4d8806	0.00078403985
248	0x3d08fad7	0.033442345
249	0x3d1c4101	0.03814793
250	0xbc028e92	-0.007968562
251	0x3ca3f976	0.020016413
252	0xbc858071	-0.016296597
253	0x3cb8290e	0.022480514
254	0x3c1807a8	0.009279169
255	0x3d6843da	0.056705333

gnn.init_context.attentive_gru.gru.bias_ih f4 [192]
0	0x3e7ce225	0.24695642
1	0xbab8e9cc	-0.0014107763
2	0xbc618942	-0.013765635
3	0xbca67465	-0.020319173
4	0x3da75d35	0.08172075
5	0x3dbe6e1c	0.092983454
6	0x3ca00766	0.019534778
7	0x3dd76e35	0.10519067
8	0x3cee7020	0.0291062
9	0x3d0cde71	0.034391824
10	0x3d584c08	0.052806884
11	0x3e714c1f	0.23564194
12	0x3d83689c	0.06416437
13	0x3d932284	0.07184318
14	0x3c664dda	0.014056647
15	0xbc8fa0c4	-0.017532714
16	0xbdb9e958	-0.0907771
17	0x3ddb5d98	0.10711211
18	0x3e26c7be	0.16287133
19	0xbcd7df78	-0.026351675
20	0x3d8fe496	0.07026021
21	0x3e064571	0.13112427
22	0xbd045d7d	-0.03231572
23	0x3c62217f	0.013801931
24	0xbdb5c5d0	-0.0887562
25	0x3d3a71d6	0.04551872
26	0x3d531dac	0.05154197
27	0xbd9f73e3	-0.077857755
28	0x3bd07377	0.0063614207
29	0xbd4a76b8	-0.049429625
30	0x3e41b527	0.1891676
31	0x3c0525e7	0.008126712
32	0x3e42f7af	0.19039796
33	0x3e12b12c	0.14325398
34	0x3e88420b	0.26612887
35	0x39d31a39	0.00040264594
36	0xbca89b7c	-0.020581953
37	0x3d943cd5	0.07238165
38	0x3dcfd109	0.10147292
39	0xbd88053d	-0.06641624
40	0x3a042b4f	0.0005041854
41	0x3e1b15b4	0.15144998
42	0x3d7731b2	0.060350128
43	0xbd0474f2	-0.03233809
44	0xbd98ed0a	-0.074670866
45	0x3c8fa59e	0.017535027
46	0x3c8c4744	0.017123826
47	0xbd186b0d	-0.037211467
48	0x3daa01c9	0.08301122
49	0x3df5532b	0.11978754
50	0xbb954bbf	-0.004556149
51	0x3cd6a6ac	0.026202522
52	0x3d8e0284	0.069340736
53	0xbc47525b	-0.012165631
54	0xbe0603ac	-0.13087338
55	0x3d12094c	0.035653397
56	0xbb84e899	-0.004056048
57	0x3e1b01be	0.15137383
58	0x3d877986	0.06614976
59	0x3e007341	0.12543966
60	0x3e088965	0.13333662
61	0x3d971068	0.07376176
62	0x3c94e213	0.018174207
63	0x3b56511a	0.003270215
64	0xbe610aee	-0.21976826
65	0x3dbbfbf2	0.09178914
66	0xbda51965	-0.08061484
67	0xbd864253	-0.06555619
68	0xbdb9ab99	-0.09065933
69	0x3c60ee10	0.0137286335
70	0x3d0e6360	0.03476274
71	0x3c8b3ca2	0.016996685
72	0x3daf54a2	0.08561064
73	0xbd49fe56	-0.04931482
74	0xbdc22540	-0.09479761
75	0x3d6f4b67	0.05842152
76	0x3d81cc8d	0.06337843
77	0xbcc77724	-0.024348803
78	0x3e0f188b	0.13974206
79	0x3d01fbfe	0.03173446
80	0x3d753674	0.059866384
81	0x3d2f3cec	0.04278271
82	0xbcd37b21	-0.025815548
83	0x3dc5e95b	0.0966365
84	0x3dca6e77	0.09884351
85	0xbd52c4f9	-0.05145738
86	0xbd697d3b	-0.057004195
87	0xbb9feef4	-0.0048807804
88	0x3d7ef41a	0.062244512
89	0xbc884fa9	-0.016639547
90	0x3e3a8fdd	0.18218942
91	0x3dcc8a36	0.09987299
92	0x3e1153af	0.14192079
93	0xbd2ffdb5	-0.042966563
94	0x3d489dc7	0.048978593
95	0x3dbe0c6e	0.092797145
96	0xbc33d0b5	-0.010975053
97	0xbd8439a7	-0.06456309
98	0xbd31620e	-0.043306403
99	0x3d640ae6	0.055674456
100	0x3d39a2de	0.045321338
101	0xbd5f883c	-0.054573283
102	0x3c6f30a0	0.014598995
103	0x3d1417ee	0.036155634
104	0x3dbedbe6	0.09319286
105	0x3d042eaf	0.032271083
106	0xbd067419	-0.032825563
107	0x3d747a44	0.059686914
108	0x3d074600	0.03302574
109	0xbd04e572	-0.03244538
110	0xbe100019	-0.14062537
111	0x3e015094	0.12628394
112	0x3ca49ff6	0.020095807
113	0xbce5f75c	-0.028072052
114	0xbd15c070	-0.036560476
115	0x3d944f8d	0.072417356
116	0xbd674aa3	-0.056467663
117	0xbda6584f	-0.08122312
118	0x3cb193f4	0.021676995
119	0xbdc37d4e	-0.09545384
120	0xbd8ca1a0	-0.06866765
121	0x3d0da175	0.034577806
122	0xbca274bd	-0.019831056
123	0x3cb40be4	0.021978326
124	0xbdb20dfc	-0.086940736
125	0x3d5ee3e5	0.054416556
126	0x3d448dbe	0.04798674
127	0x3db20932	0.0869316
128	0x3d3a295e	0.045449607
129	0xbc9d675b	-0.019214323
130	0xbc994a3d	-0.018712157
131	0x3d4114f4	0.047139123
132	0xbd5d3194	-0.05400236
133	0xbca9a246	-0.02070726
134	0xbdf8148c	-0.12113294
135	0xbdab0092	-0.08349718
136	0xbd941a8f	-0.07231628
137	0xbe054609	-0.13014998
138	0xbc16e55e	-0.009209959
139	0xbd5daa0a	-0.05411724
140	0x3d919e65	0.071102895
141	0xbc3ca5b0	-0.011514112
142	0x3cc4db54	0.024030365
143	0x3da16bcf	0.07881891
144	0xbdd73aca	-0.1050926
145	0xbab93396	-0.0014129754
146	0xbd46c96f	-0.048531946
147	0xbbc5e250	-0.0060389414
148	0xbd7c2cc9	-0.061566148
149	0xbd2b0e7c	-0.04176186
150	0xbdf9e1ff	-0.122013085
151	0xbe1260a3	-0.14294676
152	0xbceb226c	-0.028702937
153	0x3dda755a	0.10666914
154	0x3d23722b	0.0399038
155	0x3da44c31	0.08022345
156	0xbd1ec459	-0.03876147
157	0xbd7a7b34	-0.061152652
158	0x3c9af958	0.018917724
159	0xbb4488c4	-0.0029988745
160	0xbd9b5ac1	-0.07585669
161	0x3cdad158	0.026711151
162	0xbde72d35	-0.112879194
163	0xbd8c4605	-0.06849293
164	0x3bcd9d08	0.006274823
165	0x3dba6967	0.09102135
166	0xbdfaaa0c	-0.12239465
167	0x3dbbac0c	0.09163675
168	0x3d20f5a2	0.039296754
169	0x3d0bfbe1	0.034175757
170	0x3d99386e	0.07481466
171	0x3d9f9592	0.077922
172	0xbe1291e8	-0.14313471
173	0xbcc2bfc4	-0.023773082
174	0xbdec62d6	-0.11542289
175	0x3dc0fb26	0.09422903
176	0x3b41d37c	0.0029575517
177	0x3d96f3cd	0.0737072
178	0x3d9abc4a	0.075554445
179	0xbde56f48	-0.11202866
180	0xbe099f81	-0.13439752
181	0xbb978ca5	-0.0046249204
182	0x3ced69c7	0.028981103
183	0xbdde7700	-0.10862541
184	0x3d0c731f	0.034289476
185	0xbdd4ec40	-0.103966236
186	0x3da9b89d	0.08287165
187	0x3c3ee720	0.011651784
188	0x3db231d0	0.08700907
189	0x3dc0cc69	0.09413988
190	0x3d15ba87	0.03655484
191	0x3d48a45b	0.048984867
